gtcrn_micro/models/tflite/gtcrn_micro_full_integer_quant_with_int16_act.tflite (tflite, 177904 bytes, 48 tensors)

arith.constant6 i1 [8, 1, 1, 16]
000000 e5 ea fe f1 55 18 e2 08 1c e6 7f 29 eb 3a d7 db
       -27 -22 -2 -15 85 24 -30 8 28 -26 127 41 -21 58 -41 -37
000010 81 e9 f6 14 47 d3 e4 d4 df fa bd ba 1a ab 66 f2
       -127 -23 -10 20 71 -45 -28 -44 -33 -6 -67 -70 26 -85 102 -14
000020 d7 81 ad 15 3e 17 9d b5 0a 3e 08 da 35 52 54 c5
       -41 -127 -83 21 62 23 -99 -75 10 62 8 -38 53 82 84 -59
000030 27 30 3f af 0f 7f 1e e3 47 02 f0 5c 27 36 db c2
       39 48 63 -81 15 127 30 -29 71 2 -16 92 39 54 -37 -62
000040 47 90 a1 6f ce fa 81 fb 0a 2f db ef f1 fe 33 b5
       71 -112 -95 111 -50 -6 -127 -5 10 47 -37 -17 -15 -2 51 -75
000050 e1 12 34 05 21 49 f3 a9 7f 19 c2 d6 03 02 58 3e
       -31 18 52 5 33 73 -13 -87 127 25 -62 -42 3 2 88 62
000060 d4 ee f4 0a 64 6f 09 7f 95 ec b8 1e 20 40 eb e1
       -44 -18 -12 10 100 111 9 127 -107 -20 -72 30 32 64 -21 -31
000070 f8 3b f7 d2 1c f7 4a 3e 07 1f ae 91 42 e9 36 7f
       -8 59 -9 -46 28 -9 74 62 7 31 -82 -111 66 -23 54 127

arith.constant7 i1 [16, 1, 1, 8]
000000 38 af 64 ed 10 be 7f 12 8b 1d ba 0d 2a a3 81 73
       56 -81 100 -19 16 -66 127 18 -117 29 -70 13 42 -93 -127 115
000010 42 7f 11 02 29 b4 7a 6e 3b 51 0f f3 81 14 03 d2
       66 127 17 2 41 -76 122 110 59 81 15 -13 -127 20 3 -46
000020 15 20 e6 fc 7f e9 0a 0b 38 81 d8 d3 db f4 68 46
       21 32 -26 -4 127 -23 10 11 56 -127 -40 -45 -37 -12 104 70
000030 4f ef 81 dc 3e c4 ef 1a 2b d3 81 54 75 0e cf 16
       79 -17 -127 -36 62 -60 -17 26 43 -45 -127 84 117 14 -49 22
000040 fe 7d 9f e0 af 0d ea 81 3b c3 dc f6 09 81 b0 d5
       -2 125 -97 -32 -81 13 -22 -127 59 -61 -36 -10 9 -127 -80 -43
000050 19 23 d8 15 2b ab 81 6c f1 c7 32 85 e2 04 81 06
       25 35 -40 21 43 -85 -127 108 -15 -57 50 -123 -30 4 -127 6
000060 81 2c 72 bf f0 fc fc 20 c5 16 a8 e1 81 b4 e8 d3
       -127 44 114 -65 -16 -4 -4 32 -59 22 -88 -31 -127 -76 -24 -45
000070 81 b3 e4 d3 06 d0 ac bf 41 09 d2 33 08 81 c8 64
       -127 -77 -28 -45 6 -48 -84 -65 65 9 -46 51 8 -127 -56 100

arith.constant8 i1 [8, 1, 1, 16]
000000 a8 ac 07 9e a1 d5 c1 0c 6d 92 7f 4a 23 a7 d4 07
       -88 -84 7 -98 -95 -43 -63 12 109 -110 127 74 35 -89 -44 7
000010 51 ce ae fc ab 0b 33 6f b6 7f ed 07 73 43 be 84
       81 -50 -82 -4 -85 11 51 111 -74 127 -19 7 115 67 -66 -124
000020 bd 79 7c bb 5a 25 59 d3 52 b4 50 dd 25 ba 7f cc
       -67 121 124 -69 90 37 89 -45 82 -76 80 -35 37 -70 127 -52
000030 fd c0 f4 27 19 e2 63 b0 f4 1b b9 03 81 cc 0c 48
       -3 -64 -12 39 25 -30 99 -80 -12 27 -71 3 -127 -52 12 72
000040 3f f2 1b 22 16 a3 1c 0d 0c f5 f4 7f f8 e5 14 f2
       63 -14 27 34 22 -93 28 13 12 -11 -12 127 -8 -27 20 -14
000050 95 d1 4b ff 2a a1 dc f0 7f fe 23 9a 2e 44 f8 32
       -107 -47 75 -1 42 -95 -36 -16 127 -2 35 -102 46 68 -8 50
000060 fe e7 db 12 05 7f 26 c1 12 36 c3 f3 06 10 03 fe
       -2 -25 -37 18 5 127 38 -63 18 54 -61 -13 6 16 3 -2
000070 17 81 ba 07 f8 82 1e aa 33 cb e7 75 1d 17 13 e8
       23 -127 -70 7 -8 -126 30 -86 51 -53 -25 117 29 23 19 -24

arith.constant9 i1 [16, 1, 1, 8]
000000 4c 8d c7 37 8c 14 7f 64 22 7f d9 5b 3d ac 09 18
       76 -115 -57 55 -116 20 127 100 34 127 -39 91 61 -84 9 24
000010 03 bd 7f d3 0d 06 ba 28 ac 18 fc 0b 5a ea 81 ae
       3 -67 127 -45 13 6 -70 40 -84 24 -4 11 90 -22 -127 -82
000020 e4 01 ed f5 7f 4e 24 16 81 2b 99 ef 77 98 3c 35
       -28 1 -19 -11 127 78 36 22 -127 43 -103 -17 119 -104 60 53
000030 c4 dd cd f3 81 d2 f5 13 2f 9f ac ea 7f 04 16 1b
       -60 -35 -51 -13 -127 -46 -11 19 47 -97 -84 -22 127 4 22 27
000040 05 fe 81 a0 f5 f9 47 a7 7f c6 ef 47 a0 fa 89 b9
       5 -2 -127 -96 -11 -7 71 -89 127 -58 -17 71 -96 -6 -119 -71
000050 17 7f df c7 a0 fe 8b c9 f0 dc 4b 15 27 ca 7f 06
       23 127 -33 -57 -96 -2 -117 -55 -16 -36 75 21 39 -54 127 6
000060 ba ee 34 81 ab 49 09 35 e6 5d 1c 4e 1a 81 11 9a
       -70 -18 52 -127 -85 73 9 53 -26 93 28 78 26 -127 17 -102
000070 b7 81 f8 e8 e3 48 3b ba 23 29 81 18 fb 16 43 ae
       -73 -127 -8 -24 -29 72 59 -70 35 41 -127 24 -5 22 67 -82

arith.constant10 i1 [8, 1, 1, 16]
000000 0f f3 f5 38 1f 02 f4 e1 d9 12 81 f7 05 00 17 19
       15 -13 -11 56 31 2 -12 -31 -39 18 -127 -9 5 0 23 25
000010 20 df b3 35 1b 94 5b 51 28 6e f4 81 3e fc 56 98
       32 -33 -77 53 27 -108 91 81 40 110 -12 -127 62 -4 86 -104
000020 28 81 4e 47 db 96 c3 c2 34 d7 31 1b 73 4f c9 27
       40 -127 78 71 -37 -106 -61 -62 52 -41 49 27 115 79 -55 39
000030 60 d7 da 0a eb d0 3f 47 5e 76 fc af 25 b1 c8 81
       96 -41 -38 10 -21 -48 63 71 94 118 -4 -81 37 -79 -56 -127
000040 0e a5 f8 05 81 1b 27 15 e0 0e f8 fe ef f8 d2 f4
       14 -91 -8 5 -127 27 39 21 -32 14 -8 -2 -17 -8 -46 -12
000050 3a 24 15 17 2e 98 81 6d 2a 09 f8 b5 2e 01 e5 e0
       58 36 21 23 46 -104 -127 109 42 9 -8 -75 46 1 -27 -32
000060 2f 1b 0c f3 81 01 e7 88 0c 1e e0 e5 17 14 e1 05
       47 27 12 -13 -127 1 -25 -120 12 30 -32 -27 23 20 -31 5
000070 c5 30 9b 0e 81 4c 20 19 d0 1b f3 ba 19 ce 4b ed
       -59 48 -101 14 -127 76 32 25 -48 27 -13 -70 25 -50 75 -19

arith.constant11 i1 [16, 1, 1, 8]
000000 35 7f e2 db 17 d4 fc 27 fe 64 a0 25 d2 81 c6 66
       53 127 -30 -37 23 -44 -4 39 -2 100 -96 37 -46 -127 -58 102
000010 df 35 e9 26 81 d5 08 db dd c2 42 3d 4f 95 4a 81
       -33 53 -23 38 -127 -43 8 -37 -35 -62 66 61 79 -107 74 -127
000020 81 0e 15 d0 f1 05 0a f4 40 11 6e 81 14 aa d6 fc
       -127 14 21 -48 -15 5 10 -12 64 17 110 -127 20 -86 -42 -4
000030 f4 ac f2 cb 7c 11 7f e7 a3 e0 8a 7f 5b 7d 2c 0c
       -12 -84 -14 -53 124 17 127 -25 -93 -32 -118 127 91 125 44 12
000040 31 9e 54 81 95 90 d8 15 f6 37 f2 fe 7f 03 40 32
       49 -98 84 -127 -107 -112 -40 21 -10 55 -14 -2 127 3 64 50
000050 1c c8 07 11 7f 1c aa 36 1d 43 78 0c 7f e9 d6 d7
       28 -56 7 17 127 28 -86 54 29 67 120 12 127 -23 -42 -41
000060 ca 9c ea e9 81 15 10 0c ed d0 ce 9c f1 7b a6 81
       -54 -100 -22 -23 -127 21 16 12 -19 -48 -50 -100 -15 123 -90 -127
000070 77 f7 e8 d6 81 cc 6a 7f f5 a6 09 07 c8 40 ec 7f
       119 -9 -24 -42 -127 -52 106 127 -11 -90 9 7 -56 64 -20 127

arith.constant53 i1 [192, 64]
000000 7f 00 00 00 00 00 00 00 00 00 00 00 00 00 00 00
       127 0 0 0 0 0 0 0 0 0 0 0 0 0 0 0
000010 00 00 00 00 00 00 00 00 00 00 00 00 00 00 00 00
       0 0 0 0 0 0 0 0 0 0 0 0 0 0 0 0
000020 00 00 00 00 00 00 00 00 00 00 00 00 00 00 00 00
       0 0 0 0 0 0 0 0 0 0 0 0 0 0 0 0
000030 00 00 00 00 00 00 00 00 00 00 00 00 00 00 00 00
       0 0 0 0 0 0 0 0 0 0 0 0 0 0 0 0
000040 00 7f 00 00 00 00 00 00 00 00 00 00 00 00 00 00
       0 127 0 0 0 0 0 0 0 0 0 0 0 0 0 0
000050 00 00 00 00 00 00 00 00 00 00 00 00 00 00 00 00
       0 0 0 0 0 0 0 0 0 0 0 0 0 0 0 0
000060 00 00 00 00 00 00 00 00 00 00 00 00 00 00 00 00
       0 0 0 0 0 0 0 0 0 0 0 0 0 0 0 0
000070 00 00 00 00 00 00 00 00 00 00 00 00 00 00 00 00
       0 0 0 0 0 0 0 0 0 0 0 0 0 0 0 0
000080 00 7f 7f 00 00 00 00 00 00 00 00 00 00 00 00 00
       0 127 127 0 0 0 0 0 0 0 0 0 0 0 0 0
000090 00 00 00 00 00 00 00 00 00 00 00 00 00 00 00 00
       0 0 0 0 0 0 0 0 0 0 0 0 0 0 0 0
0000a0 00 00 00 00 00 00 00 00 00 00 00 00 00 00 00 00
       0 0 0 0 0 0 0 0 0 0 0 0 0 0 0 0
0000b0 00 00 00 00 00 00 00 00 00 00 00 00 00 00 00 00
       0 0 0 0 0 0 0 0 0 0 0 0 0 0 0 0
0000c0 00 00 7f 00 00 00 00 00 00 00 00 00 00 00 00 00
       0 0 127 0 0 0 0 0 0 0 0 0 0 0 0 0
0000d0 00 00 00 00 00 00 00 00 00 00 00 00 00 00 00 00
       0 0 0 0 0 0 0 0 0 0 0 0 0 0 0 0
0000e0 00 00 00 00 00 00 00 00 00 00 00 00 00 00 00 00
       0 0 0 0 0 0 0 0 0 0 0 0 0 0 0 0
0000f0 00 00 00 00 00 00 00 00 00 00 00 00 00 00 00 00
       0 0 0 0 0 0 0 0 0 0 0 0 0 0 0 0

arith.constant54 i1 [2, 1, 5, 16]
000000 1b 02 d4 fe 2a fb a1 fc 1d fe d4 ee 16 0f f5 05
       27 2 -44 -2 42 -5 -95 -4 29 -2 -44 -18 22 15 -11 5
000010 1e 05 e2 fa 1f eb ad 2f 78 fd 92 ef 06 1f f1 18
       30 5 -30 -6 31 -21 -83 47 120 -3 -110 -17 6 31 -15 24
000020 12 01 19 07 dd e3 dc 7f 7a fb 65 df f0 1c 04 1c
       18 1 25 7 -35 -29 -36 127 122 -5 101 -33 -16 28 4 28
000030 0f 04 ea fb dd fa e4 7c 25 fd 6d dd f8 21 f1 2d
       15 4 -22 -5 -35 -6 -28 124 37 -3 109 -35 -8 33 -15 45
000040 11 0e ce f7 f1 04 bb 22 01 fe c1 ec f9 12 ee 25
       17 14 -50 -9 -15 4 -69 34 1 -2 -63 -20 -7 18 -18 37
000050 00 04 ce 08 15 0e 81 fb fe 02 c0 f3 03 01 fc 01
       0 4 -50 8 21 14 -127 -5 -2 2 -64 -13 3 1 -4 1
000060 fb fc 21 ff ff f8 48 0b 01 fe 24 07 00 ff fd f6
       -5 -4 33 -1 -1 -8 72 11 1 -2 36 7 0 -1 -3 -10
000070 ff 05 07 0a df f5 19 01 02 fb 20 f4 f9 fd 0a 07
       -1 5 7 10 -33 -11 25 1 2 -5 32 -12 -7 -3 10 7
000080 ff ff 0d f0 04 ff 11 fd fb 06 05 ff 01 fe f8 fc
       -1 -1 13 -16 4 -1 17 -3 -5 6 5 -1 1 -2 -8 -4
000090 01 04 c9 fe fd 04 85 fd ff 01 bc e7 fa 01 02 08
       1 4 -55 -2 -3 4 -123 -3 -1 1 -68 -25 -6 1 2 8

arith.constant55 i1 [16, 1, 5, 16]
000000 fd 17 39 fc e7 37 81 f5 f2 dc dd 1e ed f7 ee f3
       -3 23 57 -4 -25 55 -127 -11 -14 -36 -35 30 -19 -9 -18 -13
000010 f1 ef 1d 02 0e 06 fe 05 28 f2 ca ff 07 ff 2e 11
       -15 -17 29 2 14 6 -2 5 40 -14 -54 -1 7 -1 46 17
000020 c9 d5 c8 05 08 0f 0c fb 44 d1 e6 f4 d3 4b ee 11
       -55 -43 -56 5 8 15 12 -5 68 -47 -26 -12 -45 75 -18 17
000030 bf e5 22 fb 20 04 1d 15 10 03 eb ea e8 e6 29 f7
       -65 -27 34 -5 32 4 29 21 16 3 -21 -22 -24 -26 41 -9
000040 4b e5 2e 02 1e fc ec ff 1c 05 1f fa cd f5 2b 0c
       75 -27 46 2 30 -4 -20 -1 28 5 31 -6 -51 -11 43 12
000050 ce 0f 05 05 f2 13 e2 e0 13 12 f2 05 c5 f6 fd ff
       -50 15 5 5 -14 19 -30 -32 19 18 -14 5 -59 -10 -3 -1
000060 ee 00 fd fc f1 f4 13 f2 05 00 e6 fd fc f6 fb f7
       -18 0 -3 -4 -15 -12 19 -14 5 0 -26 -3 -4 -10 -5 -9
000070 1c f7 10 f4 05 13 e5 08 f8 f1 0d f3 23 f7 15 fe
       28 -9 16 -12 5 19 -27 8 -8 -15 13 -13 35 -9 21 -2
000080 f8 01 fc 00 00 09 0c 05 fa 03 e4 fe 02 02 02 05
       -8 1 -4 0 0 9 12 5 -6 3 -28 -2 2 2 2 5
000090 00 09 17 07 01 12 02 0a 2a fe 29 1e 81 f5 06 02
       0 9 23 7 1 18 2 10 42 -2 41 30 -127 -11 6 2
0000a0 53 21 fe 00 1a f4 01 0b 18 f7 1a 0c bf d1 e6 17
       83 33 -2 0 26 -12 1 11 24 -9 26 12 -65 -47 -26 23
0000b0 fe 01 f3 fd fb 00 08 fa f9 02 f4 07 e5 0b fb 07
       -2 1 -13 -3 -5 0 8 -6 -7 2 -12 7 -27 11 -5 7
0000c0 79 f3 16 14 dc 25 ca 51 15 22 f4 f8 81 d5 0d 0f
       121 -13 22 20 -36 37 -54 81 21 34 -12 -8 -127 -43 13 15
0000d0 01 02 11 06 f8 f8 f7 f9 f8 07 04 f5 0d 0b 0c fe
       1 2 17 6 -8 -8 -9 -7 -8 7 4 -11 13 11 12 -2
0000e0 71 02 c2 15 00 3a f0 32 f7 eb ba 1e df e0 05 f9
       113 2 -62 21 0 58 -16 50 -9 -21 -70 30 -33 -32 5 -7
0000f0 c8 15 6f 16 09 28 ee e9 d7 e7 e1 00 d3 16 51 11
       -56 21 111 22 9 40 -18 -23 -41 -25 -31 0 -45 22 81 17

arith.constant56 i1 [16, 3, 3, 16]
000000 c5 47 23 bf 10 f2 e3 c3 be d4 d5 19 ec 31 e8 10
       -59 71 35 -65 16 -14 -29 -61 -66 -44 -43 25 -20 49 -24 16
000010 39 fe 24 b7 1f db 29 cf f9 c3 09 db 1a 10 81 d7
       57 -2 36 -73 31 -37 41 -49 -7 -61 9 -37 26 16 -127 -41
000020 f3 f6 d5 ce e5 fb 39 ba ba ed 37 25 f2 19 58 f6
       -13 -10 -43 -50 -27 -5 57 -70 -70 -19 55 37 -14 25 88 -10
000030 dd 19 14 e8 1f 05 e7 da d7 f1 12 19 09 22 df fb
       -35 25 20 -24 31 5 -25 -38 -41 -15 18 25 9 34 -33 -5
000040 0b f0 12 f0 15 03 19 d4 16 d9 19 f5 1c f6 c5 f3
       11 -16 18 -16 21 3 25 -44 22 -39 25 -11 28 -10 -59 -13
000050 0c ed f2 f3 ff 14 1b de ec f2 33 21 01 fa 35 0c
       12 -19 -14 -13 -1 20 27 -34 -20 -14 51 33 1 -6 53 12
000060 f5 0e 12 e6 2b 04 e6 d7 e4 ed f2 1e ee 2e f3 df
       -11 14 18 -26 43 4 -26 -41 -28 -19 -14 30 -18 46 -13 -33
000070 11 e2 2c ee fb 03 ff 02 13 f6 f7 17 02 1b ea 0b
       17 -30 44 -18 -5 3 -1 2 19 -10 -9 23 2 27 -22 11
000080 04 fb 0c 00 f7 0f 0d d8 f6 e8 0d fa 0d f1 1a 10
       4 -5 12 0 -9 15 13 -40 -10 -24 13 -6 13 -15 26 16
000090 15 34 17 e3 df 26 c9 ed da fb c3 5b 5b e5 18 8b
       21 52 23 -29 -33 38 -55 -19 -38 -5 -61 91 91 -27 24 -117
0000a0 cf 26 20 f0 c3 15 b2 dc 2f 0d c5 33 42 10 f9 af
       -49 38 32 -16 -61 21 -78 -36 47 13 -59 51 66 16 -7 -81
0000b0 e7 fa 8a df 0c 1d c6 9f ec ee df 07 13 42 3b 81
       -25 -6 -118 -33 12 29 -58 -97 -20 -18 -33 7 19 66 59 -127
0000c0 e6 30 27 e1 ec 29 f8 f5 fa ef 27 3d 27 f4 01 06
       -26 48 39 -31 -20 41 -8 -11 -6 -17 39 61 39 -12 1 6
0000d0 ca 2c 19 f1 f6 02 d5 f6 1d 16 05 04 17 05 db 05
       -54 44 25 -15 -10 2 -43 -10 29 22 5 4 23 5 -37 5
0000e0 02 18 cd ef 26 1e f7 bf 07 eb fd 2c 19 ef 06 21
       2 24 -51 -17 38 30 -9 -65 7 -21 -3 44 25 -17 6 33
0000f0 d8 2c 23 e3 e0 1a f2 27 f6 ef ed 29 17 0e f1 15
       -40 44 35 -29 -32 26 -14 39 -10 -17 -19 41 23 14 -15 21

arith.constant57 i1 [16, 3, 3, 16]
000000 29 35 d7 ed 81 f2 5a f1 23 e2 c2 d3 dc 45 fc 28
       41 53 -41 -19 -127 -14 90 -15 35 -30 -62 -45 -36 69 -4 40
000010 f0 d4 07 db f1 c6 f9 c3 fb 10 c9 22 00 28 f4 04
       -16 -44 7 -37 -15 -58 -7 -61 -5 16 -55 34 0 40 -12 4
000020 dc ed 6a 9f 04 9e b4 a3 c2 b9 b0 40 ce cd 17 f0
       -36 -19 106 -97 4 -98 -76 -93 -62 -71 -80 64 -50 -51 23 -16
000030 12 36 fd f7 dd 0e 1f 0b fa d1 eb 00 03 f9 e9 06
       18 54 -3 -9 -35 14 31 11 -6 -47 -21 0 3 -7 -23 6
000040 f8 f5 f2 15 20 f2 0a e1 f8 11 ee 19 0a f4 0a 0a
       -8 -11 -14 21 32 -14 10 -31 -8 17 -18 25 10 -12 10 10
000050 de 04 1f 00 35 cd 03 bf d3 01 ec f6 d6 de 09 f8
       -34 4 31 0 53 -51 3 -65 -45 1 -20 -10 -42 -34 9 -8
000060 23 19 03 ef c9 f9 1b dc f5 eb c7 ee 0a 0e 06 05
       35 25 3 -17 -55 -7 27 -36 -11 -21 -57 -18 10 14 6 5
000070 fa e8 f1 04 30 e3 07 c3 0f 1d 00 08 06 fa 02 13
       -6 -24 -15 4 48 -29 7 -61 15 29 0 8 6 -6 2 19
000080 f0 dc 0a 0e 26 e4 0e be cf 1c e1 e6 fb de fc f4
       -16 -36 10 14 38 -28 14 -66 -49 28 -31 -26 -5 -34 -4 -12
000090 05 ac 1e 2e 9d 0e 15 2e 0b 50 df 08 b8 ba 1c 2b
       5 -84 30 46 -99 14 21 46 11 80 -33 8 -72 -70 28 43
0000a0 fd d3 0d 3b 88 bc fa db 01 3f 0b f7 18 60 db ca
       -3 -45 13 59 -120 -68 -6 -37 1 63 11 -9 24 96 -37 -54
0000b0 20 fd d8 3d ba 18 7f 01 0b 5c 06 a4 2c 13 db 16
       32 -3 -40 61 -70 24 127 1 11 92 6 -92 44 19 -37 22
0000c0 0b f7 12 18 d8 26 fd 35 fe 25 f0 16 ed ee 04 3b
       11 -9 18 24 -40 38 -3 53 -2 37 -16 22 -19 -18 4 59
0000d0 e5 fb f1 17 eb 20 e0 05 13 0f 19 05 28 04 da dc
       -27 -5 -15 23 -21 32 -32 5 19 15 25 5 40 4 -38 -36
0000e0 f3 fc f6 0e d2 06 f9 1a 19 15 03 13 16 1c dc 16
       -13 -4 -10 14 -46 6 -7 26 25 21 3 19 22 28 -36 22
0000f0 07 e9 0e 11 07 35 08 28 0c 0d fc 24 14 ea e9 31
       7 -23 14 17 7 53 8 40 12 13 -4 36 20 -22 -23 49

arith.constant58 i1 [16, 3, 3, 16]
000000 e9 12 25 0d 1c 1f 13 2c 81 d1 c3 ed 25 0b f3 aa
       -23 18 37 13 28 31 19 44 -127 -47 -61 -19 37 11 -13 -86
000010 e0 fb fb e7 ea 02 eb fc 07 13 1b 07 17 05 e3 03
       -32 -5 -5 -25 -22 2 -21 -4 7 19 27 7 23 5 -29 3
000020 e3 03 37 e7 e9 ee d3 e6 f1 b6 33 ec 16 c1 02 33
       -29 3 55 -25 -23 -18 -45 -26 -15 -74 51 -20 22 -63 2 51
000030 1b f4 00 19 1e 26 2a ed e1 11 f7 e0 fc 0b 0c e9
       27 -12 0 25 30 38 42 -19 -31 17 -9 -32 -4 11 12 -23
000040 02 fe ed e9 fd e6 02 fa 14 1e 21 f3 fe 09 f8 04
       2 -2 -19 -23 -3 -26 2 -6 20 30 33 -13 -2 9 -8 4
000050 fc 03 04 f0 07 e3 0a d2 10 dc 22 e2 fc f6 05 0f
       -4 3 4 -16 7 -29 10 -46 16 -36 34 -30 -4 -10 5 15
000060 f2 dd f9 0a e9 3a 29 ef f1 f7 ef f0 e4 24 f8 0b
       -14 -35 -7 10 -23 58 41 -17 -15 -9 -17 -16 -28 36 -8 11
000070 ea 08 fc f2 1a e3 08 f8 fd e2 20 f0 13 0f 06 05
       -22 8 -4 -14 26 -29 8 -8 -3 -30 32 -16 19 15 6 5
000080 f8 0e 16 ec 0a ee 03 f1 0b a1 2d e0 0c 02 03 fd
       -8 14 22 -20 10 -18 3 -15 11 -95 45 -32 12 2 3 -3
000090 ec c3 04 28 6b 01 6d 27 f4 57 14 12 9b de 02 bc
       -20 -61 4 40 107 1 109 39 -12 87 20 18 -101 -34 2 -68
0000a0 d5 dc 06 cb e6 e1 c4 28 19 2f 17 d8 15 fb e7 12
       -43 -36 6 -53 -26 -31 -60 40 25 47 23 -40 21 -5 -25 18
0000b0 73 21 2f 06 92 ee 29 3d 74 35 eb eb fd e0 49 da
       115 33 47 6 -110 -18 41 61 116 53 -21 -21 -3 -32 73 -38
0000c0 d9 13 18 f6 08 fd 1c 54 ef 24 55 e1 c1 d7 1a fb
       -39 19 24 -10 8 -3 28 84 -17 36 85 -31 -63 -41 26 -5
0000d0 c9 18 ee 18 f4 f5 fb 18 18 0b 04 d8 fe ef f3 01
       -55 24 -18 24 -12 -11 -5 24 24 11 4 -40 -2 -17 -13 1
0000e0 2d 08 01 48 c4 c6 28 fb 2d f7 09 01 d4 d4 ec db
       45 8 1 72 -60 -58 40 -5 45 -9 9 1 -44 -44 -20 -37
0000f0 eb 7f 1f 09 0f 20 18 48 ef 0d 4e 12 d5 17 2c d5
       -21 127 31 9 15 32 24 72 -17 13 78 18 -43 23 44 -43

arith.constant59 i1 [64, 192]
000000 7f 00 00 00 00 00 00 00 00 00 00 00 00 00 00 00
       127 0 0 0 0 0 0 0 0 0 0 0 0 0 0 0
000010 00 00 00 00 00 00 00 00 00 00 00 00 00 00 00 00
       0 0 0 0 0 0 0 0 0 0 0 0 0 0 0 0
000020 00 00 00 00 00 00 00 00 00 00 00 00 00 00 00 00
       0 0 0 0 0 0 0 0 0 0 0 0 0 0 0 0
000030 00 00 00 00 00 00 00 00 00 00 00 00 00 00 00 00
       0 0 0 0 0 0 0 0 0 0 0 0 0 0 0 0
000040 00 00 00 00 00 00 00 00 00 00 00 00 00 00 00 00
       0 0 0 0 0 0 0 0 0 0 0 0 0 0 0 0
000050 00 00 00 00 00 00 00 00 00 00 00 00 00 00 00 00
       0 0 0 0 0 0 0 0 0 0 0 0 0 0 0 0
000060 00 00 00 00 00 00 00 00 00 00 00 00 00 00 00 00
       0 0 0 0 0 0 0 0 0 0 0 0 0 0 0 0
000070 00 00 00 00 00 00 00 00 00 00 00 00 00 00 00 00
       0 0 0 0 0 0 0 0 0 0 0 0 0 0 0 0
000080 00 00 00 00 00 00 00 00 00 00 00 00 00 00 00 00
       0 0 0 0 0 0 0 0 0 0 0 0 0 0 0 0
000090 00 00 00 00 00 00 00 00 00 00 00 00 00 00 00 00
       0 0 0 0 0 0 0 0 0 0 0 0 0 0 0 0
0000a0 00 00 00 00 00 00 00 00 00 00 00 00 00 00 00 00
       0 0 0 0 0 0 0 0 0 0 0 0 0 0 0 0
0000b0 00 00 00 00 00 00 00 00 00 00 00 00 00 00 00 00
       0 0 0 0 0 0 0 0 0 0 0 0 0 0 0 0
0000c0 00 7f 40 00 00 00 00 00 00 00 00 00 00 00 00 00
       0 127 64 0 0 0 0 0 0 0 0 0 0 0 0 0
0000d0 00 00 00 00 00 00 00 00 00 00 00 00 00 00 00 00
       0 0 0 0 0 0 0 0 0 0 0 0 0 0 0 0
0000e0 00 00 00 00 00 00 00 00 00 00 00 00 00 00 00 00
       0 0 0 0 0 0 0 0 0 0 0 0 0 0 0 0
0000f0 00 00 00 00 00 00 00 00 00 00 00 00 00 00 00 00
       0 0 0 0 0 0 0 0 0 0 0 0 0 0 0 0

arith.constant69 i1 [16, 1, 1, 16]
000000 d2 60 c0 d4 0c 7d 7f b1 16 12 ab d5 e7 9d 08 78
       -46 96 -64 -44 12 125 127 -79 22 18 -85 -43 -25 -99 8 120
000010 bc cb b3 16 0d df 5b 4d cb b0 39 7f 08 f2 85 49
       -68 -53 -77 22 13 -33 91 77 -53 -80 57 127 8 -14 -123 73
000020 21 81 f6 fa bc 7d 91 71 90 05 48 8d 20 72 db 0a
       33 -127 -10 -6 -68 125 -111 113 -112 5 72 -115 32 114 -37 10
000030 00 01 68 81 25 bc 3e 68 67 b2 e2 4c d2 97 fd 12
       0 1 104 -127 37 -68 62 104 103 -78 -30 76 -46 -105 -3 18
000040 85 89 07 83 72 b9 a0 75 92 7f 73 c5 46 cb 7b fe
       -123 -119 7 -125 114 -71 -96 117 -110 127 115 -59 70 -53 123 -2
000050 dc da 2e 5e 26 92 1d 96 7f 97 86 74 22 6a 5d e3
       -36 -38 46 94 38 -110 29 -106 127 -105 -122 116 34 106 93 -29
000060 1b 91 48 0c 3e 8c 51 1a b5 c5 ef 88 7f 79 c2 e0
       27 -111 72 12 62 -116 81 26 -75 -59 -17 -120 127 121 -62 -32
000070 fa 6d 8d aa e5 d8 5f 7e 98 aa 26 81 7d a7 0e 5d
       -6 109 -115 -86 -27 -40 95 126 -104 -86 38 -127 125 -89 14 93
000080 8d 30 d1 10 c2 be 69 2c ca fc 3c 58 81 90 fc 79
       -115 48 -47 16 -62 -66 105 44 -54 -4 60 88 -127 -112 -4 121
000090 d2 5d 14 38 be 1b 2b 74 3b 02 7c 53 97 34 81 e3
       -46 93 20 56 -66 27 43 116 59 2 124 83 -105 52 -127 -29
0000a0 82 9c c5 0d a0 71 ff 76 81 f6 45 d9 c2 bb be e0
       -126 -100 -59 13 -96 113 -1 118 -127 -10 69 -39 -62 -69 -66 -32
0000b0 61 23 f4 b0 4b 9e 4b 45 8b 4f 7f f2 66 4d 39 42
       97 35 -12 -80 75 -98 75 69 -117 79 127 -14 102 77 57 66
0000c0 ed 12 f8 d2 3a c6 dc 2e be e2 d7 46 a0 98 7f da
       -19 18 -8 -46 58 -58 -36 46 -66 -30 -41 70 -96 -104 127 -38
0000d0 68 b6 2e 96 9e 9a 2a 81 8a 34 76 1f 2e 27 74 ad
       104 -74 46 -106 -98 -102 42 -127 -118 52 118 31 46 39 116 -83
0000e0 96 9f 81 53 5f ee 17 b8 21 30 c7 aa 09 5b b4 9f
       -106 -97 -127 83 95 -18 23 -72 33 48 -57 -86 9 91 -76 -97
0000f0 d5 30 5f 44 62 81 6c 6c 54 d7 ed 1c 4b ba 5b 70
       -43 48 95 68 98 -127 108 108 84 -41 -19 28 75 -70 91 112

arith.constant70 i1 [1, 3, 1, 16]
000000 7f 81 91 21 04 c9 7f bf 81 7f 81 81 7f 89 f1 50
       127 -127 -111 33 4 -55 127 -65 -127 127 -127 -127 127 -119 -15 80
000010 59 f6 81 e5 66 9f ce 81 fa 05 c7 51 3e 81 1b da
       89 -10 -127 -27 102 -97 -50 -127 -6 5 -57 81 62 -127 27 -38
000020 7a 95 66 81 81 81 d7 a6 c3 9a e4 43 fa ce 81 81
       122 -107 102 -127 -127 -127 -41 -90 -61 -102 -28 67 -6 -50 -127 -127

arith.constant71 i1 [16, 1, 1, 16]
000000 23 7f 95 96 ea ff 23 d5 a9 b1 e0 19 fb a2 82 11
       35 127 -107 -106 -22 -1 35 -43 -87 -79 -32 25 -5 -94 -126 17
000010 11 7f cd c4 b8 b7 71 c9 4c 2f de cc de 57 37 54
       17 127 -51 -60 -72 -73 113 -55 76 47 -34 -52 -34 87 55 84
000020 a3 d2 3c b8 a3 5f df 85 7f 82 9c ce 63 04 f0 9c
       -93 -46 60 -72 -93 95 -33 -123 127 -126 -100 -50 99 4 -16 -100
000030 29 69 d7 cb b4 7f 1f 8d 5f 82 7d 03 c1 2a 92 d7
       41 105 -41 -53 -76 127 31 -115 95 -126 125 3 -63 42 -110 -41
000040 35 7f 21 23 f8 36 0b 9a 47 97 97 f2 bc 74 1f 8a
       53 127 33 35 -8 54 11 -102 71 -105 -105 -14 -68 116 31 -118
000050 95 a3 5f 4a f2 64 c0 cf d8 5e 82 36 7f 38 77 e5
       -107 -93 95 74 -14 100 -64 -49 -40 94 -126 54 127 56 119 -27
000060 16 7f 33 c8 4e a4 32 c9 23 c6 70 c3 01 6e 59 16
       22 127 51 -56 78 -92 50 -55 35 -58 112 -61 1 110 89 22
000070 7f ce 97 e5 22 93 e8 38 50 a8 2c 45 ca 75 6b c4
       127 -50 -105 -27 34 -109 -24 56 80 -88 44 69 -54 117 107 -60
000080 fa a2 26 f3 84 96 3d d6 92 81 01 37 39 3e 29 9a
       -6 -94 38 -13 -124 -106 61 -42 -110 -127 1 55 57 62 41 -102
000090 9e b0 39 aa 81 1c 41 7f 16 bb 8b b1 6c ed d7 98
       -98 -80 57 -86 -127 28 65 127 22 -69 -117 -79 108 -19 -41 -104
0000a0 d6 14 61 cd b7 73 58 26 03 1f 36 20 22 9b 81 58
       -42 20 97 -51 -73 115 88 38 3 31 54 32 34 -101 -127 88
0000b0 c7 b6 7e 2a 94 e1 81 aa e9 99 6b 46 5b 22 f2 19
       -57 -74 126 42 -108 -31 -127 -86 -23 -103 107 70 91 34 -14 25
0000c0 15 81 d0 cb 6b 62 5d 2c 5f f8 be 58 17 02 4a 85
       21 -127 -48 -53 107 98 93 44 95 -8 -66 88 23 2 74 -123
0000d0 cb 66 2f 2f 2b 3a 0a 1b 2a 7f c6 f6 c2 a4 97 d3
       -53 102 47 47 43 58 10 27 42 127 -58 -10 -62 -92 -105 -45
0000e0 66 41 0f a8 7f 30 5d 03 67 75 f0 fa ec 79 aa 22
       102 65 15 -88 127 48 93 3 103 117 -16 -6 -20 121 -86 34
0000f0 94 0f 24 f8 cd 13 f7 67 7f 9c 39 5f a1 c1 99 0d
       -108 15 36 -8 -51 19 -9 103 127 -100 57 95 -95 -63 -103 13

arith.constant72 i1 [16, 1, 1, 16]
000000 7f 06 94 6a 32 b3 3f c6 93 30 b7 c8 72 5d 1b 08
       127 6 -108 106 50 -77 63 -58 -109 48 -73 -56 114 93 27 8
000010 2d 6f dc e9 7f 03 5f 06 a8 44 a2 c7 c7 91 88 57
       45 111 -36 -23 127 3 95 6 -88 68 -94 -57 -57 -111 -120 87
000020 e7 6e 76 b9 38 e1 52 14 fc 38 81 f6 5a 7e e0 a2
       -25 110 118 -71 56 -31 82 20 -4 56 -127 -10 90 126 -32 -94
000030 cc c0 1f 59 cd d7 f8 ea c5 7f 58 13 1e 0c 15 26
       -52 -64 31 89 -51 -41 -8 -22 -59 127 88 19 30 12 21 38
000040 2a b9 76 dc cd e7 81 e6 ae 26 7e 74 be ae bb 2a
       42 -71 118 -36 -51 -25 -127 -26 -82 38 126 116 -66 -82 -69 42
000050 bd 7f 42 9d eb 3c 8a 13 86 06 a2 ce 86 43 90 0a
       -67 127 66 -99 -21 60 -118 19 -122 6 -94 -50 -122 67 -112 10
000060 d8 4d 4d 7c 9d 2c 00 bb 02 44 6f 43 22 81 86 ae
       -40 77 77 124 -99 44 0 -69 2 68 111 67 34 -127 -122 -82
000070 12 b3 64 81 cd 29 a1 1e 5c 05 9a c4 b1 96 2d 31
       18 -77 100 -127 -51 41 -95 30 92 5 -102 -60 -79 -106 45 49
000080 4d 57 51 f6 05 41 81 f4 4b 65 60 ee da 83 d7 37
       77 87 81 -10 5 65 -127 -12 75 101 96 -18 -38 -125 -41 55
000090 76 bd 66 19 65 58 81 13 5d 24 0e 20 2b 85 a8 22
       118 -67 102 25 101 88 -127 19 93 36 14 32 43 -123 -88 34
0000a0 19 f7 12 7f 8a 24 b1 2d fe 9f 8b a6 e4 b8 16 c4
       25 -9 18 127 -118 36 -79 45 -2 -97 -117 -90 -28 -72 22 -60
0000b0 9f 45 16 c4 ac c0 9c 95 88 e8 ce 54 76 4a 81 76
       -97 69 22 -60 -84 -64 -100 -107 -120 -24 -50 84 118 74 -127 118
0000c0 d5 eb 24 ca ad 0b bc 74 89 29 37 12 7f f9 41 eb
       -43 -21 36 -54 -83 11 -68 116 -119 41 55 18 127 -7 65 -21
0000d0 7f 8e 7a 2e da c9 be 9a 9c 0f 53 9f 61 78 45 f3
       127 -114 122 46 -38 -55 -66 -102 -100 15 83 -97 97 120 69 -13
0000e0 0f 22 cc fa dd 4f 67 53 90 53 a8 ba c2 7f 4b df
       15 34 -52 -6 -35 79 103 83 -112 83 -88 -70 -62 127 75 -33
0000f0 58 b6 a7 8b 71 14 9c b3 90 44 55 f0 6c 2c 7f 21
       88 -74 -89 -117 113 20 -100 -77 -112 68 85 -16 108 44 127 33

arith.constant73 i1 [1, 3, 1, 16]
000000 76 70 7a a6 54 7f 81 5c 7f 36 7f 4a 7f 71 81 7f
       118 112 122 -90 84 127 -127 92 127 54 127 74 127 113 -127 127
000010 fa 47 a5 81 e3 94 04 10 e3 0c 8f 14 00 7f e1 2e
       -6 71 -91 -127 -29 -108 4 16 -29 12 -113 20 0 127 -31 46
000020 7f 81 7f 6b 81 4c f9 7f a8 81 04 7f 0b 45 60 7a
       127 -127 127 107 -127 76 -7 127 -88 -127 4 127 11 69 96 122

arith.constant74 i1 [16, 1, 1, 16]
000000 7f 2d dd ee 90 d8 2d 4d 91 46 8f 98 ba 1a 50 5e
       127 45 -35 -18 -112 -40 45 77 -111 70 -113 -104 -70 26 80 94
000010 02 6c c7 fd 7f 82 62 f1 29 4b e3 55 66 60 ab a5
       2 108 -57 -3 127 -126 98 -15 41 75 -29 85 102 96 -85 -91
000020 04 14 ba f5 01 24 f1 fe 81 04 6c 0e b0 21 f4 61
       4 20 -70 -11 1 36 -15 -2 -127 4 108 14 -80 33 -12 97
000030 ad 04 0a b5 91 7a 73 fa 5b 91 7f e2 66 16 ff c8
       -83 4 10 -75 -111 122 115 -6 91 -111 127 -30 102 22 -1 -56
000040 c6 32 01 2a cc 90 66 32 bd a8 55 81 1b de 29 62
       -58 50 1 42 -52 -112 102 50 -67 -88 85 -127 27 -34 41 98
000050 39 42 4f 13 ce 81 f7 29 1f 06 de 9d ea 19 f9 ad
       57 66 79 19 -50 -127 -9 41 31 6 -34 -99 -22 25 -7 -83
000060 86 4f da b4 57 9e 75 ca 8f 89 d1 ed a7 35 81 18
       -122 79 -38 -76 87 -98 117 -54 -113 -119 -47 -19 -89 53 -127 24
000070 c6 7a 16 7a 93 3f 98 7f 82 58 30 06 19 2b 2c 5b
       -58 122 22 122 -109 63 -104 127 -126 88 48 6 25 43 44 91
000080 40 81 bf 59 6f 51 fe 01 95 75 18 e4 75 0b b0 50
       64 -127 -65 89 111 81 -2 1 -107 117 24 -28 117 11 -80 80
000090 cd c3 e7 c0 1d ec 64 28 76 66 bd d2 4e 81 fa a5
       -51 -61 -25 -64 29 -20 100 40 118 102 -67 -46 78 -127 -6 -91
0000a0 9f cc 7f e9 96 b1 b7 fa 0a 82 d7 a5 df 54 3b 72
       -97 -52 127 -23 -106 -79 -73 -6 10 -126 -41 -91 -33 84 59 114
0000b0 2f 24 01 22 a6 0d 5a 02 ab aa f6 6c e4 7f b2 3c
       47 36 1 34 -90 13 90 2 -85 -86 -10 108 -28 127 -78 60
0000c0 8b 3a 61 51 8e bd 81 3e ef df 35 4c 1e e8 c1 e0
       -117 58 97 81 -114 -67 -127 62 -17 -33 53 76 30 -24 -63 -32
0000d0 63 e7 3a 57 e2 04 dc 86 ee cf 81 62 5a 43 f9 83
       99 -25 58 87 -30 4 -36 -122 -18 -49 -127 98 90 67 -7 -125
0000e0 20 39 0e 81 75 87 bf d0 27 41 d1 d8 ce 18 a8 5c
       32 57 14 -127 117 -121 -65 -48 39 65 -47 -40 -50 24 -88 92
0000f0 87 88 1d 5f e1 ce ea 92 da 8c 95 7b 16 ba 94 81
       -121 -120 29 95 -31 -50 -22 -110 -38 -116 -107 123 22 -70 -108 -127

arith.constant75 i1 [16, 1, 1, 16]
000000 48 b0 7f 26 b9 2e 88 93 9b 2a 1a 08 aa 65 b9 49
       72 -80 127 38 -71 46 -120 -109 -101 42 26 8 -86 101 -71 73
000010 7b 22 d4 96 31 5c 69 b5 f0 ad d4 b1 7f ba d5 ee
       123 34 -44 -106 49 92 105 -75 -16 -83 -44 -79 127 -70 -43 -18
000020 f6 b0 f3 e8 93 de 4e f0 41 7f 51 fd 21 ea 31 77
       -10 -80 -13 -24 -109 -34 78 -16 65 127 81 -3 33 -22 49 119
000030 c8 a0 34 ee 7d 73 72 14 de ce 08 57 51 7f 94 66
       -56 -96 52 -18 125 115 114 20 -34 -50 8 87 81 127 -108 102
000040 74 65 45 1f 0d a3 16 aa b3 b5 a6 81 15 74 3b a2
       116 101 69 31 13 -93 22 -86 -77 -75 -90 -127 21 116 59 -94
000050 b6 09 1f 50 5f cc 6d 5f 7b 44 03 22 21 ef 7f 8c
       -74 9 31 80 95 -52 109 95 123 68 3 34 33 -17 127 -116
000060 95 90 ec fd cd 18 a8 7f 92 f6 2b bd 77 86 3d 9b
       -107 -112 -20 -3 -51 24 -88 127 -110 -10 43 -67 119 -122 61 -101
000070 07 81 b5 8f b6 a7 44 6a ab dd 29 6e 64 86 48 ca
       7 -127 -75 -113 -74 -89 68 106 -85 -35 41 110 100 -122 72 -54
000080 34 f2 93 04 e0 59 63 9b cb 4d 81 0b bb ca ed 84
       52 -14 -109 4 -32 89 99 -101 -53 77 -127 11 -69 -54 -19 -124
000090 ad 9f a3 de 9f 81 09 bc 7d 2f 35 37 f5 a3 f4 97
       -83 -97 -93 -34 -97 -127 9 -68 125 47 53 55 -11 -93 -12 -105
0000a0 ad 13 45 8a 75 78 3f 0d 7e 81 63 50 77 98 1d 2a
       -83 19 69 -118 117 120 63 13 126 -127 99 80 119 -104 29 42
0000b0 9b 08 3b 57 7f c7 27 c5 33 d8 46 ab cc 70 b2 af
       -101 8 59 87 127 -57 39 -59 51 -40 70 -85 -52 112 -78 -81
0000c0 1c 67 15 2f e4 b0 7f 48 5d c4 20 8c 0e 57 03 f0
       28 103 21 47 -28 -80 127 72 93 -60 32 -116 14 87 3 -16
0000d0 a8 65 6b 18 c6 89 18 61 7f f2 64 ce 78 e9 67 67
       -88 101 107 24 -58 -119 24 97 127 -14 100 -50 120 -23 103 103
0000e0 ab 81 61 af 99 9a b7 26 c5 ae 16 cf af e8 13 d5
       -85 -127 97 -81 -103 -102 -73 38 -59 -82 22 -49 -81 -24 19 -43
0000f0 f2 7b 0b 2c da 48 4a ad 32 11 81 1e b0 51 ab 10
       -14 123 11 44 -38 72 74 -83 50 17 -127 30 -80 81 -85 16

arith.constant76 i1 [1, 3, 1, 16]
000000 88 7f cc 7f 88 f5 81 0e e8 50 cb 78 7f 03 7b 7f
       -120 127 -52 127 -120 -11 -127 14 -24 80 -53 120 127 3 123 127
000010 7f 2f 81 57 7f 81 91 81 81 7f 7f 68 45 84 81 fb
       127 47 -127 87 127 -127 -111 -127 -127 127 127 104 69 -124 -127 -5
000020 8e 46 03 77 6e 00 0f 22 06 5b f2 7f f7 81 97 44
       -114 70 3 119 110 0 15 34 6 91 -14 127 -9 -127 -105 68

arith.constant77 i1 [16, 1, 1, 16]
000000 4b 9b 1c 95 3c b3 44 39 c1 24 db c8 7f 2a 97 72
       75 -101 28 -107 60 -77 68 57 -63 36 -37 -56 127 42 -105 114
000010 73 78 b2 ad 7f 27 36 d2 90 d4 b0 e3 64 c5 d4 60
       115 120 -78 -83 127 39 54 -46 -112 -44 -80 -29 100 -59 -44 96
000020 42 7f 58 22 00 59 2e b7 03 c0 7f 5c 76 de d8 f8
       66 127 88 34 0 89 46 -73 3 -64 127 92 118 -34 -40 -8
000030 95 11 92 7f de 97 af 9f 17 ad 08 24 43 55 9e 88
       -107 17 -110 127 -34 -105 -81 -97 23 -83 8 36 67 85 -98 -120
000040 67 ad df e3 f7 0d 90 e5 ba 7f 7c 46 da 86 0a 9e
       103 -83 -33 -29 -9 13 -112 -27 -70 127 124 70 -38 -122 10 -98
000050 a3 22 68 39 4f b9 3a 81 99 74 6d db 0b ae 03 fb
       -93 34 104 57 79 -71 58 -127 -103 116 109 -37 11 -82 3 -5
000060 b5 32 bd e9 72 90 7f e3 b9 1e 79 2d 5e 64 4f b4
       -75 50 -67 -23 114 -112 127 -29 -71 30 121 45 94 100 79 -76
000070 c3 9c f3 7f e3 be d9 54 90 54 61 d6 7c 0e 85 1d
       -61 -100 -13 127 -29 -66 -39 84 -112 84 97 -42 124 14 -123 29
000080 81 40 72 14 0a d1 87 67 5c 43 cf 36 70 63 dc 26
       -127 64 114 20 10 -47 -121 103 92 67 -49 54 112 99 -36 38
000090 da db 81 f2 e6 99 b5 97 f4 fe 05 e3 bf 2c 16 bd
       -38 -37 -127 -14 -26 -103 -75 -105 -12 -2 5 -29 -65 44 22 -67
0000a0 db a3 62 2e 7f 19 53 f5 6a 85 59 d7 52 e0 24 b6
       -37 -93 98 46 127 25 83 -11 106 -123 89 -41 82 -32 36 -74
0000b0 06 24 55 78 d2 54 a4 ab c7 3f 81 7a 90 1b 7d 9f
       6 36 85 120 -46 84 -92 -85 -57 63 -127 122 -112 27 125 -97
0000c0 57 e9 07 2c b0 5f b5 d9 e9 7f 14 07 08 7d 2e 12
       87 -23 7 44 -80 95 -75 -39 -23 127 20 7 8 125 46 18
0000d0 a6 f7 09 00 bb 60 47 d6 76 bf 50 05 81 b5 e9 04
       -90 -9 9 0 -69 96 71 -42 118 -65 80 5 -127 -75 -23 4
0000e0 4c 21 1b 19 8b 81 6b 57 3a 91 11 49 90 bc ef 2c
       76 33 27 25 -117 -127 107 87 58 -111 17 73 -112 -68 -17 44
0000f0 e0 c2 1d 81 33 b8 42 a7 c1 71 b4 fd a7 06 06 f5
       -32 -62 29 -127 51 -72 66 -89 -63 113 -76 -3 -89 6 6 -11

arith.constant78 i1 [16, 1, 1, 16]
000000 23 d6 20 37 27 26 5d 8e 11 27 48 3d 4c b6 74 81
       35 -42 32 55 39 38 93 -114 17 39 72 61 76 -74 116 -127
000010 03 19 5e 89 2f ae 81 82 fa be d1 f4 a9 57 a9 97
       3 25 94 -119 47 -82 -127 -126 -6 -66 -47 -12 -87 87 -87 -105
000020 4d 1a 37 42 3b 81 42 a5 52 b4 f4 19 83 12 3f 39
       77 26 55 66 59 -127 66 -91 82 -76 -12 25 -125 18 63 57
000030 d9 5e 08 32 77 0f f8 85 9a d0 81 bc 2b 07 2c 45
       -39 94 8 50 119 15 -8 -123 -102 -48 -127 -68 43 7 44 69
000040 87 1a 1e 4c fe 29 e9 93 59 f5 60 5a 7f fd d1 00
       -121 26 30 76 -2 41 -23 -109 89 -11 96 90 127 -3 -47 0
000050 70 c7 99 7f 48 08 87 ae 16 e7 c7 21 4a d5 97 04
       112 -57 -103 127 72 8 -121 -82 22 -25 -57 33 74 -43 -105 4
000060 ba 76 8d 88 e5 ad a2 6a 58 63 df 7c 7b 81 25 5a
       -70 118 -115 -120 -27 -83 -94 106 88 99 -33 124 123 -127 37 90
000070 ec fd 4c 81 57 e1 85 89 d1 57 f9 6f f5 8d 68 3e
       -20 -3 76 -127 87 -31 -123 -119 -47 87 -7 111 -11 -115 104 62
000080 df 7f c8 76 59 18 c3 1c e9 8e fb 48 06 c8 de f2
       -33 127 -56 118 89 24 -61 28 -23 -114 -5 72 6 -56 -34 -14
000090 71 98 f8 75 5e f5 65 db 6e 7f 30 cd 81 1e a0 cc
       113 -104 -8 117 94 -11 101 -37 110 127 48 -51 -127 30 -96 -52
0000a0 5a 5f dc f9 63 7f 53 54 cc d6 f2 1b 46 b1 eb 58
       90 95 -36 -7 99 127 83 84 -52 -42 -14 27 70 -79 -21 88
0000b0 08 ad 60 29 bd 92 93 f2 83 4d 7f 89 25 f0 09 78
       8 -83 96 41 -67 -110 -109 -14 -125 77 127 -119 37 -16 9 120
0000c0 af 0c b7 4b 36 ea 77 17 4c 07 81 2a 55 fb 55 d5
       -81 12 -73 75 54 -22 119 23 76 7 -127 42 85 -5 85 -43
0000d0 a2 64 7f 5b 61 b2 c0 ae 14 db a9 72 06 ea 50 d6
       -94 100 127 91 97 -78 -64 -82 20 -37 -87 114 6 -22 80 -42
0000e0 81 43 75 b5 ea ad 96 bd 07 77 ab 70 2d 56 d7 83
       -127 67 117 -75 -22 -83 -106 -67 7 119 -85 112 45 86 -41 -125
0000f0 14 f6 b7 81 7f 0a 0c 6d 5a 7d b5 b6 5e a6 b6 6e
       20 -10 -73 -127 127 10 12 109 90 125 -75 -74 94 -90 -74 110

arith.constant79 i1 [1, 3, 1, 16]
000000 7f 1c 23 47 7f 55 39 89 b3 fa 0f 7f 7f 16 d4 7f
       127 28 35 71 127 85 57 -119 -77 -6 15 127 127 22 -44 127
000010 df 7f 81 7f 07 5e 7f 44 7f ae e5 92 f7 54 81 6d
       -33 127 -127 127 7 94 127 68 127 -82 -27 -110 -9 84 -127 109
000020 ef bd 70 c4 40 7f e2 81 bf 81 7f 2e 0c 7f 16 67
       -17 -67 112 -60 64 127 -30 -127 -65 -127 127 46 12 127 22 103

arith.constant80 i1 [16, 1, 1, 16]
000000 c4 17 e7 90 1b b0 51 8f 7d bc 7e 87 4c 69 0a 81
       -60 23 -25 -112 27 -80 81 -113 125 -68 126 -121 76 105 10 -127
000010 ca 14 0e 7e 95 9d 03 ba 7f 90 2f 22 4f a6 2d 7f
       -54 20 14 126 -107 -99 3 -70 127 -112 47 34 79 -90 45 127
000020 72 6a 17 7f f4 a2 ef 42 ef 00 8f f1 d1 77 a4 9d
       114 106 23 127 -12 -94 -17 66 -17 0 -113 -15 -47 119 -92 -99
000030 47 30 9b 8f bc b7 00 12 b6 f8 54 35 22 d0 81 46
       71 48 -101 -113 -68 -73 0 18 -74 -8 84 53 34 -48 -127 70
000040 49 0d 1a bc cc 82 79 91 95 1c 69 7f 42 d2 fa 6e
       73 13 26 -68 -52 -126 121 -111 -107 28 105 127 66 -46 -6 110
000050 79 da d8 a2 c2 7f 8a f8 7e 0f 82 03 b8 94 07 f1
       121 -38 -40 -94 -62 127 -118 -8 126 15 -126 3 -72 -108 7 -15
000060 f0 3a 81 0a 7f 57 8d c6 cf bf 0b 86 75 9b eb 04
       -16 58 -127 10 127 87 -115 -58 -49 -65 11 -122 117 -101 -21 4
000070 d1 b0 0a ec 6b 3b 81 37 1f 66 4d 44 3b af 7d 77
       -47 -80 10 -20 107 59 -127 55 31 102 77 68 59 -81 125 119
000080 75 be 24 aa cb 54 fa c5 67 81 02 71 39 9c 4e b9
       117 -66 36 -86 -53 84 -6 -59 103 -127 2 113 57 -100 78 -71
000090 6b 6b 2f c1 dc 51 4f 7f 3d 47 05 90 17 6a 99 f3
       107 107 47 -63 -36 81 79 127 61 71 5 -112 23 106 -103 -13
0000a0 66 8e 81 30 88 7c a4 97 17 71 65 92 db 97 5a c4
       102 -114 -127 48 -120 124 -92 -105 23 113 101 -110 -37 -105 90 -60
0000b0 9c 1e f8 2c cd fa 9c a8 ca cd a1 81 56 2f e1 84
       -100 30 -8 44 -51 -6 -100 -88 -54 -51 -95 -127 86 47 -31 -124
0000c0 0f 9d 1d b2 8a 02 b9 de aa 8b 59 f3 d3 81 ef 41
       15 -99 29 -78 -118 2 -71 -34 -86 -117 89 -13 -45 -127 -17 65
0000d0 1d 42 a4 79 b9 00 c7 49 7d 19 81 90 2d 36 c4 f6
       29 66 -92 121 -71 0 -57 73 125 25 -127 -112 45 54 -60 -10
0000e0 02 6b bf 44 54 d7 26 19 a1 45 16 cc 92 42 81 5e
       2 107 -65 68 84 -41 38 25 -95 69 22 -52 -110 66 -127 94
0000f0 35 05 d0 de ad 21 8c 07 7f 72 2c 3a 95 9b de cf
       53 5 -48 -34 -83 33 -116 7 127 114 44 58 -107 -101 -34 -49

arith.constant81 i1 [16, 1, 1, 16]
000000 81 3b 6a 7f 2d 07 1d 9d 9a 10 2a 29 73 86 b1 35
       -127 59 106 127 45 7 29 -99 -102 16 42 41 115 -122 -79 53
000010 86 56 18 59 25 81 1b a6 1c 70 2f 34 be bc aa 69
       -122 86 24 89 37 -127 27 -90 28 112 47 52 -66 -68 -86 105
000020 43 23 63 ed 71 26 ca a5 cc 81 8d 53 11 9c 2f 24
       67 35 99 -19 113 38 -54 -91 -52 -127 -115 83 17 -100 47 36
000030 4c a6 49 e4 97 bd 6c fb ef 1f 7f 22 81 d7 fe 51
       76 -90 73 -28 -105 -67 108 -5 -17 31 127 34 -127 -41 -2 81
000040 2e 14 3d f8 d0 00 cb 5b 08 59 81 c7 14 e2 44 1c
       46 20 61 -8 -48 0 -53 91 8 89 -127 -57 20 -30 68 28
000050 0e 76 90 c0 76 81 a4 5a ea 1c 3c be 75 f5 25 51
       14 118 -112 -64 118 -127 -92 90 -22 28 60 -66 117 -11 37 81
000060 31 7f b4 fc 1e 4c a6 ac 7f 42 70 2d a8 7d a1 5e
       49 127 -76 -4 30 76 -90 -84 127 66 112 45 -88 125 -95 94
000070 35 d6 92 d2 97 5e 5a b0 1b 7d 3d ca 81 69 f0 86
       53 -42 -110 -46 -105 94 90 -80 27 125 61 -54 -127 105 -16 -122
000080 ee ea fe ac 5e 35 7f 6c 8b 6b 45 6f 75 d1 c8 e8
       -18 -22 -2 -84 94 53 127 108 -117 107 69 111 117 -47 -56 -24
000090 c6 96 37 32 e9 15 dd fa a2 68 51 3b 5c 6f 81 33
       -58 -106 55 50 -23 21 -35 -6 -94 104 81 59 92 111 -127 51
0000a0 50 c1 da 81 25 1e 9f 78 71 6c 66 c2 1f f3 76 2a
       80 -63 -38 -127 37 30 -97 120 113 108 102 -62 31 -13 118 42
0000b0 1b d8 7f b8 37 fb 3e e1 a7 b6 c9 3d 27 1d 23 e7
       27 -40 127 -72 55 -5 62 -31 -89 -74 -55 61 39 29 35 -25
0000c0 87 b2 21 66 67 28 7c 2b 71 1e 5e 3b b8 81 97 59
       -121 -78 33 102 103 40 124 43 113 30 94 59 -72 -127 -105 89
0000d0 13 d8 6b 95 14 81 54 7a d3 ed fb 96 88 ab 83 23
       19 -40 107 -107 20 -127 84 122 -45 -19 -5 -106 -120 -85 -125 35
0000e0 7e 28 f5 df 5b d3 18 ce 91 50 7f bd b1 8e d0 2e
       126 40 -11 -33 91 -45 24 -50 -111 80 127 -67 -79 -114 -48 46
0000f0 d1 c1 e6 86 72 6e 74 6d e0 21 9d 2b 25 39 81 c9
       -47 -63 -26 -122 114 110 116 109 -32 33 -99 43 37 57 -127 -55

arith.constant82 i1 [1, 3, 1, 16]
000000 7f 7f 2d 96 81 83 ad 9e 7f 08 81 0f 7f 7f 6b 73
       127 127 45 -106 -127 -125 -83 -98 127 8 -127 15 127 127 107 115
000010 cf 9c 81 81 17 c5 26 81 fd 7f 3c 1a 98 b9 7f e7
       -49 -100 -127 -127 23 -59 38 -127 -3 127 60 26 -104 -71 127 -25
000020 0d b3 15 c9 3b 7f 81 f1 ec fb 51 7f 3f c2 c1 7f
       13 -77 21 -55 59 127 -127 -15 -20 -5 81 127 63 -62 -63 127

arith.constant83 i1 [16, 1, 1, 16]
000000 ab 17 87 6e c9 3d 72 3a 7f bf dd 8e 08 5d ae e5
       -85 23 -121 110 -55 61 114 58 127 -65 -35 -114 8 93 -82 -27
000010 a7 c4 a6 81 e2 17 ca 09 76 52 13 4b d9 88 b7 7f
       -89 -60 -90 -127 -30 23 -54 9 118 82 19 75 -39 -120 -73 127
000020 95 81 78 c8 f1 9f 78 c5 93 8c 93 53 90 a6 f2 e0
       -107 -127 120 -56 -15 -97 120 -59 -109 -116 -109 83 -112 -90 -14 -32
000030 e9 40 da 4b e6 c3 5b 7f 37 ed 00 a7 4d dc 41 0b
       -23 64 -38 75 -26 -61 91 127 55 -19 0 -89 77 -36 65 11
000040 b4 1c 40 fa c3 55 60 3d 81 c9 25 ad 14 a0 71 aa
       -76 28 64 -6 -61 85 96 61 -127 -55 37 -83 20 -96 113 -86
000050 2f c8 bc b0 ce bd db 28 35 7f ba c6 fe 45 3b 05
       47 -56 -68 -80 -50 -67 -37 40 53 127 -70 -58 -2 69 59 5
000060 7c dd 01 d8 b9 e1 96 0f 81 bb 8e 2a 40 e2 c9 3d
       124 -35 1 -40 -71 -31 -106 15 -127 -69 -114 42 64 -30 -55 61
000070 81 28 e7 d5 33 52 62 1b 9a b8 fe fe be 8d f7 83
       -127 40 -25 -43 51 82 98 27 -102 -72 -2 -2 -66 -115 -9 -125
000080 1e 3c d8 4e 44 ee 49 7c bd b2 9b 7f 0d f4 7e b0
       30 60 -40 78 68 -18 73 124 -67 -78 -101 127 13 -12 126 -80
000090 76 07 04 be 7f 37 a4 83 9f 51 e7 02 84 9b 19 cd
       118 7 4 -66 127 55 -92 -125 -97 81 -25 2 -124 -101 25 -51
0000a0 96 9d c7 39 c7 04 7f 13 cf dd 59 12 25 f6 0a a3
       -106 -99 -57 57 -57 4 127 19 -49 -35 89 18 37 -10 10 -93
0000b0 3d ea c7 04 81 28 f6 ac 17 a5 b2 14 65 49 8d c6
       61 -22 -57 4 -127 40 -10 -84 23 -91 -78 20 101 73 -115 -58
0000c0 14 68 e7 81 3c a2 1b cb 83 f2 fb 45 0d 7c f6 ce
       20 104 -25 -127 60 -94 27 -53 -125 -14 -5 69 13 124 -10 -50
0000d0 4b 73 4d 10 46 a3 68 c0 7f f7 4e 31 11 e0 17 6d
       75 115 77 16 70 -93 104 -64 127 -9 78 49 17 -32 23 109
0000e0 91 f5 e9 6e 8d c6 d4 7f 41 ef 74 a5 81 6b 5f 99
       -111 -11 -23 110 -115 -58 -44 127 65 -17 116 -91 -127 107 95 -103
0000f0 a5 39 d4 1a 7f 28 24 f4 1d 50 6a e3 bc 66 d6 b2
       -91 57 -44 26 127 40 36 -12 29 80 106 -29 -68 102 -42 -78

arith.constant84 i1 [16, 1, 1, 16]
000000 b6 82 e8 6b 9f 41 7f f0 f6 2f 1a 90 b5 b4 ed 61
       -74 -126 -24 107 -97 65 127 -16 -10 47 26 -112 -75 -76 -19 97
000010 dd 94 da 5f 38 17 f0 eb 48 57 a1 97 81 3c d9 72
       -35 -108 -38 95 56 23 -16 -21 72 87 -95 -105 -127 60 -39 114
000020 03 c4 46 81 a7 27 92 cc f9 63 70 88 6f 00 04 ff
       3 -60 70 -127 -89 39 -110 -52 -7 99 112 -120 111 0 4 -1
000030 76 f2 f0 ae 75 25 81 76 f9 99 05 c9 20 18 f7 4f
       118 -14 -16 -82 117 37 -127 118 -7 -103 5 -55 32 24 -9 79
000040 66 07 d9 5e dd c7 d4 67 0e 33 73 c7 7f 49 ec 2e
       102 7 -39 94 -35 -57 -44 103 14 51 115 -57 127 73 -20 46
000050 a5 6e e4 2f e5 58 ff ef fe 10 df 83 81 a9 6c 7a
       -91 110 -28 47 -27 88 -1 -17 -2 16 -33 -125 -127 -87 108 122
000060 1f 8e 5e 6e 2c 0f 70 37 e1 d0 12 d8 48 81 e9 14
       31 -114 94 110 44 15 112 55 -31 -48 18 -40 72 -127 -23 20
000070 76 a1 7f c9 9d 7a a5 87 20 da 12 a2 7b 85 2a 36
       118 -95 127 -55 -99 122 -91 -121 32 -38 18 -94 123 -123 42 54
000080 d1 7f b0 31 6c 53 20 64 45 6f 51 a5 eb af 6c 67
       -47 127 -80 49 108 83 32 100 69 111 81 -91 -21 -81 108 103
000090 14 33 58 a2 a0 73 6e 22 0c fe d2 95 6f 81 4f de
       20 51 88 -94 -96 115 110 34 12 -2 -46 -107 111 -127 79 -34
0000a0 86 6b d5 81 16 d8 ad 81 46 f7 c8 16 c2 c5 1c 2b
       -122 107 -43 -127 22 -40 -83 -127 70 -9 -56 22 -62 -59 28 43
0000b0 b7 1d 51 03 0e ab 9c 86 81 f6 de 12 9b 77 c8 6a
       -73 29 81 3 14 -85 -100 -122 -127 -10 -34 18 -101 119 -56 106
0000c0 48 ff f0 eb 81 2c 4c f7 cc 8a 73 89 ee 81 65 c9
       72 -1 -16 -21 -127 44 76 -9 -52 -118 115 -119 -18 -127 101 -55
0000d0 a3 7f a7 70 72 29 fc 8d 76 97 9d e7 07 be 04 84
       -93 127 -89 112 114 41 -4 -115 118 -105 -99 -25 7 -66 4 -124
0000e0 d4 a1 44 94 81 a2 cc d7 ec f6 a7 36 67 cc 36 69
       -44 -95 68 -108 -127 -94 -52 -41 -20 -10 -89 54 103 -52 54 105
0000f0 14 11 b9 fc 38 7f e4 6e 91 5c a1 17 60 7b 06 67
       20 17 -71 -4 56 127 -28 110 -111 92 -95 23 96 123 6 103

arith.constant85 i1 [1, 3, 1, 16]
000000 81 f5 ac 81 29 da f9 81 1b 4e c3 95 7f 81 81 a4
       -127 -11 -84 -127 41 -38 -7 -127 27 78 -61 -107 127 -127 -127 -92
000010 36 93 a4 2f f0 4a 7f 19 ac ab c8 7f 31 74 1a 7f
       54 -109 -92 47 -16 74 127 25 -84 -85 -56 127 49 116 26 127
000020 25 81 81 1f 81 81 ab 7a 81 81 7f 3c 22 e9 e9 2e
       37 -127 -127 31 -127 -127 -85 122 -127 -127 127 60 34 -23 -23 46

arith.constant86 i1 [16, 1, 1, 16]
000000 db 4d f1 06 36 81 f2 64 e5 a9 d0 d9 18 e6 b8 9a
       -37 77 -15 6 54 -127 -14 100 -27 -87 -48 -39 24 -26 -72 -102
000010 24 77 7f fe 09 92 c1 32 2d 96 cc 4e e9 93 6d 34
       36 119 127 -2 9 -110 -63 50 45 -106 -52 78 -23 -109 109 52
000020 e2 2b 30 50 54 50 00 e6 7f 1e 8a 68 0f 4f cb 43
       -30 43 48 80 84 80 0 -26 127 30 -118 104 15 79 -53 67
000030 53 1d 5a 57 a0 ce e1 ff 20 81 27 ee 59 ed e1 a7
       83 29 90 87 -96 -50 -31 -1 32 -127 39 -18 89 -19 -31 -89
000040 ad 81 21 f9 a3 46 c6 44 a0 45 3b 9b 09 da 9b b8
       -83 -127 33 -7 -93 70 -58 68 -96 69 59 -101 9 -38 -101 -72
000050 9c 4c ac 90 e9 20 02 df d4 aa cc e7 21 f1 81 38
       -100 76 -84 -112 -23 32 2 -33 -44 -86 -52 -25 33 -15 -127 56
000060 5b 46 50 19 81 eb 47 17 1e fb e1 f2 3f 65 60 70
       91 70 80 25 -127 -21 71 23 30 -5 -31 -14 63 101 96 112
000070 e9 bf a4 7f 6e f6 66 0b 6e a0 83 70 0d 9c 54 97
       -23 -65 -92 127 110 -10 102 11 110 -96 -125 112 13 -100 84 -105
000080 20 2c 11 83 9a 07 ae c5 f8 4c 15 60 c3 81 a4 75
       32 44 17 -125 -102 7 -82 -59 -8 76 21 96 -61 -127 -92 117
000090 67 9b d5 5c f9 79 9d 7e 81 ad bd 96 92 0b e2 18
       103 -101 -43 92 -7 121 -99 126 -127 -83 -67 -106 -110 11 -30 24
0000a0 9a 9a de e7 a6 fe cd 87 40 e1 28 db 7f 01 98 77
       -102 -102 -34 -25 -90 -2 -51 -121 64 -31 40 -37 127 1 -104 119
0000b0 ff e4 3b 2e d4 39 70 40 6d 99 0f 7f c5 33 5d 4e
       -1 -28 59 46 -44 57 112 64 109 -103 15 127 -59 51 93 78
0000c0 6b 81 67 e3 65 43 4b 31 ce 63 8b 95 64 e2 b1 f0
       107 -127 103 -29 101 67 75 49 -50 99 -117 -107 100 -30 -79 -16
0000d0 52 57 e1 d7 ea 42 bd cf 7f 9e ea 35 46 89 e1 e2
       82 87 -31 -41 -22 66 -67 -49 127 -98 -22 53 70 -119 -31 -30
0000e0 b9 7f 32 c4 e4 77 8a d0 e3 90 4e 47 9f cb ac 54
       -71 127 50 -60 -28 119 -118 -48 -29 -112 78 71 -97 -53 -84 84
0000f0 68 44 5f 8f c9 7f 25 c3 c1 99 8f 4a d9 70 93 b5
       104 68 95 -113 -55 127 37 -61 -63 -103 -113 74 -39 112 -109 -75

arith.constant87 i1 [16, 1, 1, 16]
000000 89 e1 8c 95 7f c8 bb f1 83 fd bf 79 ae 67 ab a2
       -119 -31 -116 -107 127 -56 -69 -15 -125 -3 -65 121 -82 103 -85 -94
000010 81 f3 1c 5a 9f 82 bc 6c 9d 2f 9f c2 fb 76 9b 98
       -127 -13 28 90 -97 -126 -68 108 -99 47 -97 -62 -5 118 -101 -104
000020 f4 9a e3 39 27 91 49 fb 66 3e fd dd 51 81 cf e0
       -12 -102 -29 57 39 -111 73 -5 102 62 -3 -35 81 -127 -49 -32
000030 e4 2a 69 3b cd 16 df b3 38 8b ad 79 da 7f fc ee
       -28 42 105 59 -51 22 -33 -77 56 -117 -83 121 -38 127 -4 -18
000040 5e cf 69 cf c9 81 11 41 b4 9b d8 b2 a6 58 7d 1c
       94 -49 105 -49 -55 -127 17 65 -76 -101 -40 -78 -90 88 125 28
000050 6c 0c 34 d8 01 97 3b 97 9e 68 7f 39 34 f2 e0 9a
       108 12 52 -40 1 -105 59 -105 -98 104 127 57 52 -14 -32 -102
000060 41 8c 8f 9e 60 d3 56 81 39 eb 0f 6a db d5 3c 48
       65 -116 -113 -98 96 -45 86 -127 57 -21 15 106 -37 -43 60 72
000070 ff 7f 7a 3e 42 2f e8 8b 1c d1 88 50 c0 3c 70 00
       -1 127 122 62 66 47 -24 -117 28 -47 -120 80 -64 60 112 0
000080 ab 2a 67 72 c8 51 7b 9d 81 3c 6b 41 ab 7d 97 cd
       -85 42 103 114 -56 81 123 -99 -127 60 107 65 -85 125 -105 -51
000090 a2 c7 0e 69 7b 83 ce 74 65 65 dc 3b 5d 4e b7 7f
       -94 -57 14 105 123 -125 -50 116 101 101 -36 59 93 78 -73 127
0000a0 fe c3 81 e4 01 84 ab 5e 5d 76 90 65 a3 6b 4a 55
       -2 -61 -127 -28 1 -124 -85 94 93 118 -112 101 -93 107 74 85
0000b0 93 26 81 dc ee 8d 6d 37 d3 45 e2 4f 24 c8 93 d1
       -109 38 -127 -36 -18 -115 109 55 -45 69 -30 79 36 -56 -109 -47
0000c0 24 47 c0 1e 7a 59 14 15 5a 81 44 f1 dd 35 d5 02
       36 71 -64 30 122 89 20 21 90 -127 68 -15 -35 53 -43 2
0000d0 1a 31 5f 5a 7d f2 99 bb db 3a 97 e7 2d 81 e1 4e
       26 49 95 90 125 -14 -103 -69 -37 58 -105 -25 45 -127 -31 78
0000e0 ac 2e 2f fb a0 ba 72 fc 84 ca 08 b2 50 63 79 7f
       -84 46 47 -5 -96 -70 114 -4 -124 -54 8 -78 80 99 121 127
0000f0 68 ef d2 25 df bf b9 b0 76 f5 cc 7f 59 cf fe 4b
       104 -17 -46 37 -33 -65 -71 -80 118 -11 -52 127 89 -49 -2 75

arith.constant88 i1 [1, 3, 1, 16]
000000 7f 81 7f 02 f9 4b b3 4d bd 08 81 1c e7 36 94 4c
       127 -127 127 2 -7 75 -77 77 -67 8 -127 28 -25 54 -108 76
000010 94 2a 75 81 6b 81 7f 4e 7f 7f 94 dd 81 ec 7f 10
       -108 42 117 -127 107 -127 127 78 127 127 -108 -35 -127 -20 127 16
000020 2d 51 24 b0 7f 38 22 81 55 c4 a0 7f 29 7f db 81
       45 81 36 -80 127 56 34 -127 85 -60 -96 127 41 127 -37 -127

arith.constant89 i1 [16, 1, 1, 16]
000000 7f f9 0e bd 2e 5c 97 54 d4 fb 97 57 d9 65 3e 87
       127 -7 14 -67 46 92 -105 84 -44 -5 -105 87 -39 101 62 -121
000010 b9 f0 26 78 4e 81 db 0d df 76 4d b6 1e 28 5b ef
       -71 -16 38 120 78 -127 -37 13 -33 118 77 -74 30 40 91 -17
000020 91 26 19 7f 9b 25 ab a1 0d 97 dc 43 fc 5b d6 27
       -111 38 25 127 -101 37 -85 -95 13 -105 -36 67 -4 91 -42 39
000030 00 fd 45 0e 6f 25 8a e9 81 1d 6b 3f c9 75 d3 5b
       0 -3 69 14 111 37 -118 -23 -127 29 107 63 -55 117 -45 91
000040 ce da c3 8e 4f 9a a2 7f 6b 35 56 b5 84 6a 1f 27
       -50 -38 -61 -114 79 -102 -94 127 107 53 86 -75 -124 106 31 39
000050 c9 dc 60 4b a5 1c 7f f1 02 e9 26 7f a8 a9 22 89
       -55 -36 96 75 -91 28 127 -15 2 -23 38 127 -88 -87 34 -119
000060 ed 4c 28 e0 2b 7f cf 5b 5d 64 79 42 3d 7b 8e 8a
       -19 76 40 -32 43 127 -49 91 93 100 121 66 61 123 -114 -118
000070 e4 9a 3b e7 81 02 23 16 1b 0c 08 6d 1e 23 27 46
       -28 -102 59 -25 -127 2 35 22 27 12 8 109 30 35 39 70
000080 b4 ba 1a 54 18 07 8a d1 ca b9 23 dd 81 b9 62 98
       -76 -70 26 84 24 7 -118 -47 -54 -71 35 -35 -127 -71 98 -104
000090 16 87 81 2a b2 9e 18 56 02 27 fd 21 f9 0b 69 5e
       22 -121 -127 42 -78 -98 24 86 2 39 -3 33 -7 11 105 94
0000a0 14 6a 28 ac 6b 39 59 81 ee 40 66 03 06 a0 5f 4e
       20 106 40 -84 107 57 89 -127 -18 64 102 3 6 -96 95 78
0000b0 6e 72 d5 cd a0 a4 35 10 da 21 57 6e 81 6a 54 42
       110 114 -43 -51 -96 -92 53 16 -38 33 87 110 -127 106 84 66
0000c0 4f 70 b1 3d 15 8a 74 f9 12 b6 0c 94 7f f8 f3 7f
       79 112 -79 61 21 -118 116 -7 18 -74 12 -108 127 -8 -13 127
0000d0 d5 7f ad 75 35 de 2d 54 5a 9d 4d 55 7e 33 c1 08
       -43 127 -83 117 53 -34 45 84 90 -99 77 85 126 51 -63 8
0000e0 7f 83 67 f8 87 8a 38 e4 6f 16 42 8a 37 55 99 6f
       127 -125 103 -8 -121 -118 56 -28 111 22 66 -118 55 85 -103 111
0000f0 74 0b dc fc 7a fb 8b 7c 4f 3f 79 e6 a3 54 8c 81
       116 11 -36 -4 122 -5 -117 124 79 63 121 -26 -93 84 -116 -127

arith.constant90 i1 [16, 1, 1, 16]
000000 81 3b 05 2d 9d aa d4 b6 4e d2 0b fa ec 59 2c 74
       -127 59 5 45 -99 -86 -44 -74 78 -46 11 -6 -20 89 44 116
000010 33 8b fe db 38 61 6a e4 86 5a 21 7f 9c d1 b7 a5
       51 -117 -2 -37 56 97 106 -28 -122 90 33 127 -100 -47 -73 -91
000020 3b 1b b2 e9 ce f0 fb 07 30 52 34 ac 02 0c d7 81
       59 27 -78 -23 -50 -16 -5 7 48 82 52 -84 2 12 -41 -127
000030 d3 ba 8f 34 24 7f bc 07 28 fb b1 75 04 d4 79 47
       -45 -70 -113 52 36 127 -68 7 40 -5 -79 117 4 -44 121 71
000040 5a 7f 2b 09 ef 10 d1 39 cc f9 e2 38 96 e1 b2 6f
       90 127 43 9 -17 16 -47 57 -52 -7 -30 56 -106 -31 -78 111
000050 4b e9 ec 20 24 c5 b0 f3 00 c6 ba 31 4f f8 fe 81
       75 -23 -20 32 36 -59 -80 -13 0 -58 -70 49 79 -8 -2 -127
000060 a5 9f 9d ea 7d 99 3c 27 64 81 a1 2a 47 c0 71 4d
       -91 -97 -99 -22 125 -103 60 39 100 -127 -95 42 71 -64 113 77
000070 8e d5 b9 46 81 5d 13 18 33 07 aa d9 fc 1b 1d 7e
       -114 -43 -71 70 -127 93 19 24 51 7 -86 -39 -4 27 29 126
000080 e2 c1 47 e2 69 76 7f 05 3a c6 10 e2 56 da c8 4d
       -30 -63 71 -30 105 118 127 5 58 -58 16 -30 86 -38 -56 77
000090 24 2d ad c5 19 64 c7 3c b0 be 47 6e a8 ac c4 81
       36 45 -83 -59 25 100 -57 60 -80 -66 71 110 -88 -84 -60 -127
0000a0 5d c7 8a e3 3b 48 aa fd e7 9d e6 ae d9 7f 96 4b
       93 -57 -118 -29 59 72 -86 -3 -25 -99 -26 -82 -39 127 -106 75
0000b0 7f 6b 44 98 da 95 bc 89 93 98 38 f7 3f fd 39 dc
       127 107 68 -104 -38 -107 -68 -119 -109 -104 56 -9 63 -3 57 -36
0000c0 e5 66 a0 de 18 a3 c5 f4 81 d5 08 4c 15 1a 97 aa
       -27 102 -96 -34 24 -93 -59 -12 -127 -43 8 76 21 26 -105 -86
0000d0 c7 37 75 a1 69 1a 91 f1 7f 51 f3 d4 ed db 89 f0
       -57 55 117 -95 105 26 -111 -15 127 81 -13 -44 -19 -37 -119 -16
0000e0 fa 33 e5 68 1b 0b 97 a3 5a 72 18 a1 7f 0c f2 23
       -6 51 -27 104 27 11 -105 -93 90 114 24 -95 127 12 -14 35
0000f0 96 3b 8f c2 b4 2a 94 7f 7b 38 09 b4 b1 f0 08 ad
       -106 59 -113 -62 -76 42 -108 127 123 56 9 -76 -79 -16 8 -83

arith.constant91 i1 [1, 3, 1, 16]
000000 60 15 76 cf 4f 81 7f 77 81 7f 94 ed f7 41 cc b3
       96 21 118 -49 79 -127 127 119 -127 127 -108 -19 -9 65 -52 -77
000010 71 7f 1c 06 ab 40 23 81 2f 79 e1 ad 81 31 62 55
       113 127 28 6 -85 64 35 -127 47 121 -31 -83 -127 49 98 85
000020 81 13 81 7f 7f 52 92 fb 36 63 81 7f aa 81 81 7f
       -127 19 -127 127 127 82 -110 -5 54 99 -127 127 -86 -127 -127 127
