gtcrn_micro/models/tflite/gtcrn_micro_dynamic_range_quant.tflite (tflite, 144088 bytes, 104 tensors)

arith.constant1 f4 [2]
00000000: 681b 733d 017a 2d3a
0.05935231 0.0006617606

arith.constant2 f4 [16]
00000000: 80d4 abbe 6988 773e a064 97bb c6e4 963e
00000010: c5a4 9a3f 44bf cd3d 7500 5fc0 c891 d9be
00000020: 500f 29be d061 263d 91a6 f8bf 6544 1c3e
00000030: 8ab7 74bf a7ec 0c3f f280 4a40 d06a 97bd
-0.33560562 0.2417313 -0.0046201497 0.29471415 1.2081534 0.10046247 -3.484403 -0.42494035
-0.16509748 0.040620625 -1.9425832 0.15260465 -0.9559256 0.550486 3.1641202 -0.0739342

arith.constant3 f4 [16]
00000000: c6fa eebe 9755 cc3e c092 33bf f39e 793e
00000010: c684 2bbf 5497 e73f 9479 bf3e 08eb e9bc
00000020: 176b 1b3f 6c61 5c3f 7d49 88c0 3cb3 2e3f
00000030: 8795 db3f c09b 49bc 9a5c 8c3e 1d2a 363f
-0.466757 0.3990905 -0.701458 0.2437704 -0.6699947 1.8093057 0.37397444 -0.028554454
0.6071028 0.86086154 -4.2589707 0.6824224 1.7155007 -0.0123052 0.274144 0.7115801

arith.constant4 f4 [16]
00000000: f807 a93f 40de 8dbc 92f5 c13e 3ce7 90be
00000010: a6e0 273f 111c a03f 0ae5 a13f 8609 f83d
00000020: 64cb d33d e1ac 933e 88dd 9cbe 1e22 073f
00000030: bb35 3fbe ba27 df3f c4fc bc3d a6b8 963f
1.3205557 -0.017317891 0.37882668 -0.28301418 0.6557716 1.2508565 1.2648022 0.121111915
0.10341528 0.28842834 -0.30637765 0.52786434 -0.1867284 1.7433999 0.09227899 1.17751

arith.constant5 f4 [16]
00000000: 55f7 abbe 0e58 6a3e 8b4a f53e 844e 403f
00000010: acda c73f 7224 6040 e8c5 cc3f b66b b5be
00000020: 9ea0 ccbf 6fbc 353f ccbc 1d40 1e7f 3f3f
00000030: e23a 6f3e 2882 1e3f 3dfe bcbe edf5 103f
-0.33587137 0.22885153 0.47908434 0.75119805 1.5613608 3.5022244 1.5997896 -0.3543374
-1.5986516 0.7099065 2.4646482 0.7480334 0.23362306 0.6191735 -0.36912718 0.5662525

arith.constant27 f4 [16]
00000000: a517 053f 14d9 a23e f97b b73e dfef d23e
00000010: ce3e a73e 0910 003f 328a b73e 5c54 1a3f
00000020: 793f eb3e 869c be3e 036b b63e 7606 363f
00000030: 8337 123f f646 c43e 61f0 c33e c98e a13e
0.51989204 0.31806242 0.3583677 0.41198632 0.32665104 0.5002447 0.35847622 0.6028497
0.45946863 0.37228793 0.35628518 0.7110361 0.57115954 0.3833539 0.38269332 0.3155425

arith.constant30 f4 [16]
00000000: 6133 7c3e 26b4 803e b426 973e 5104 c43e
00000010: 1cdf b13e c53c bc3e 332b 943e 4a88 d93e
00000020: 9af9 e93e ed63 6b3e 8cf7 a03e c427 c63e
00000030: 509f bf3e 166f b83e 35b0 8d3e 2b1a e73e
0.24628974 0.25137442 0.29521716 0.38284543 0.3474053 0.36765113 0.28939208 0.42486793
0.45698243 0.22987337 0.31438863 0.38702214 0.37426233 0.36022252 0.27673498 0.45137152

arith.constant33 f4 [16]
00000000: 7a3e 053f 0500 8f3e 11ee 8a3e 09e0 5f3e
00000010: 121d c83e 0ef8 303e 4de2 583e a625 873e
00000020: 2160 8e3e f26f 9a3e 1836 543e 11e5 a73e
00000030: 4faa ad3e 5367 dd3e 2762 3f3e 2259 783e
0.52048457 0.27929702 0.27134755 0.21862806 0.3908468 0.17282125 0.21180077 0.2639591
0.27807716 0.30163532 0.2072376 0.3279195 0.33918998 0.43242893 0.18689786 0.24252751

arith.constant35 f4 [16]
00000000: 8aae ef3e 3b01 a23e 20da e93d 1329 2f3e
00000010: 3532 063e 6bf2 223e 679f 923e f634 8d3e
00000020: a9e0 913e 6c62 d03e c88a a03e ace4 313e
00000030: 684e 153f c99d ad3e 985c 323e 99a8 f13e
0.4681285 0.31641564 0.11418557 0.17105512 0.1310509 0.15912788 0.2863724 0.27579468
0.28491715 0.4070009 0.31355882 0.17372388 0.58322763 0.33909443 0.17418134 0.47198942

arith.constant37 f4 [2]
00000000: ef1a 123e 00dd b5b9
0.14268087 -0.00034687668

arith.constant53 f4 [16, 1, 5, 3]
00000000: bb22 5fbb 39d3 7dbc 44ee 21bb 7c6f 45ba
00000010: 0663 a4bd b85a 9abd c937 1cbb dd05 c43c
00000020: e9d8 47be bdbd 8cba d877 943d 6d21 cabd
00000030: d96a 9839 d535 eb3c f960 02bd ee56 84bb
00000040: 1f8d 1a3d 1d55 3d3d 0d44 743a 69f4 a73b
00000050: 7b33 443e 7343 43ba b9ac 34be 99fe 2e3e
00000060: dda2 ceba a5ad 22be aab3 ed3c 3cdf 7d38
00000070: 122f 4bbd b606 b83a 88d3 a83a efc0 243c
00000080: 4043 633c 9025 7cbe 7b06 7a3c f803 e03c
00000090: ede1 1fbe 7dc9 853b 0716 963c 8b38 60be
000000a0: d28b f03c 5707 c9bb d2aa 19be 9924 953a
000000b0: f3fc 823b 365f 1f3b 4638 163a 21b4 c3bb
000000c0: a53d 423e a8de 81bb 760b e53a 84af 87be
000000d0: f2dd 923b 60bb b1ba ac6b 0abe 5e4a 1f3c
000000e0: eaa7 a33b e60b 223e dd58 013c 50ca 233b
000000f0: f392 02be a562 1f3b a27e 723b e04b f3bd
00000100: c34e c938 a74d b639 c518 65bc 6be3 863b
00000110: 89d9 fc3b 7f2d c4bb e2df 523b a3f1 923b
00000120: e8ca 913b d593 003b 41ce 0f3b 24ff 923b
00000130: b0dd 93bd 2d7f 4bbc e6bf 20bd 77c3 d5bb
00000140: 24ea f2ba dadd 51bb 0eef bdbd ad06 4dbd
00000150: 0626 ad3a 9a0a 5c3b 0d4f 2fbd a1b4 a7ba
00000160: 0d39 23bb 84c5 0abc bb92 41bc 70c5 843b
00000170: afb6 d2bc db16 f5bc 3817 95bc 4c97 6f3c
00000180: b243 5a3b b515 4ab9 dd6d d1bc 39e6 9fba
00000190: 9ee0 ba3b b70b 043b 4fd0 883a 9abd da3a
000001a0: 4856 50b9 bea0 97bc f03e cb3c 0d00 e13c
000001b0: 45ed 8cbd 364a 14bc cbb7 fc3d ab44 cabd
000001c0: b5c9 b2bd b12a 26bd 41f3 8fbe afe7 debc
000001d0: 6bac 34bc c113 50be f351 91ba 3c85 c73b
000001e0: d259 b3bb 55ce fdbb 37ec 69bb c2d3 b4bb
000001f0: 4ec0 583c da4f a63b 95fd f8bb de69 87bc
00000200: 5f48 d8b9 ce4b ac3a f167 023b b1ec abb9
00000210: 2130 483b 1fa8 d2ba 5cac 3f3b 70e4 503e
00000220: ad07 0a3c f683 513b 8a7f 88be 1616 18bc
00000230: 08e9 31bb 0e75 02be 59b8 483b 94e9 2f3b
00000240: 85e8 303e 3be3 c93a 570e 023b 7117 fabc
00000250: 47e4 583b f9a8 233b 1f1c 79bc 93f4 2a3b
00000260: 2f9c e339 dfba 2cbc e889 d33b e066 1abb
00000270: 7b23 10be 8347 963b 876b 95ba f030 25be
00000280: 2463 0f3b 157a 80bb fe81 60bd ee3d 0eb9
00000290: 3e32 173b 5ccb 31bd d53f 343d f9ac 823d
000002a0: 07c2 bebe eed3 7bbd 314e 5dbe a1a9 49bc
000002b0: 91ed 283e 0474 a33d 16da 143c 70b1 693d
000002c0: cc54 4a3d aa2a 0cbd 1177 403d da03 ce3b
000002d0: c99f 9d3d 2287 7cbb 5363 2fbc 4903 b83d
000002e0: 8406 0a3c 8f1c 45bb 632c ac3b bf6f c6ba
000002f0: 6fba 003a db21 cdbc 55d5 da39 3e11 923b
00000300: 7f2a 31bc c873 7abb 50ab 74b9 b784 d9ba
00000310: a600 893c 0364 7ebc f1bd e3ba 00a7 c63d
00000320: 690e 55bd b996 a939 ae45 0a3e 6cc4 9c3d
00000330: 1050 ffba db2c 413d 52c2 ba3d 37e4 6a3a
00000340: 042a 2f3c 64cf 0e3d 9be5 d63d ad64 293b
00000350: ea5c 9a3c 09f5 85be fba1 f1bb 5c1d b9bc
00000360: 49e2 bebe 671a 30bc f3a5 793d 88d4 3b3d
00000370: c567 d2bc b250 12bb 57c2 103d 90a0 18bc
00000380: 4811 50bb ea2f 413b 9483 453b f614 2b3b
00000390: 2a2d 97bc 9369 a23a 3705 313b 0b6d e9bc
000003a0: abb4 5d3b bb81 c236 6e3e 6cbd 04dc 8a3b
000003b0: 7e29 ff3a 8399 12bd dfd5 6d3b 72b2 883a
-0.00340478 -0.015492254 -0.0024708668 -0.0007531566 -0.080267 -0.075368345 -0.0023836961 0.023928577
-0.19516338 -0.0010737699 0.07249421 -0.09869657 0.00029071307 0.028712193 -0.03183076 -0.004038683
0.03773224 0.04622375 0.00093180017 0.0051255715 0.19160263 -0.00074487104 -0.17644013 0.17089309
-0.001576509 -0.15886553 0.029016335 6.0527804e-05 -0.049605437 0.0014040086 0.0012880424 0.010055765
0.013871014 -0.24623704 0.015260334 0.027345642 -0.15613528 0.004082857 0.01832105 -0.2189657
0.029363547 -0.006134908 -0.15006569 0.0011378705 0.003997439 0.0024318225 0.00057304313 -0.005972401
0.18968828 -0.0039633103 0.0017474729 -0.26501095 0.0044820243 -0.001355987 -0.13517636 0.00972232
0.004994382 0.15824851 0.007894722 0.0024992414 -0.12751369 0.0024320271 0.0037001749 -0.118797064
9.5990974e-05 0.000347716 -0.013982956 0.004116466 0.007716362 -0.005986869 0.0032176902 0.0044843717
0.004449237 0.0019619365 0.0021943005 0.0044859815 -0.07220018 -0.012420458 -0.03924551 -0.0065235454
-0.0018532914 -0.0032023103 -0.09274112 -0.050055195 0.0013210184 0.0033575655 -0.042799998 -0.001279492
-0.002490583 -0.008469943 -0.011814768 0.0040518567 -0.025721876 -0.029918125 -0.018199548 0.014623474
0.003330451 -0.00019272308 -0.025565082 -0.0012199349 0.005703046 0.0020148584 0.0010438057 0.0016688586
-0.00019868568 -0.018509265 0.024810284 0.027465845 -0.06881193 -0.009050896 0.12339743 -0.098763786
-0.08729879 -0.040568057 -0.28115276 -0.027210085 -0.011027436 -0.20320036 -0.0011087045 0.006088881
-0.005473354 -0.007745544 -0.0035693774 -0.0055184076 0.013229443 0.005075437 -0.0075985887 -0.016529974
-0.0004125265 0.001314515 0.001989838 -0.0003279201 0.0030546265 -0.0016071833 0.0029247021 0.20399642
0.008424682 0.0031969524 -0.26659805 -0.009282609 -0.0027146954 -0.12739965 0.0030627458 0.0026842104
0.17276199 0.0015402803 0.0019844973 -0.030528756 0.0033095048 0.0024972542 -0.0152044585 0.002608572
0.0004341318 -0.0105426 0.0064556487 -0.0023559853 -0.14076035 0.0045861616 -0.0011399843 -0.1613195
0.002187916 -0.0039208033 -0.05481147 -0.00013565246 0.0023070718 -0.04340683 0.044006187 0.06380648
-0.37257406 -0.06148141 -0.21611859 -0.012308509 0.16496874 0.079811126 0.009085199 0.057053983
0.049397275 -0.034220375 0.04698855 0.0062870802 0.07696492 -0.0038532694 -0.010704833 0.089850016
0.008424405 -0.0030076837 0.0052543147 -0.0015139504 0.0004910593 -0.025040558 0.00041739145 0.004457622
-0.0108133545 -0.0038215984 -0.00023333472 -0.0016595338 0.016723942 -0.015526774 -0.0017375333 0.096998215
-0.052015696 0.0003234649 0.13503143 0.07654652 -0.0019478817 0.047161918 0.09119095 0.0008960398
0.01069117 0.03486575 0.104930125 0.002584736 0.018843133 -0.2616351 -0.007374046 -0.022597007
-0.37282017 -0.010748482 0.060949277 0.045856982 -0.025684247 -0.002232593 0.035341587 -0.009315625
-0.0031748582 0.0029478022 0.003013824 0.0026105023 -0.018454153 0.0012391083 0.0027011165 -0.028494379
0.003382961 5.796753e-06 -0.057676725 0.0042376537 0.0019467322 -0.03579093 0.0036290807 0.0010429157

arith.constant54 f4 [16, 1, 1, 8]
00000000: d239 f73e e4ac bd3d 9972 5ebf b309 343e
00000010: dc87 81bf a8dc 783d 0d03 abbe 47d7 06c0
00000020: 5ca7 8bbe 0b8b e0be 5132 d5be 385e 66be
00000030: 7cfb 0fbe 17a2 67bc 497f 8cbe 819c 443c
00000040: be39 cfbd 0d67 be3c e723 eb3c ddc5 f0bd
00000050: 6d17 293e 1729 633d e890 e0bd 4ed7 0abd
00000060: f410 f63e 3fd1 03be db82 b9be d546 6bbd
00000070: e605 6ebe b741 8f3e 56ca 61bf 62cc a83e
00000080: c866 263f d681 97bd 1f50 693f 838b b83e
00000090: 3558 42be d73d 90bc e2b9 e73e 9e83 d63e
000000a0: 9916 c9bf caa8 9a3e 5780 853f 9435 05bf
000000b0: f626 8ebf ad2f d3bd 3a5b e1be bf9d 55bd
000000c0: 0e9a b1bd 270a 443d a302 85be 096e 2f3e
000000d0: 7e3b 8d3d c514 193e bc71 3a3d 1187 a2be
000000e0: b324 30c0 9d07 40be 26c5 df3f 5106 573f
000000f0: 2e56 7abf 4538 a13e d443 42bf f8ed a73f
00000100: e53b b3bd db82 92be 9cfd 1ebf 8ff4 fd3e
00000110: 9643 e0bd 5356 423e ac64 d33e bb25 c4be
00000120: 5a9f 4a3f ab13 223e 0dd8 873f 229f 6ebf
00000130: a3f6 ba3c 3308 c53f 771c 023d 9baa 28bf
00000140: 03a1 fbbe 2ac1 ca3e 9e2f 94be 6fca b2be
00000150: 743a 143e af73 f13e 6161 4e3f 4786 ad3e
00000160: 1cee 01bf 39d2 9fbb 54e2 27be 627c f5be
00000170: 20d8 013a f819 8a3e c6da 0a3f 4713 f3be
00000180: c247 813f c631 5fbf c631 b03f bcf7 c43e
00000190: 1832 58bd 561a 543f 3423 2ebf ded4 bfbf
000001a0: 7ce4 063f a328 09bf e0f9 26bf 3715 503f
000001b0: fc26 613e 2081 ef3e 6964 b23e 1c39 0dbe
000001c0: 8b72 a53e 23e6 e43e 6818 e93d c0dd 63bd
000001d0: 9491 cc3e 9c33 c0be f527 433e 6e73 3cbf
000001e0: 593e 2d3f e5f9 a1bf f69e 1d3f cee8 a53f
000001f0: 63fc 0a3f 2db3 77bf 8baa 03c0 77f1 0ec0
0.482863 0.09261492 -0.8689361 0.17581825 -1.0119586 0.06075731 -0.33400765 -2.1068895
-0.27276123 -0.4385608 -0.4163995 -0.22496879 -0.14060777 -0.014137766 -0.2744086 0.012000204
-0.10118435 0.023242498 0.028703643 -0.117564894 0.16512842 0.05545911 -0.10965139 -0.033896737
0.4805981 -0.1287279 -0.36232647 -0.057440598 -0.23244438 0.27979824 -0.88199365 0.32968432
0.6500058 -0.07397811 0.9113788 0.3604394 -0.18978961 -0.017607613 0.45259005 0.4189729
-1.5710021 0.302069 1.0429791 -0.5203488 -1.110564 -0.10311828 -0.44014913 -0.05215239
-0.08671962 0.047861245 -0.25978574 0.17131819 0.06896113 0.14949329 0.04551862 -0.31743672
-2.75224 -0.18752904 1.748204 0.83994013 -0.9778775 0.31488243 -0.7588475 1.3119497
-0.08751658 -0.2861546 -0.6210573 0.49600646 -0.10950391 0.18978243 0.41287744 -0.38310036
0.791494 0.15827815 1.0612808 -0.9321157 0.022822684 1.5393127 0.031765427 -0.65885323
-0.4914628 0.39600497 -0.2894258 -0.3492007 0.14475423 0.47158572 0.8061734 0.33891508
-0.5075395 -0.0048773554 -0.16394931 -0.4794646 0.00049531646 0.26972938 0.5424007 -0.47475645
1.0100024 -0.87185323 1.376519 0.38470256 -0.052782148 0.82852685 -0.68022466 -1.4986837
0.5269239 -0.5357763 -0.6522503 0.8128237 0.21987528 0.46778202 0.34842232 -0.13791317
0.32313952 0.4470683 0.11381608 -0.0556314 0.39954817 -0.37539375 0.19058211 -0.7361363
0.6767326 -1.2654387 0.6157068 1.2961671 0.5429136 -0.96757776 -2.057284 -2.2334878

arith.constant55 f4 [1, 3, 3, 16]
00000000: 6159 cbbc ceab 1b3f ea80 af3f 648a f0be
00000010: 490e d2bf 9749 bbbd 7970 44be ea2e f6bb
00000020: 0174 29be a744 103d d951 fcbe 8765 833e
00000030: 6c22 e23e a463 343d c097 b63d 5125 01be
00000040: 1a9b 993d 6081 18bf b14e d13d c955 a33f
00000050: d764 23c0 90e8 033e ad51 5dbe 7a87 2fbc
00000060: aa44 003e 375f b53d 0908 29bf ae61 9c3e
00000070: dbfc 43be 6fbd a43d 0393 2b3c 16e1 0a3d
00000080: f2af a1be 0fcf 87bf 41c3 4a3f 64cb 74bf
00000090: 33cb ae3e ab6f d3bd 33fb f33d 3419 093c
000000a0: 2de5 c8bd bc2c bdbe bfe6 9c3f dec1 58be
000000b0: e730 a6be 0fc8 f73d a21f 00be 7618 0dbd
000000c0: 9778 8ebc e568 22bf c7f3 20c0 b79b 2cbf
000000d0: da66 3f3e a036 16bf 0c9e 343f ed53 1f3e
000000e0: 1687 983e d162 583d 34e4 0d3f 2f2a 8e3e
000000f0: 2dea f43e a0b0 03be b002 e7bd 2a58 4bbc
00000100: 37e8 01be 663d 503f c5c6 f3c0 5b90 60be
00000110: af12 b2bf 357f 673e d532 73be 10a1 7d3e
00000120: b508 233f 19db a33e be27 f1bf a268 0abf
00000130: 441c c0be feea 373f ddd1 a3be 1242 c2bd
00000140: 3de9 22bf 480c d23d 8257 933f 4e5a fbbd
00000150: a42a 4b40 5df3 1fbe 7122 323e e57c 803e
00000160: 1f8a cf3d 4b93 10bf 11c3 f73e bdf1 2abe
00000170: 9bf3 f23d 5410 44be 2623 973e c4ce 8a3d
00000180: d4a7 243e 61cd 0cbf 4ac0 8240 d717 ae40
00000190: b6c8 8640 b509 81bf 63e9 913f 9f6c 2f3e
000001a0: b56f f43e 01ea e93d dc2e dbbd d797 8f3e
000001b0: bab0 553f 47f6 2dbf e619 a63d b3df 0fbf
000001c0: 4f43 8abb 140d 4c3f fd17 603f 935c e03f
000001d0: af5d de3f 7230 053e c9a9 50c0 3bd3 693f
000001e0: a974 373f 6e66 2d3f 6e12 b23f c389 38c0
000001f0: 029f 9abe 12fb d13f 930e 8abd c819 d7bd
00000200: 19e9 58bf 67b7 7840 009e d0be a021 1e40
00000210: b344 6cc0 a240 79be 2af7 e23e c770 44be
00000220: 1cc7 dabd 8f9a 86bf 32d6 22c0 cddf 863f
00000230: 479a 5e3e c7de e0be 82be 853f cda0 a83d
-0.024822893 0.6080903 1.3711216 -0.46980584 -1.641061 -0.091448955 -0.1918353 -0.007512917
-0.16548158 0.035221722 -0.49281195 0.25663397 0.44166887 0.044040337 0.08915663 -0.12611891
0.075002864 -0.5957241 0.10220087 1.2760555 -2.5530298 0.12881684 -0.21613188 -0.0107134525
0.12526193 0.088560514 -0.66027886 0.30543274 -0.19139425 0.08043944 0.010472062 0.033906065
-0.31579548 -1.0610064 0.79204184 -0.9562285 0.34139404 -0.10324033 0.11913147 0.008367825
-0.09809337 -0.36948192 1.2257918 -0.21167704 -0.32459185 0.12098705 -0.12512067 -0.034447156
-0.017391486 -0.63441306 -2.514879 -0.674251 0.18691579 -0.586771 0.7055366 0.15559359
0.29790562 0.052828614 0.55426335 0.2776656 0.47834912 -0.12860346 -0.112798095 -0.012411157
-0.12686239 0.81343687 -7.618014 -0.21930067 -1.3911952 0.2260712 -0.2374986 0.24768472
0.6368516 0.32003096 -1.8840253 -0.54065907 -0.37521565 0.71842945 -0.3199605 -0.09485258
-0.63637143 0.10256249 1.151108 -0.122730836 3.1744776 -0.1562018 0.17395951 0.25095287
0.101337664 -0.5647475 0.4839101 -0.16693778 0.1186287 -0.19146854 0.29519004 0.06777719
0.16079646 -0.55000883 4.085973 5.44041 4.212001 -1.0081087 1.1399349 0.1713128
0.47741476 0.11421586 -0.10702297 0.28045532 0.8347279 -0.67953914 0.081104085 -0.5620071
-0.0042194496 0.79707456 0.87536603 1.7528251 1.737234 0.13006762 -3.2603629 0.9133794
0.71662384 0.6773442 1.3911874 -2.8834083 -0.30199438 1.6404746 -0.06741061 -0.10502964
-0.8473068 3.886194 -0.40745544 2.4708023 -3.691693 -0.24341062 0.44329196 -0.19183646
-0.10682508 -1.0515918 -2.5443234 1.0537049 0.2173854 -0.43919966 1.0448763 0.08233795

arith.constant56 f4 [8, 1, 1, 16]
00000000: 7f27 163f 8ea7 70bc 125b 0c3d ab0c 613f
00000010: 1df1 91be 74ba 19be 0c4f e2bd 1ee6 1a3d
00000020: 5882 c73d 6738 23bd 6c46 39bf 5c99 05bf
00000030: e0d1 673d c199 493e 6971 b8bb 230d 18be
00000040: 1d7c cebd f197 223e aac3 b23e f33c ab3c
00000050: b436 113e 310d 2abe 5bfe e7bd e827 b03e
00000060: b929 69be a63f 18be a448 9cbe 18f3 633d
00000070: aa3f 023f fc0a 293e aff9 913e dc69 773e
00000080: 23be 7fbe ff31 b43d 2986 93be b1ed 863d
00000090: 244c df3d 7acb ac3e 4257 93be 7807 493e
000000a0: 1ba1 1f3e b68e 8d3e 779e 873e 54f8 cf3d
000000b0: fa65 6f3e fcdd cdbd 214b cb3c ce98 e2be
000000c0: 2ae0 bebd b4ba 01bf bd66 32be b077 90bd
000000d0: 9a0e 11be 3d0c d33e 2174 debe 0ea5 763d
000000e0: 5462 c93e 20fa cc3e 2a6a b83e bee3 24bf
000000f0: 5fde 653e 55b4 84be a903 ec3e 9125 01bf
00000100: 2906 9dbd a404 e5be abe8 74be 52c6 50be
00000110: a673 8bbe e0e2 8f3e 272c b7be 635f 333f
00000120: 7096 b33d e670 1c3d 61f5 f3bd d2b0 2a3e
00000130: 1f32 313e d9b0 e33d 673d 92bd 3f15 023e
00000140: d705 1c3f 3aac fe3e b20f 5dbe e5a2 2b3e
00000150: d286 59be 439a 1f3e 5448 953d 7f10 443d
00000160: ef9a 933e cb39 463e 1021 5e3d 664f bcbe
00000170: 4937 ebbe 6f77 36be c319 6fbe 7eab 38bb
00000180: d51a 8fbe 253c 0abd adff 86be 521e 113e
00000190: f26a bfbd fa9d 063e 392f c3be 5bc1 ed3e
000001a0: 1818 383c 0609 013e 63e3 653b 0f7a 3a3e
000001b0: 64d7 e13d 48a7 cf3e a4a8 79be bbf2 213e
000001c0: 46f0 a7bc f59e e3bc 4624 61be a5cc 6abe
000001d0: 8264 fd3c 5f6b 3b3b 0b04 11bf 0cb6 38be
000001e0: c5b1 803e 4202 4f3c 51b3 ec3c e922 1b3d
000001f0: a2ea 51bd 739b 953e 41f8 8e3e 5c3b bdbe
0.58654016 -0.014688386 0.03426654 0.87909955 -0.28504267 -0.15012532 -0.11050233 0.037817113
0.09741658 -0.03984871 -0.7237308 -0.5218713 0.056596637 0.19687559 -0.005628754 -0.14848761
-0.100822665 0.15878274 0.34914905 0.020903086 0.14181024 -0.16606595 -0.11327811 0.34405446
-0.22769822 -0.1486803 -0.3052417 0.055651754 0.50878394 0.16508096 0.28510806 0.24161476
-0.24974875 0.087985985 -0.28813294 0.06588305 0.109031945 0.3374899 -0.2877751 0.19631755
0.155888 0.27647942 0.26488087 0.10154787 0.23378745 -0.10052106 0.024816098 -0.44257206
-0.093201 -0.5067551 -0.17422004 -0.070540786 -0.14165726 0.41220275 -0.43447974 0.060216002
0.3933283 0.4003458 0.36018497 -0.64410007 0.22448109 -0.25918832 0.46096542 -0.50447947
-0.076671906 -0.44730103 -0.23916881 -0.20388153 -0.2723667 0.2810278 -0.35775873 0.70067424
0.08768928 0.038193606 -0.11912037 0.16669014 0.17304276 0.111177154 -0.07140618 0.12703417
0.6094641 0.49740773 -0.21588019 0.16761358 -0.21242836 0.1558619 0.07289186 0.047867294
0.28829142 0.19357984 0.05423075 -0.36779326 -0.45940617 -0.17818998 -0.23349671 -0.002817839
-0.2795016 -0.033748765 -0.2636694 0.14171723 -0.0934657 0.13146201 -0.38121966 0.4643658
0.011236213 0.12601098 0.003507816 0.18210624 0.110274106 0.40557313 -0.24380738 0.1581525
-0.020500313 -0.027785758 -0.21986493 -0.22929628 0.030931715 0.0028597934 -0.56646794 -0.18038195
0.25135627 0.012634816 0.028894098 0.03787509 -0.051249154 0.2922016 0.27923778 -0.3695935

arith.constant57 f4 [16, 1, 1, 8]
00000000: 7268 53be 335d 0fbf f109 d33e f1fd c23f
00000010: 204e dd3a e035 993d d266 adbe f3f0 32be
00000020: 6d03 7c3e fc18 be3e 338b 2dbf 0d17 9cbe
00000030: f144 483e 5a60 94be 00fd 5cbe 0ea8 8c3d
00000040: 02bb 1c3f 2b6a 56be 5129 153d 7059 4abe
00000050: 8d5b 353e 6506 5c3b f029 c53e a8dc df3e
00000060: f22b d33e 8a9e 15be 76e6 303f 18c3 0a3f
00000070: 9a6c 853f c1d3 a43e 15e2 8dbd 8293 e53e
00000080: de4d a8be 2046 803f d9c9 db3e 16ec 413e
00000090: acb8 493f 7c0a a83e 5e6f 7ebe 650e d63e
000000a0: b0bf 8f3e 8e59 aebe 05b5 273e 7134 b03e
000000b0: 144a 39bd 8aba abbd 9228 7dbe 76fe 003e
000000c0: 3348 20be 414a 88bd f5b1 93be 85f9 d7be
000000d0: 755b 333f 7cc0 3fbe 98f9 973e 1065 f93d
000000e0: 0415 bd3d 1741 c3bd 531e 06bd 47c8 e9be
000000f0: 7c81 1fbe a976 5b3c c3b5 25be 69cf 303e
00000100: d36d 503e 7d00 2fbf 83d2 e03d 1d2e 6dbe
00000110: 6062 99bf d3ec 0b3e adf4 1cbf 8eff 423e
00000120: a9a3 33be d5db 12bf 59ae 933e 4f72 5cbe
00000130: 87e1 9cbe 1e77 833d 91fc 093e febf 153f
00000140: 7ccb 46be 9991 30bf a911 a7bd 0fe4 833d
00000150: a94d 48bf 2416 513f 878d 653e bcaa 043d
00000160: a97d 123e 8ed1 a23c 9757 8bbe 9267 b43e
00000170: db67 cc3d c2f4 ffbe 4b60 f2bd ba0c 223e
00000180: 3a47 c23d 5728 9f3e eaf7 e7be fccc 423e
00000190: 1c40 a73e 64dc 32bf ddb2 fabe 1b63 8cbd
000001a0: 1628 2fbc 12e2 54bd 18af df3e 4d3c a03e
000001b0: 9565 103f 5754 4f3d f37a 5abd 4ebc 373e
000001c0: 9468 52bc 84af 083c e262 28be 8cd7 a0bc
000001d0: 0455 69be 9178 d1bb e719 893d 69a0 9e38
000001e0: 2d88 86bd 5061 323f 3398 d43e f2fa 023d
000001f0: 1706 50bf 75be 173c db57 f93d e3ea 8cbe
-0.20645311 -0.56001586 0.41218522 1.5233747 0.0016884245 0.07480979 -0.33867508 -0.17474727
0.24610682 0.37128437 -0.67790526 -0.30486336 0.19557549 -0.2897976 -0.21580887 0.068679914
0.6122285 -0.20938937 0.036416356 -0.1976068 0.17710705 0.0033573147 0.38508558 0.43723035
0.41244465 -0.14611259 0.69101655 0.5420394 1.0423768 0.32192805 -0.06927887 0.44839102
-0.32871908 1.00214 0.42927435 0.18937716 0.7879741 0.328205 -0.2484717 0.41807857
0.28075933 -0.340527 0.16377647 0.3441501 -0.045236662 -0.08385189 -0.24722508 0.12597069
-0.15652542 -0.06654788 -0.28846708 -0.42182556 0.7006143 -0.1872577 0.29682612 0.12177479
0.09232524 -0.09533899 -0.032743763 -0.45660612 -0.15576738 0.01339499 -0.16182618 0.1726662
0.20354395 -0.6836012 0.10977652 -0.23162122 -1.1983147 0.1366456 -0.61310846 0.19042799
-0.175429 -0.5736669 0.28843954 -0.2152798 -0.30640814 0.06419204 0.13475253 0.5849608
-0.1941356 -0.68972164 -0.08157665 0.06439983 -0.782435 0.8167441 0.2241727 0.032389387
0.14305748 0.019875314 -0.27215263 0.35235268 0.09980746 -0.49991423 -0.11834773 0.15825167
0.09486242 0.31085464 -0.4530633 0.19023508 0.326661 -0.6986754 -0.48964587 -0.0685484
-0.01069071 -0.05197341 0.43688273 0.31296006 0.56405 0.050617542 -0.05333991 0.17942926
-0.012842316 0.008342627 -0.16443971 -0.01963403 -0.22786337 -0.0063925465 0.066943936 7.563906e-05
-0.06568942 0.6967974 0.4152237 0.0319776 -0.8125929 0.009261717 0.1217496 -0.27522954

arith.constant58 f4 [1, 3, 3, 16]
00000000: f38b acbc a143 babe 6164 92be 4617 e03d
00000010: fe5d 6abe 8985 ad3f c1a0 8abe 399b 883f
00000020: 48a8 303e 3ab8 6f3e 24eb 90bd b0f8 0fbf
00000030: 038d 1d3f 75ec d63e f41d a93e b0e2 8b3d
00000040: 9f9e ce3d e5f6 45be 26bb a9be 9c9a debe
00000050: 30ba ee3d a3b1 873f 72da 06be f3d3 c13d
00000060: 47f3 283d b0c5 e0bd 9b6f a8bd 1656 9fbe
00000070: 6565 763e 5507 cebb 6e49 c4bd 506a e23e
00000080: 40b8 313e 7259 263f 6243 9a3e 32b6 443e
00000090: c309 99bd 9f8d abbe 5ba7 113e 54e5 553f
000000a0: 699f c6bd c8f5 9abe d2eb a4bb 8d56 8abf
000000b0: 0f29 be3f 59dc 4d3d d185 47be b7ff e1bd
000000c0: 1448 9cbf c8e5 a6be b38d a33d fa92 223e
000000d0: dea6 d4bd fdcb fd3d 555e 423d 5efc 40bf
000000e0: 6a42 a63e d1a5 363f 5001 423d f5b3 efbe
000000f0: 0809 c2be f3e2 013f 268d 773e 0054 3a3e
00000100: 2aed ff3d 453d 3d3f f915 0ebc 75f2 0a3f
00000110: fd82 58be 750a 82be 1925 e33d 4d49 cc3d
00000120: cf07 e1bd f34e 92be e69d c73e 5a28 44bf
00000130: 1766 22bf f763 4dbe 9753 05c0 97d0 0c3e
00000140: 27c7 fd3e 3da0 c53e a77c d93b 19bb bb3d
00000150: 5c9a 06be fcb1 e0be 68ce d4bd 54ef 30be
00000160: ac0f 7abe d1af eb3c 673e 3f3e 9f9b 80bf
00000170: 19e3 5dc0 a56d 063f 599a 67bf 673d f5be
00000180: e233 c03f 11f6 68bf 744f fa3e 0d19 343e
00000190: 16aa 2d3f 1fa4 513f 5817 5a3f 1685 3ac0
000001a0: a435 bb3d 6878 293f 8243 4f3d 7f79 2e3f
000001b0: f7f7 73bf 6fd4 aa3f b1d4 cb3f 19cf 943c
000001c0: 249a 843e 6d86 d5be ce70 af3f 1846 f93e
000001d0: 5289 f13e c8da bb3f 42b6 3d3f 6e04 4cbf
000001e0: 6144 b13e 2a13 01bf 82cf 413f 1b6e 3b3f
000001f0: a5c1 cf3f 039d 12bd 0263 bdbe e2e7 f33e
00000200: 28d5 7bbe 13d8 97bf ecf3 663f d894 d0bd
00000210: c515 823f f50e 053e 4845 023e b973 c4bf
00000220: 5fce 843f 2f0b 92be 9f4c 973d c5da cc3f
00000230: 6982 dd3f 9ebc a8bd d0e3 69c0 f180 a9bf
-0.021062827 -0.36379722 -0.28592208 0.10941939 -0.22887418 1.3556377 -0.2707577 1.067237
0.17251694 0.2341012 -0.070760995 -0.5623884 0.6154329 0.41977277 0.33030665 0.068303466
0.10088848 -0.19332464 -0.33150595 -0.43477333 0.11656606 1.0601085 -0.13169268 0.09464254
0.041247632 -0.10975206 -0.08224412 -0.31120366 0.24062116 -0.006287495 -0.09584318 0.44221735
0.17355442 0.6498023 0.30129534 0.19210127 -0.07472565 -0.33506486 0.14223997 0.8355305
-0.09698374 -0.3026564 -0.005032995 -1.0807663 1.485628 0.050258968 -0.1948464 -0.11035102
-1.2209496 -0.32597184 0.07986011 0.1587638 -0.1038339 0.12392423 0.047453243 -0.7538508
0.32472545 0.71346766 0.047364533 -0.46816984 -0.37897515 0.5073692 0.24174938 0.18196106
0.12496407 0.73921615 -0.008672231 0.5427621 -0.21143718 -0.25398603 0.1109106 0.099749185
-0.109878175 -0.28575858 0.38987654 -0.7662407 -0.63437027 -0.20057665 -2.083227 0.13751446
0.49566004 0.38598815 0.006637174 0.091665454 -0.13144821 -0.4388579 -0.10390931 -0.17278796
-0.24420041 0.02877036 0.18676148 -1.0047492 -3.466986 0.52511054 -0.9046989 -0.4789841
1.5015833 -0.9100047 0.48888743 0.17587681 0.67837656 0.81891054 0.8519187 -2.914373
0.091410905 0.6619935 0.05060149 0.6815414 -0.9530024 1.334608 1.5924283 0.018165158
0.2589885 -0.4170412 1.37063 0.4868629 0.4717508 1.4676142 0.7410623 -0.7969426
0.3462248 -0.5041987 0.75707257 0.7321488 1.6230971 -0.03579427 -0.369896 0.4763785
-0.24593031 -1.1862816 0.90215945 -0.1018464 1.0162894 0.12993987 0.12721741 -1.5347816
1.037548 -0.28524157 0.07387661 1.6004263 1.7305423 -0.08239101 -3.6545296 -1.3242475

arith.constant59 f4 [8, 1, 1, 16]
00000000: fe3d 74be d1d4 c2be 0cd9 91bc 06dd d33d
00000010: 815c 2cbe 7a53 933e 38e3 17bd ced8 893e
00000020: 934d 503e c8be 583e 4880 303d 9205 de3e
00000030: f8d4 41be e158 febd 323f d73e 1364 983e
00000040: 7d38 29be 8c46 1f3e c3eb 163d cfd8 cf3c
00000050: 7032 babe 38da 713e 857d a7bd c798 7fbe
00000060: 7d4f 9cbd b806 c53c eb8f 66bb a6c6 1f3e
00000070: 7043 e73d 1ea5 133f 88a1 bdbe 534a f9bd
00000080: 398c e73d 0550 903d c340 0ebd 796f 1a3d
00000090: 9c0a a33e 5cfb 40be 3336 1c3e 3091 f7bd
000000a0: 124d 9a3d 9a19 8e3e 663e 40be a89c 883e
000000b0: 127e 0c3d 0ef7 d03d 8153 c63c b181 6b3e
000000c0: fd69 a23e de17 ac3d 794f 883e 6c65 f3be
000000d0: 8585 db3d ca02 acbd c4bb f3be 9037 91be
000000e0: e22a 333e 1cac 14be 290f c5bd 7d6b 2a3d
000000f0: 8edd 463e e5f4 97be b42f 123e 19d8 48be
00000100: 0f1e c73e 1b15 db3d 0e1e bb3d 5049 573e
00000110: 4f5e 383e fb4f 1abe 0c0d 61bc 19b5 b73e
00000120: 350e afbe 689b 8ebe 4953 233c 7275 3f3a
00000130: bd72 673e 0c21 083d 24d2 943e a371 8abc
00000140: df33 7e3e d736 ddbe f260 2b3d 4479 d23d
00000150: e36a a03e 9b8e 233e 72bb 953d 6e5a a0bd
00000160: b79c df3e 53e5 513d 527e 03bf cbfb 063e
00000170: 48f0 cb3e d8e3 0f3f e305 64be 88c3 6ebe
00000180: 19f4 8fbe fb3b bf3d 636c aa3d 8b09 92be
00000190: b963 41be ad8a 4d3e bca6 f5bd d370 113e
000001a0: e3fd 173b d91b bb3d e62f b2be 6dda dabe
000001b0: 45ac adbe de51 ea3c 99e6 62bd 3197 a33d
000001c0: 05cc 313d ba9d b4bd 6463 39bd 317a 213e
000001d0: 53e2 34bc e526 ae3e c409 da3d caf0 09be
000001e0: 0207 863e 8797 073e 7840 423e 9c4b 9abe
000001f0: b884 203c e499 563c 15d5 5e3c 8b8d 35bd
-0.23851773 -0.3805299 -0.017803691 0.10344891 -0.16832162 0.28774625 -0.037081927 0.2692322
0.20342092 0.21166527 0.04309109 0.43363625 -0.18928897 -0.12419296 0.42040402 0.2976385
-0.16525455 0.15554255 0.036845934 0.025371937 -0.36366606 0.236184 -0.08178238 -0.24960624
-0.07632349 0.024051055 -0.0035180997 0.15603122 0.112921596 0.57673824 -0.370373 -0.12172379
0.11306042 0.070465125 -0.03472973 0.037703965 0.31844032 -0.18845886 0.1525505 -0.12088239
0.07534231 0.27753907 -0.18773803 0.2668202 0.034299918 0.10203372 0.02420974 0.22998692
0.31721488 0.0840299 0.26623133 -0.47538316 0.10718826 -0.083989695 -0.4760419 -0.28362703
0.17496827 -0.1451878 -0.09622032 0.041606415 0.19420454 -0.29679027 0.1427601 -0.19613685
0.3889012 0.10697385 0.09136592 0.2102406 0.18004726 -0.15069573 -0.013736021 0.35880354
-0.34190527 -0.2785294 0.009968587 0.00073035725 0.22602363 0.03323464 0.29066575 -0.01689989
0.24824475 -0.43205902 0.0418405 0.10277036 0.31331548 0.15972368 0.07311143 -0.07829748
0.4367425 0.05124409 -0.51364625 0.13181989 0.39831758 0.56207037 -0.2226787 -0.23316777
-0.2811592 0.09337612 0.083214544 -0.28522906 -0.18885697 0.20072432 -0.11994693 0.14203195
0.00231921 0.09136171 -0.3480217 -0.4274477 -0.33920494 0.02860349 -0.055395696 0.07987822
0.04340746 -0.088191465 -0.045260802 0.15769269 -0.011040288 0.3401405 0.10646394 -0.1347076
0.26177222 0.13241397 0.18969905 -0.3013581 0.009797268 0.013098214 0.013600607 -0.04432444

arith.constant60 f4 [16, 1, 1, 8]
00000000: 6630 d2bd c862 523c 79d4 5dbf fdad 70be
00000010: 3344 893e 07a9 1b3f 767a 183e ec16 b6be
00000020: ff55 133e df8d 433c 4853 383e 96a6 0d3e
00000030: 7854 9fbb d319 1fbe becf 983e 1c32 5f3e
00000040: b4f0 313e 958a 6b3e c905 883e 9811 253d
00000050: d8f8 d43e 7307 87be 069d 3dbe 4bf0 6e3f
00000060: ca74 65bf 8702 5ebf 7cc3 bbbe ea75 58bf
00000070: 8237 5a3f b7cf 6ebf 92e9 533e 5916 f63e
00000080: 21a7 b9bf 003a 543f 3dbb 6c3f 961d 9a3e
00000090: bb52 1340 b360 3dbf 913a 193f 264c aebe
000000a0: 95b2 a13e ceee c33c 8840 333e 6354 4d3f
000000b0: 1428 8ebe 9598 1fbd 31ff 633d ca11 9d3e
000000c0: c946 623e 278d 38bf 1039 f7be 2c0b aabe
000000d0: 4656 31be a60b 89be 7aa6 613f c1b6 753d
000000e0: b07d 27be 95c3 b93e b2ed 86be 0b30 d9bd
000000f0: a488 53be 319f 1abe a224 883e fa45 42be
00000100: 6171 dc3d 187b 33bf b87e 643f e4fd a4be
00000110: e1a9 00bd 1527 853f 8907 a5be d772 0cbe
00000120: 62d8 593e 05c1 5fbe 899e 633e 75e8 2a3f
00000130: d7a6 0cbe 7373 47be ab74 b33e f235 0a3f
00000140: 2da5 0bbe f2cc dbbe 4e6d 1bbf 9a3f ffbc
00000150: 7be0 7f3e fa75 cbbe 68aa 0abf 3eb9 343e
00000160: f1b1 473f 1d1f 2f3e 09a4 ee3e 263b 1abe
00000170: f96f b63e fea2 a6bd 33a4 8e3e 1420 53be
00000180: 949c 19bf 7f58 073f 65f2 07bf 248c 38be
00000190: ca78 ccbe 629c 31be 4bee 75bf b9af 32be
000001a0: b5b4 40bf 28db 9dbe 9659 363e c1e8 6b3d
000001b0: 7356 02be 5fa4 82be 3b0d 093e dd8c 0b3d
000001c0: 5044 993e 4ef4 f13e c10e 303f e3c0 0abd
000001d0: 2a60 bebf 5623 b73f cb52 bc3e 9fab 4c3f
000001e0: bb5c 37bc 4574 f5be 0599 743e d4a5 37bf
000001f0: 9d33 18bd 5366 ffbe c57d 653e e0ba 573f
-0.102631375 0.012840934 -0.8665233 -0.23503871 0.26809844 0.6080479 0.14890465 -0.35564363
0.14388274 0.01193568 0.1800052 0.13833079 -0.0048623644 -0.15537195 0.29845995 0.21796459
0.17376977 0.23002084 0.26566914 0.04029998 0.41596103 -0.2637287 -0.18516931 0.9333541
-0.8963133 -0.86722606 -0.3667258 -0.8455492 0.8524095 -0.932857 0.20694569 0.48063925
-1.4504129 0.82901 0.924732 0.30100697 2.3019245 -0.73975676 0.5985499 -0.34042472
0.3158156 0.023917582 0.17505085 0.8020689 -0.27764952 -0.038963873 0.05566329 0.30677634
0.22097315 -0.7209038 -0.48285723 -0.33211648 -0.17318067 -0.267667 0.8814465 0.05998874
-0.1635654 0.3628203 -0.26353222 -0.106048666 -0.20657593 -0.15099789 0.2659045 -0.18972006
0.10763813 -0.701097 0.8925586 -0.32224953 -0.03141201 1.0402552 -0.3223231 -0.13715683
0.2127395 -0.21850975 0.22228445 0.6676095 -0.1373552 -0.19477634 0.35049948 0.53988564
-0.13637228 -0.42929798 -0.6071366 -0.031158257 0.24987976 -0.39738446 -0.5416627 0.1764879
0.7800589 0.17101713 0.46609524 -0.15061626 0.35632303 -0.08136557 0.2785965 -0.20617706
-0.60004544 0.5286941 -0.5310424 -0.1802221 -0.39935905 -0.17344812 -0.9606673 -0.17449845
-0.7527574 -0.30831265 0.17807612 0.05759502 -0.1272829 -0.2551603 0.13383953 0.034069885
0.2993493 0.47256702 0.6877251 -0.033875357 -1.4873097 1.4307659 0.36781916 0.79949373
-0.011191542 -0.4794027 0.23886497 -0.7173741 -0.037158597 -0.49882755 0.22411259 0.84269524

arith.constant61 f4 [1, 3, 3, 16]
00000000: ef41 2abe a112 0240 f5a0 33be b4d8 753e
00000010: 79ea 58bd 6c61 6d3f e763 9e3e 2eba 873c
00000020: fba4 f23d 51d4 04c0 88a4 a73c 8fd1 ecbf
00000030: 90b0 153e 4b40 a63e 587b 143e 88c6 0fbf
00000040: 0db6 05be a931 ba3f 0226 90bf 5650 e33d
00000050: 2504 e1bd 58cd 633f 09dc 3cbd 240f 4a3e
00000060: 444e 903c 4ff8 04bf f2be b0bd 159b cabe
00000070: 8c39 6b3e 6b4e cbbc e44d 4a3e 077a 813f
00000080: 5177 6bbe 2761 a43f b1c6 823e 2b9c 94bd
00000090: 35c1 6bbd e3fd 0b40 3755 303e 0706 4dbe
000000a0: b625 453e 750e ebbe 6470 0c3d 23db f2be
000000b0: 0e3b d13d 4145 043f 82e4 773e a71f 35bf
000000c0: 274a dfbb 2b32 ed3e 6fba c5be 1794 323e
000000d0: 9a92 17be 49c3 9bbf 97a4 1b3f 47a5 793d
000000e0: 1b75 30be f24c 0740 1c6b 33bf c8b6 09bd
000000f0: 665b 1a3e e9f4 9e3e f172 a7be 57f1 d73e
00000100: 78d4 893d 8480 9b3e 72c0 89be 38ac a53c
00000110: 4fe4 c2bd d00c 4ebe b369 9c3d 3317 9f3d
00000120: 356c 2e3e f1bc df3f 88ce 6fbe 0675 43bd
00000130: 8b7d 0b3e 4057 283e 241d 17bd 3b0c a63f
00000140: 9f2f c0be 33e5 6abe 775f ae3e c329 31bb
00000150: e416 bdbd 7f47 463d d05d 073e 9e7d 73bd
00000160: 8200 e53d 9ced 5440 8478 10bd f24a 3c3e
00000170: 20fe c13d 579d 183f f6d3 15be f73c 623d
00000180: a53e 56bf 1f61 2fc0 d568 b5bd 0a02 0c3f
00000190: d880 38be c386 3b40 9905 9f3f c16f d63f
000001a0: 6f8b ab3e cc42 4bbf 0a0a 74bf f23b e1be
000001b0: 41de c73e db3c 733f c1e4 153f 0614 f6bc
000001c0: 5ea0 37bf a7fb 15bf 2c7d 79bf 3a0a ccbd
000001d0: a039 35be 0bf3 0d40 aecb 343e 5923 d03e
000001e0: d74e 843e c50f 08c0 479c 7fbe fe95 713e
000001f0: fdea 093e 79a5 613f 0f8f d63e 27fd e93f
00000200: f41e 9bbf a33a 3bbf 4ba2 823f f9f0 ef3e
00000210: 4590 7dbe 7889 8340 7b87 953f c20d 573e
00000220: f808 f63e 53f4 17bf 1857 383e 3a0c ea3e
00000230: c309 423e 6d85 c93f acec 093f d8b4 0dc0
-0.16626714 2.032387 -0.17541869 0.24008447 -0.052957986 0.9272678 0.30935594 0.01656827
0.11847874 -2.0754588 0.020464197 -1.8501452 0.14618134 0.32470927 0.14500177 -0.5616231
-0.13057728 1.4546405 -1.1261599 0.11099307 -0.10987119 0.88985205 -0.04610828 0.19732338
0.017615445 -0.5194139 -0.0863017 -0.39571443 0.22971171 -0.024817666 0.19756275 1.0115365
-0.22994734 1.2842149 0.25542215 -0.07256349 -0.057557303 2.187371 0.17220007 -0.2002183
0.19252667 -0.45909467 0.03428687 -0.47432813 0.10216342 0.51668173 0.24208263 -0.7075142
-0.0068142596 0.46327338 -0.386188 0.17439304 -0.14802018 -1.2168971 0.6079802 0.060948636
-0.17232172 2.1140714 -0.7008531 -0.03362158 0.15073928 0.31046227 -0.3270488 0.42176315
0.06729978 0.30371487 -0.26904637 0.020223722 -0.09516203 -0.20122075 0.07637348 0.07768097
0.17033465 1.7479535 -0.23418629 -0.047719024 0.1362211 0.16439533 -0.036893025 1.2972482
-0.37536332 -0.22938995 0.3405721 -0.0027032949 -0.09232882 0.048408028 0.1321938 -0.05944597
0.111817375 3.3270025 -0.035271183 0.18387964 0.094722986 0.5961508 -0.14631638 0.05523392
-0.8368934 -2.7403028 -0.08857886 0.5469061 -0.180179 2.9301002 1.2423583 1.6752855
0.33504817 -0.793988 -0.9532782 -0.43991047 0.39036754 0.95014733 0.58552176 -0.030038845
-0.71729076 -0.58587116 -0.9745662 -0.09962888 -0.17697763 2.2179592 0.17655823 0.40651968
0.258414 -2.1259625 -0.24961959 0.23592374 0.13468547 0.88143116 0.4190602 1.8280381
-1.2118821 -0.7313635 1.0205778 0.46863535 -0.24762066 4.110531 1.168197 0.21001342
0.48053718 -0.59357184 0.18001974 0.45712453 0.18949036 1.5743843 0.5387676 -2.2141628

arith.constant62 f4 [8, 1, 1, 16]
00000000: cc86 0fbe 1673 fd3e d8c9 d33d 2327 763b
00000010: 733d b03f ebfd 313e e63c 36bf 78b8 1fbf
00000020: f3bd b23c a6da 193e 6d60 87be c124 103f
00000030: dbf8 6b3f 72b7 84be acaf e33c cd04 6e3e
00000040: 5a14 393f 9275 6d3d 9022 07bf f7ce 8cbe
00000050: a074 edbe 11b8 d13d 799d af3d 88ad 9f3d
00000060: 245c e63d d0b4 813e f25b 123f eeef b23e
00000070: a582 e4be a9ce 063f f649 6c3e b974 67be
00000080: 94ee 203f 9239 a2be 12ea 16bf 8dbf bf3e
00000090: e84b bbbe ebc0 c3be f904 0ebe a659 53bc
000000a0: 6506 3ebe 2c4a 7fbe 12af d93e d965 65be
000000b0: e50c 813e 4066 6f3e 9197 9dbd f324 78bd
000000c0: 1425 46be e7c1 f83d 8995 043e 1a19 f6bc
000000d0: 6e59 b03e 3eb3 ddbd 7f71 0bbf a427 babd
000000e0: 85ea a83d cb9c 5f3e 27b7 3a3e 89c3 073e
000000f0: 9ee1 963e c996 bebd 2b0e a3be 992b 9f3e
00000100: 0ec7 893e 5577 2fbe 9fb7 0dbe c875 acbe
00000110: 40e0 a03d 5158 f23e 61ab 9fbe 39bd dabe
00000120: 2057 9fbb b784 8f3e c4cd 1a3f c5f2 51be
00000130: 0af9 a03d 4f50 efbd 0b15 d1be d077 123e
00000140: a37a 853e 1ae9 acbe 41e0 073e b9b9 fbbe
00000150: 86c2 c33d f84b 0f3f 6652 353e b4d3 b53d
00000160: 8033 9d3e 4492 dcbe c33a a5be 0638 58be
00000170: 524d e4be d810 45be 26a2 a8be 199a 003f
00000180: bdea 01bb 9ed7 8fbe 46d0 d93e d72a 313e
00000190: a6ce c4be c0a7 cb3e 02b0 25be e7fc 443e
000001a0: 0419 773e 652d fdbc d75f b1be ea7e 74be
000001b0: e56c c4be 4db9 86be 7efc 5d3f ae3c cbbe
000001c0: ad8a 2cbe 45bd 10be 5c6a 233d 45f8 7f3d
000001d0: e084 dfbc 8da9 a13e 0c18 36bd faea a6bd
000001e0: a541 03bf ab03 1a3e f3b2 f33d d4ee 003e
000001f0: 4097 61be 2374 4d3e 754a e4bb 5516 5b3c
-0.14016265 0.49501866 0.10341233 0.0037559948 1.3768753 0.17382018 -0.71186674 -0.6239085
0.02181909 0.15024814 -0.26440755 0.5630608 0.921766 -0.25921208 0.027793728 0.23244019
0.7229668 0.057973452 -0.52787113 -0.27501652 -0.4637804 0.10240186 0.085749574 0.0779677
0.11248043 0.2533326 0.5717155 0.34948677 -0.44630924 0.5265909 0.23075089 -0.2260312
0.6286404 -0.31684548 -0.5895091 0.3745083 -0.3658135 -0.38233122 -0.13869084 -0.012899792
-0.18557127 -0.24930638 0.4251638 -0.22402133 0.2520515 0.23378849 -0.076949246 -0.060582113
-0.19350082 0.12146359 0.12947668 -0.030041266 0.3444323 -0.10825203 -0.54470056 -0.09089592
0.08247856 0.21837156 0.1823393 0.13258184 0.29469007 -0.09306104 -0.31846747 0.3108795
0.2690968 -0.17135365 -0.13839577 -0.3368361 0.07855272 0.47333005 -0.3118544 -0.4272249
-0.004862681 0.2803094 0.60470223 -0.20502765 0.078600004 -0.116852395 -0.40836367 0.14303517
0.26070127 -0.33771592 0.1326914 -0.49165133 0.09558587 0.55975294 0.17707214 0.0887827
0.30703354 -0.43080342 -0.32271394 -0.21115121 -0.4459024 -0.19244707 -0.3293621 0.50235134
-0.0019823753 -0.2809419 0.42541713 0.17301498 -0.3843891 0.3977642 -0.16180423 0.192371
0.24130636 -0.030905435 -0.34643432 -0.23876539 -0.3836433 -0.26313248 0.867134 -0.39694732
-0.16849776 -0.141347 0.039896354 0.062492628 -0.02728504 0.3157467 -0.044456527 -0.08150287
-0.5127204 0.15040462 0.11899366 0.12591106 -0.22030354 0.20063834 -0.006966884 0.013372024

arith.constant63 f4 [16, 1, 1, 16]
00000000: 19e9 693e be83 743e cf43 763e b7f8 dc3d
00000010: e3f8 50be 23cf b83d eba9 c53d 427e 7abe
00000020: 03a5 5d3e 3d53 e5bd fcd2 863d ddc6 03be
00000030: 37bd 5fbc 3478 0d3e d3c7 63be f06e 603e
00000040: eebf 063e a3cb 223e 97c7 15be a1cd 3e3d
00000050: 02e6 0a3d cbf9 b93d 0e57 723e c7f0 75bd
00000060: 761e e13c 2451 ab3d 84a0 1f3d 2437 363e
00000070: 81ee 393e a035 ff3d 38b6 dcbd 426d 8c3d
00000080: 0c4e 06bd 658c bf3d 59cc 3fbe 7382 ebbb
00000090: 10a3 9ebd 18ab dcbd 07a9 01be 2d07 10be
000000a0: f6d1 6e3e 85ef 8dbd 3ad6 613e e31f 213e
000000b0: ad07 e43d c086 31be 8530 5e3e a0ce a9bd
000000c0: b01a c43c 972b 203e 059b cbbd 2100 643e
000000d0: 109d 6e3e c5c5 1cbe 3c39 323e 0000 62be
000000e0: dfff 583e 608d 253e 5479 19be 0db7 4a3d
000000f0: 71d5 703d 1242 5a3e 48da 2a3b 98f7 103d
00000100: c01c 373e 863f 2f3e b6d7 743e 60db 5c3d
00000110: 5387 2d3e 998e 273e 3a87 783e 1ed5 79be
00000120: 8514 84bc 895e d7bd 8f3d 5d3e c330 2d3e
00000130: eee1 053e d49f 863b 3b62 a1bd 314b 263d
00000140: 33d9 f7bd 2ed7 bbbd 1636 19bd 9a67 fb3d
00000150: 4439 313e 73d1 6a3c 221c 0d3e 0802 053e
00000160: 6ff6 5c3d e603 7abd 030f 08bd ff20 3a3e
00000170: d45b 66bd 1597 fb3d 9bb3 63be 0856 db3d
00000180: 8248 edbd 5ca5 9fbc 240c 863d 3fc8 65be
00000190: 1618 c83d 70a9 86bd df33 943c cab2 18be
000001a0: 3b7c a23d a25b ca3d f1d8 ccbd a5ee 81bc
000001b0: cc53 933d 2df7 ccbc a6b1 d6bd 8393 aebd
000001c0: 35e6 4abd 21f7 e43d 86a1 17be 018f 8fbd
000001d0: d4b4 b6bd 90fe 35be 848d 4e3e 4d71 15be
000001e0: 4cb0 9dbb f73e 2d3e 7fdc d0bd b7fb ac3d
000001f0: 9706 2f3e 5253 50be 9dbd 1cbd e922 6a3e
00000200: b6ba 793d d6f9 f93d 8b9e 39be 829c 06be
00000210: 0a62 243e cf02 1abe f47f 603e 2396 4dbe
00000220: ddb2 3fbe 26d7 7e3e 1609 48be d3dc b83c
00000230: e226 3d3e 56ba b1bd c6f2 423e 0d37 7c3c
00000240: ea38 243e dbb2 ae3d 1f0c 39be 2c26 1d3c
00000250: 5e5e e13d 8685 b1bb 8410 3dbe e4db 163e
00000260: 0aed 73be 61e4 8dbd d731 773e 3c67 cebc
00000270: 0f48 0fbe 8479 4fbe 61f6 7d3e c8e1 06be
00000280: 3e0c 1e3e cf7a 76bd 34cc 863c aa3b 2bbe
00000290: a19c 10bd dd26 03bd d813 383e 413e 16be
000002a0: ed6e 7d3e d2a1 31be 9f6e 63be 777f 713e
000002b0: 0842 00be 3e2f 133e 05bc fd3d 3095 003e
000002c0: 9657 12be 4f38 7dbe 35a8 a7bd 6f3f 763d
000002d0: 0fd6 2dbd d4f4 66bc 3b10 28be 2f40 14be
000002e0: 5548 163e ad0c fd3d fff5 70be 34a1 66be
000002f0: a416 4ebd 60e5 c2bc 3beb 4abe 7ac2 eebd
00000300: 3755 473e 8930 283c c7af adbb 2e05 67be
00000310: 0db4 f0bd e141 213e 4f3b 4bbe aaf5 11be
00000320: 69ad 0e3d d0aa 1e3e 22a7 803d 47dd ddbd
00000330: 1e83 603d 9a76 d43c b75b ddbb c82f abbc
00000340: 84c0 9fbd c719 473e 919b cbbd 7086 353e
00000350: 85fd 4c3d 8b1a d1bc bb4f 2d3e bcf3 123e
00000360: 8824 11bd 0985 3f3e ba18 a5bc 8d4f c1bd
00000370: d142 8ebd 28b1 f4bd 6aee 553d 6ecd bb3d
00000380: 7a99 553d 95c1 90bd 8d4c 7ebd 2a5d 0dbd
00000390: b22e 6dbe 8719 0e3e 51de 523e 718f 2e3e
000003a0: 7ca0 4e3c 77ef a23d ca30 233d 5527 63be
000003b0: 6cbd 6dbe 70fd ab3d 9975 45be 2ebd 353e
000003c0: ba1c 3c3e 797d 263d 931d 0ebe 1e13 60bd
000003d0: 8fa4 593e 7f97 163e 534b 6a3c d85f 313e
000003e0: e57f 7cbd 3f3a 45bc b70b 393e 2408 683e
000003f0: 4b58 d1bc c78a 14bd c59f 073e 1cdc 9ebd
0.22842826 0.2387838 0.24049304 0.10789626 -0.20407443 0.09023883 0.0965155 -0.24462226
0.21644978 -0.11197517 0.06583211 -0.12868829 -0.013655952 0.13815385 -0.22244196 0.2191732
0.13159153 0.15897994 -0.14626919 0.04658282 0.03391076 0.09080847 0.23666021 -0.060044076
0.027480345 0.08365086 0.03897144 0.17794472 0.18157388 0.124614 -0.10776943 0.06856777
-0.032789275 0.0935295 -0.18730296 -0.0071871816 -0.077459455 -0.10774821 -0.12662135 -0.14065237
0.23322281 -0.0693045 0.22054377 0.1573482 0.111342765 -0.1733656 0.21698196 -0.08291364
0.023938507 0.15641628 -0.09941677 0.22265674 0.23302102 -0.15309818 0.17404646 -0.22070312
0.21191357 0.16167212 -0.1498769 0.049490977 0.058797304 0.21314266 0.0026070047 0.035392374
0.17882061 0.17114076 0.23910412 0.05392015 0.16946153 0.1636299 0.24270335 -0.24397704
-0.016123066 -0.10516078 0.21605514 0.16913132 0.13074467 0.0041084085 -0.07880064 0.040599052
-0.12101974 -0.09171902 -0.037405096 0.1227562 0.17307001 0.014332163 0.13780263 0.12989056
0.053945955 -0.061038874 -0.03321744 0.1817665 -0.056239918 0.12284676 -0.22236483 0.107097685
-0.115860954 -0.01948803 0.065452844 -0.22439669 0.09770219 -0.065752864 0.01809114 -0.14911953
0.07933851 0.09880759 -0.10002316 -0.015860865 0.07193717 -0.025020206 -0.104831025 -0.085242294
-0.04953595 0.111799486 -0.1480771 -0.07009698 -0.08921209 -0.17772889 0.20171171 -0.14594002
-0.004812276 0.1691855 -0.10198306 0.08446448 0.17092358 -0.20344284 -0.038266767 0.2286488
0.060969077 0.122058555 -0.18126886 -0.1314564 0.16053024 -0.15040134 0.2192381 -0.20076804
-0.18720575 0.2488676 -0.19534716 0.022566235 0.18471864 -0.08678119 0.19037923 0.0153939845
0.16037336 0.08530208 -0.1807103 0.00959162 0.11004327 -0.0054175286 -0.18463331 0.14732319
-0.23820892 -0.069283254 0.24140106 -0.02519571 -0.13992332 -0.20261198 0.24801017 -0.13172066
0.15434358 -0.060175713 0.016454794 -0.16721979 -0.035305623 -0.032019485 0.1797632 -0.14672185
0.24749346 -0.17346886 -0.22210167 0.2358378 -0.12525189 0.1437349 0.123893775 0.1255691
-0.14291224 -0.24728511 -0.0818638 0.06011909 -0.04244047 -0.0140964575 -0.16412441 -0.14477609
0.1467603 0.12355933 -0.2353134 -0.22522432 -0.05031456 -0.023791015 -0.19816296 -0.11658187
0.194661 0.010265478 -0.0053004953 -0.2256057 -0.11753092 0.15747787 -0.19846843 -0.1425387
0.034833346 0.15494847 0.06281878 -0.10833221 0.054812543 0.02593546 -0.006755318 -0.020896807
-0.07800391 0.19443427 -0.09941781 0.17727065 0.050046463 -0.025525352 0.16924946 0.1435079
-0.03543523 0.18703093 -0.020153392 -0.09439001 -0.06946338 -0.119478524 0.052229322 0.09170042
0.05214832 -0.07068173 -0.062084723 -0.034512676 -0.23162344 0.13876925 0.2059262 0.17046906
0.012611505 0.079558305 0.03984145 -0.22182973 -0.2321679 0.08397949 -0.19283141 0.17747948
0.18370333 0.040647004 -0.13878469 -0.05470573 0.2125418 0.14706229 0.014300185 0.17321718
-0.061645407 -0.012037813 0.18070875 0.22659355 -0.025554797 -0.03626516 0.13244541 -0.07756826

arith.constant64 f4 [1, 3, 1, 16]
00000000: d7aa 8e3e aa8b 9e3d 0222 963e 204f 0fbe
00000010: eb21 a13e 05d0 b6be c268 b63e 76bf f33e
00000020: 5525 03bf 7d51 003f 2625 80be 8606 8cbd
00000030: e3a6 e3bc 8cbb 803e 3b86 43be 2b1b 96be
00000040: 6bdc a83e c353 ed3e 8023 903d c16e 8d3c
00000050: d0d6 abbe 35e8 373e e5cd c63d 8d8d 01bf
00000060: d575 413e d48f f43e d335 94bd da53 9dbe
00000070: 133e bfbe 7618 423e 75d8 b63e 2341 a63e
00000080: 51b0 bdbe 6b97 8b3d b0ed a1be 8736 bb3e
00000090: 67e8 003f 99aa 6a3e 4c00 9ebe 70db b0bc
000000a0: 93a7 5e3e 8ddc c73e 34ff 95be b011 f03e
000000b0: 89e3 81be e9e2 f9be ee74 edbe 905e f83e
0.27864715 0.077414826 0.2932282 -0.13995028 0.3147119 -0.3570558 0.356268 0.4760701
-0.5122884 0.5012434 -0.25028342 -0.06837182 -0.027789539 0.25143087 -0.19094174 -0.29317603
0.32980666 0.46352968 0.07038021 0.017264726 -0.33562326 0.17959674 0.0970724 -0.50606614
0.18892606 0.47765982 -0.07236829 -0.30728036 -0.37352046 0.18954644 0.3571202 0.3247157
-0.3704858 0.0681599 -0.31626654 0.3656504 0.5035462 0.2291664 -0.30859601 -0.021589011
0.21743612 0.39035454 -0.29296267 0.46888494 -0.25368908 -0.4880593 -0.46378273 0.48509645
