gtcrn_micro/models/tflite/gtcrn_micro_float16.tflite (tflite, 172716 bytes, 101 tensors)

arith.constant2 f2 [16]
0	0xb55f	-0.3357
1	0x33bc	0.2417
2	0x9cbb	-0.00462
3	0x34b7	0.2947
4	0x3cd5	1.208
5	0x2e6e	0.10046
6	0xc2f8	-3.484
7	0xb6cd	-0.425
8	0xb148	-0.165
9	0x2933	0.04062
10	0xbfc5	-1.942
11	0x30e2	0.1526
12	0xbba6	-0.956
13	0x3867	0.5503
14	0x4254	3.164
15	0xacbb	-0.0739

arith.constant3 f2 [16]
0	0xb778	-0.4668
1	0x3663	0.3992
2	0xb99d	-0.7017
3	0x33cd	0.2438
4	0xb95c	-0.67
5	0x3f3d	1.81
6	0x35fc	0.374
7	0xa74f	-0.02855
8	0x38db	0.607
9	0x3ae3	0.861
10	0xc442	-4.258
11	0x3976	0.6826
12	0x3edd	1.716
13	0xa24d	-0.01231
14	0x3463	0.2742
15	0x39b1	0.7114

arith.constant4 f2 [16]
0	0x3d48	1.32
1	0xa46f	-0.01732
2	0x3610	0.379
3	0xb487	-0.283
4	0x393f	0.656
5	0x3d01	1.251
6	0x3d0f	1.265
7	0x2fc0	0.1211
8	0x2e9e	0.1034
9	0x349d	0.2883
10	0xb4e7	-0.3064
11	0x3839	0.528
12	0xb1fa	-0.1868
13	0x3ef9	1.743
14	0x2de8	0.0923
15	0x3cb6	1.178

arith.constant5 f2 [16]
0	0xb560	-0.336
1	0x3353	0.2289
2	0x37aa	0.479
3	0x3a02	0.751
4	0x3e3f	1.562
5	0x4301	3.502
6	0x3e66	1.6
7	0xb5ab	-0.3542
8	0xbe65	-1.599
9	0x39ae	0.71
10	0x40ee	2.465
11	0x39fc	0.748
12	0x337a	0.2336
13	0x38f4	0.619
14	0xb5e8	-0.3691
15	0x3888	0.5664

arith.constant27 f2 [16]
0	0x3829	0.52
1	0x3517	0.318
2	0x35bc	0.3584
3	0x3697	0.4119
4	0x353a	0.3267
5	0x3801	0.5005
6	0x35bc	0.3584
7	0x38d3	0.603
8	0x375a	0.4595
9	0x35f5	0.3723
10	0x35b3	0.3562
11	0x39b0	0.711
12	0x3892	0.5713
13	0x3622	0.3833
14	0x3620	0.3828
15	0x350c	0.3154

arith.constant30 f2 [16]
0	0x33e2	0.2463
1	0x3406	0.2515
2	0x34b9	0.2952
3	0x3620	0.3828
4	0x358f	0.3474
5	0x35e2	0.3677
6	0x34a1	0.2893
7	0x36cc	0.4248
8	0x3750	0.457
9	0x335b	0.2299
10	0x3508	0.3145
11	0x3631	0.387
12	0x35fd	0.3743
13	0x35c3	0.36
14	0x346e	0.2769
15	0x3739	0.4514

arith.constant33 f2 [16]
0	0x382a	0.5205
1	0x3478	0.2793
2	0x3457	0.2712
3	0x32ff	0.2186
4	0x3641	0.3909
5	0x3188	0.1729
6	0x32c7	0.2118
7	0x3439	0.264
8	0x3473	0.278
9	0x34d3	0.3015
10	0x32a2	0.2073
11	0x353f	0.328
12	0x356d	0.339
13	0x36eb	0.4324
14	0x31fb	0.1869
15	0x33c3	0.2426

arith.constant35 f2 [16]
0	0x377d	0.468
1	0x3510	0.3164
2	0x2f4f	0.1142
3	0x3179	0.171
4	0x3032	0.1311
5	0x3118	0.1592
6	0x3495	0.2864
7	0x346a	0.276
8	0x348f	0.285
9	0x3683	0.407
10	0x3504	0.3135
11	0x318f	0.1737
12	0x38aa	0.583
13	0x356d	0.339
14	0x3193	0.1742
15	0x378d	0.472

arith.constant53 f2 [16, 1, 5, 3]
0	0x9af9	-0.003405
1	0xa3ef	-0.015495
2	0x990f	-0.00247
3	0x922b	-0.000753
4	0xad23	-0.08026
5	0xacd3	-0.0754
6	0x98e2	-0.002384
7	0x2620	0.02393
8	0xb23f	-0.1952
9	0x9466	-0.001074
10	0x2ca4	0.0725
11	0xae51	-0.0987
12	0x0cc3	0.0002906
13	0x275a	0.02872
14	0xa813	-0.03183
15	0x9c23	-0.00404
16	0x28d4	0.03772
17	0x29eb	0.04623
18	0x13a2	0.0009317
19	0x1d40	0.005127
20	0x3222	0.1917
21	0x921a	-0.000745
22	0xb1a5	-0.1764
23	0x3178	0.1709
24	0x9675	-0.001576
25	0xb115	-0.1588
26	0x276e	0.02902
27	0x03f7	6.05e-05
28	0xaa59	-0.0496
29	0x15c0	0.001404
30	0x1547	0.001288
31	0x2126	0.010056
32	0x231a	0.01387
33	0xb3e1	-0.2462
34	0x23d0	0.01526
35	0x2700	0.02734
36	0xb0ff	-0.1561
37	0x1c2e	0.00408
38	0x24b1	0.01833
39	0xb302	-0.219
40	0x2784	0.02936
41	0x9e48	-0.006134
42	0xb0cd	-0.15
43	0x14a9	0.001138
44	0x1c18	0.003998
45	0x18fb	0.002432
46	0x10b2	0.000573
47	0x9e1e	-0.005974
48	0x3212	0.1897
49	0x9c0f	-0.003963
50	0x1728	0.001747
51	0xb43d	-0.265
52	0x1c97	0.004482
53	0x958e	-0.001356
54	0xb053	-0.1351
55	0x20fa	0.00972
56	0x1d1d	0.004993
57	0x3110	0.1582
58	0x200b	0.0079
59	0x191e	0.002499
60	0xb015	-0.1276
61	0x18fb	0.002432
62	0x1b94	0.0037
63	0xaf9a	-0.1188
64	0x064a	9.596e-05
65	0x0db2	0.0003476
66	0xa329	-0.013985
67	0x1c37	0.004116
68	0x1fe7	0.007717
69	0x9e21	-0.005985
70	0x1a97	0.003218
71	0x1c98	0.004486
72	0x1c8e	0.004448
73	0x1805	0.001963
74	0x187e	0.002193
75	0x1c98	0.004486
76	0xac9f	-0.0722
77	0xa25c	-0.01242
78	0xa906	-0.03925
79	0x9eae	-0.006523
80	0x9797	-0.001853
81	0x9a8f	-0.003202
82	0xadef	-0.0927
83	0xaa68	-0.05005
84	0x1569	0.001321
85	0x1ae0	0.003357
86	0xa97a	-0.0428
87	0x953e	-0.00128
88	0x991a	-0.002491
89	0xa056	-0.00847
90	0xa20d	-0.01182
91	0x1c26	0.00405
92	0xa696	-0.02573
93	0xa7a9	-0.02992
94	0xa4a9	-0.0182
95	0x237d	0.014626
96	0x1ad2	0.00333
97	0x8a51	-0.0001928
98	0xa68b	-0.02556
99	0x94ff	-0.00122
100	0x1dd7	0.005703
101	0x1820	0.002014
102	0x1447	0.001044
103	0x16d6	0.001669
104	0x8a83	-0.0001987
105	0xa4bd	-0.01851
106	0x265a	0.02481
107	0x2708	0.02747
108	0xac67	-0.0688
109	0xa0a2	-0.00905
110	0x2fe6	0.1234
111	0xae52	-0.09875
112	0xad96	-0.0873
113	0xa931	-0.04056
114	0xb480	-0.2812
115	0xa6f7	-0.0272
116	0xa1a5	-0.011024
117	0xb281	-0.2032
118	0x948b	-0.001109
119	0x1e3c	0.00609
120	0x9d9b	-0.005474
121	0x9fee	-0.007744
122	0x9b4f	-0.003569
123	0x9da7	-0.00552
124	0x22c6	0.01323
125	0x1d32	0.005074
126	0x9fc8	-0.0076
127	0xa43b	-0.01653
128	0x8ec2	-0.0004125
129	0x1562	0.001314
130	0x1813	0.00199
131	0x8d5f	-0.0003278
132	0x1a42	0.003056
133	0x9695	-0.001607
134	0x19fd	0.002924
135	0x3287	0.204
136	0x2050	0.00842
137	0x1a8c	0.003197
138	0xb444	-0.2666
139	0xa0c1	-0.009285
140	0x998f	-0.002714
141	0xb014	-0.1274
142	0x1a46	0.003063
143	0x197f	0.002684
144	0x3187	0.1727
145	0x164f	0.00154
146	0x1810	0.001984
147	0xa7d1	-0.03053
148	0x1ac7	0.00331
149	0x191d	0.002497
150	0xa3c9	-0.015205
151	0x1958	0.00261
152	0x0f1d	0.0004342
153	0xa166	-0.010544
154	0x1e9c	0.006454
155	0x98d3	-0.002356
156	0xb081	-0.1407
157	0x1cb2	0.004585
158	0x94ab	-0.00114
159	0xb12a	-0.1614
160	0x187b	0.002188
161	0x9c04	-0.00392
162	0xab04	-0.0548
163	0x8872	-0.0001357
164	0x18ba	0.002308
165	0xa98e	-0.0434
166	0x29a2	0.044
167	0x2c15	0.0638
168	0xb5f6	-0.3726
169	0xabdf	-0.0615
170	0xb2ea	-0.2161
171	0xa24d	-0.01231
172	0x3147	0.1649
173	0x2d1c	0.07983
174	0x20a7	0.00909
175	0x2b4e	0.05707
176	0x2a53	0.0494
177	0xa861	-0.0342
178	0x2a04	0.047
179	0x1e70	0.006287
180	0x2ced	0.07697
181	0x9be4	-0.003853
182	0xa17b	-0.010704
183	0x2dc0	0.08984
184	0x2050	0.00842
185	0x9a29	-0.003008
186	0x1d61	0.005253
187	0x9633	-0.0015135
188	0x1006	0.000491
189	0xa669	-0.02504
190	0x0ed7	0.0004175
191	0x1c91	0.00446
192	0xa189	-0.01081
193	0x9bd4	-0.003822
194	0x8ba5	-0.0002333
195	0x96cc	-0.001659
196	0x2448	0.01672
197	0xa3f3	-0.015526
198	0x971e	-0.001738
199	0x2e35	0.097
200	0xaaa8	-0.052
201	0x0d4d	0.0003235
202	0x3052	0.135
203	0x2ce6	0.07654
204	0x97fb	-0.001948
205	0x2a09	0.04715
206	0x2dd6	0.0912
207	0x1357	0.000896
208	0x2179	0.01069
209	0x2876	0.03485
210	0x2eb7	0.1049
211	0x194b	0.002584
212	0x24d3	0.01884
213	0xb430	-0.2617
214	0x9f8d	-0.007374
215	0xa5c9	-0.0226
216	0xb5f7	-0.3728
217	0xa181	-0.01075
218	0x2bcd	0.06094
219	0x29df	0.04587
220	0xa693	-0.02568
221	0x9893	-0.002234
222	0x2886	0.03534
223	0xa0c5	-0.009315
224	0x9a81	-0.003176
225	0x1a09	0.002947
226	0x1a2c	0.003014
227	0x1959	0.002611
228	0xa4b9	-0.01845
229	0x1513	0.001239
230	0x1988	0.0027
231	0xa74b	-0.02849
232	0x1aee	0.003384
233	0x0061	5.8e-06
234	0xab62	-0.05768
235	0x1c57	0.00424
236	0x17f9	0.001946
237	0xa895	-0.0358
238	0x1b6f	0.00363
239	0x1446	0.001043

arith.constant54 f2 [16, 1, 5, 16]
0	0xb6f1	-0.4338
1	0xb542	-0.3286
2	0xad4d	-0.0828
3	0x3ae4	0.8613
4	0x3f2e	1.795
5	0x35d8	0.3652
6	0x3ff4	1.988
7	0x3735	0.4504
8	0x3e1a	1.525
9	0x3445	0.2668
10	0x4026	2.074
11	0x3778	0.4668
12	0xbe46	-1.568
13	0x316b	0.1693
14	0x3bb7	0.9644
15	0x3ef7	1.741
16	0xb553	-0.3328
17	0xb7de	-0.4917
18	0x3db9	1.431
19	0xb8b2	-0.587
20	0x3f52	1.83
21	0x2d18	0.0796
22	0x38c8	0.5977
23	0x343d	0.265
24	0x3926	0.6436
25	0x33b5	0.2408
26	0x3790	0.4727
27	0x3761	0.4612
28	0x353a	0.3267
29	0xb9ed	-0.7407
30	0x3629	0.385
31	0x39be	0.718
32	0xba22	-0.7666
33	0xb82c	-0.5215
34	0xb9df	-0.734
35	0x35c2	0.3599
36	0xb0ea	-0.1536
37	0xb4ee	-0.308
38	0xbfbf	-1.937
39	0x3943	0.6577
40	0xbae2	-0.8604
41	0xb625	-0.384
42	0xb894	-0.5723
43	0xba74	-0.8066
44	0xbb11	-0.8833
45	0xb8d6	-0.6045
46	0xbfe6	-1.975
47	0xb539	-0.3264
48	0x39c3	0.72
49	0x32bc	0.2104
50	0xb87e	-0.5615
51	0x388f	0.57
52	0xbc2a	-1.041
53	0xa9b3	-0.04453
54	0xbdb5	-1.427
55	0x3e33	1.55
56	0x36fa	0.436
57	0x3434	0.2627
58	0xb641	-0.3909
59	0xb9b9	-0.7153
60	0xb494	-0.2861
61	0x3a26	0.7686
62	0xb556	-0.3335
63	0xacb0	-0.07324
64	0x3802	0.501
65	0x2992	0.04352
66	0x38e6	0.6123
67	0x31d8	0.1826
68	0xb89a	-0.575
69	0x3444	0.2666
70	0xb89f	-0.5776
71	0x3c67	1.101
72	0x3c8e	1.139
73	0xa5fc	-0.02338
74	0x3b09	0.8794
75	0x36ea	0.4321
76	0xb040	-0.1328
77	0x38b4	0.588
78	0x3bce	0.9756
79	0x3c4f	1.077
80	0xb4de	-0.3042
81	0xb0b7	-0.1473
82	0x3b96	0.948
83	0xaa83	-0.05087
84	0xab67	-0.05783
85	0xb253	-0.1976
86	0xb881	-0.563
87	0x36fc	0.4365
88	0xb9ac	-0.709
89	0xaf1c	-0.1111
90	0x37cf	0.488
91	0x329f	0.2069
92	0x36c5	0.423
93	0xb6a1	-0.4143
94	0x350e	0.316
95	0x32cd	0.2125
96	0xb88f	-0.57
97	0xb4ae	-0.2925
98	0x2bcc	0.0609
99	0x218d	0.01084
100	0x3940	0.6562
101	0xb400	-0.25
102	0x353b	0.327
103	0xb657	-0.3962
104	0xb47a	-0.2798
105	0x21dd	0.01145
106	0xb0db	-0.1517
107	0x3454	0.2705
108	0x386a	0.552
109	0xb958	-0.668
110	0x35ee	0.3706
111	0xb240	-0.1953
112	0x360c	0.378
113	0x344b	0.2683
114	0xbb7b	-0.935
115	0x2b58	0.05737
116	0xa9f2	-0.04645
117	0x2f6b	0.1159
118	0x3779	0.467
119	0xafc1	-0.12115
120	0x355e	0.3354
121	0xa187	-0.010796
122	0xb7f6	-0.4976
123	0x38f7	0.6206
124	0x3899	0.5747
125	0x3491	0.2854
126	0x3952	0.665
127	0xb943	-0.6577
128	0x38a2	0.579
129	0x349d	0.2883
130	0xbeda	-1.713
131	0xb2ee	-0.2166
132	0xb8ca	-0.5986
133	0xaefb	-0.1091
134	0xb537	-0.326
135	0xbcc1	-1.188
136	0xae87	-0.102
137	0xad3d	-0.08185
138	0xbae6	-0.8623
139	0xb834	-0.5254
140	0x3c1c	1.027
141	0x3721	0.4456
142	0x3964	0.674
143	0xb426	-0.2593
144	0x3f69	1.853
145	0x3d74	1.363
146	0xb7da	-0.4907
147	0xad58	-0.0835
148	0xb49c	-0.288
149	0x39fd	0.7485
150	0x3b40	0.9062
151	0xb242	-0.1956
152	0x3e66	1.6
153	0xb648	-0.3926
154	0xbd64	-1.348
155	0x2b46	0.05682
156	0xb7af	-0.4802
157	0x409e	2.309
158	0x3e96	1.646
159	0xb957	-0.6675
160	0xb755	-0.4583
161	0xa892	-0.0357
162	0x32c8	0.2119
163	0xb9a2	-0.704
164	0x3743	0.4539
165	0x359b	0.3503
166	0x3d0d	1.263
167	0xb349	-0.2277
168	0xb970	-0.6797
169	0xb571	-0.34
170	0xac3f	-0.06635
171	0x3903	0.6265
172	0xb8e8	-0.6133
173	0xb341	-0.2267
174	0xab48	-0.0569
175	0xbc2e	-1.045
176	0x2c80	0.0703
177	0x2da7	0.0883
178	0x36c8	0.4238
179	0xbd00	-1.25
180	0xb49c	-0.288
181	0x3052	0.135
182	0xb9cf	-0.726
183	0x39a9	0.7075
184	0xb98e	-0.6943
185	0xbad7	-0.855
186	0x3019	0.128
187	0xba45	-0.7837
188	0xb8ad	-0.5845
189	0x2a82	0.05084
190	0xba02	-0.751
191	0xb7d6	-0.4897
192	0xb135	-0.1627
193	0x1da9	0.005527
194	0x38b7	0.5894
195	0xbaa8	-0.832
196	0x35ed	0.3704
197	0xb2c2	-0.2112
198	0xb051	-0.1349
199	0x38a5	0.5806
200	0xb8d1	-0.602
201	0xbc22	-1.033
202	0x3317	0.2216
203	0x30b4	0.147
204	0xbc11	-1.017
205	0xb190	-0.1738
206	0xb679	-0.4045
207	0x2b0a	0.055
208	0x2a18	0.0476
209	0x329e	0.2068
210	0xb816	-0.5107
211	0xb496	-0.2866
212	0x2caa	0.0729
213	0xb441	-0.2659
214	0xb810	-0.508
215	0xb4c0	-0.2969
216	0xb3aa	-0.2395
217	0xb771	-0.465
218	0xb720	-0.4453
219	0xb883	-0.564
220	0x34f1	0.3088
221	0x3396	0.237
222	0xb564	-0.337
223	0xb3a6	-0.239
224	0x2e1f	0.09564
225	0x30ee	0.154
226	0xb12b	-0.1615
227	0x276e	0.02902
228	0xb0bb	-0.1478
229	0xb301	-0.2189
230	0xb764	-0.462
231	0xb80f	-0.5073
232	0x345b	0.2722
233	0xb51b	-0.319
234	0xb8c3	-0.595
235	0xbabe	-0.843
236	0x3050	0.1348
237	0x34a1	0.2893
238	0xa962	-0.04205
239	0xb87a	-0.5596
240	0x32e7	0.2157
241	0x3049	0.1339
242	0xbc30	-1.047
243	0x39f7	0.7456
244	0x3572	0.3403
245	0x3477	0.279
246	0x3e27	1.538
247	0xb5c9	-0.3616
248	0x3995	0.6978
249	0x2e8b	0.10223
250	0xb93f	-0.656
251	0x3572	0.3403
252	0xb806	-0.503
253	0x3472	0.2778
254	0x32e1	0.215
255	0xb941	-0.6567

arith.constant55 f2 [16, 1, 1, 8]
0	0x37ba	0.483
1	0x2ded	0.0926
2	0xbaf4	-0.869
3	0x31a0	0.1758
4	0xbc0c	-1.012
5	0x2bc7	0.06076
6	0xb558	-0.334
7	0xc037	-2.107
8	0xb45d	-0.2727
9	0xb704	-0.4385
10	0xb6aa	-0.4165
11	0xb333	-0.225
12	0xb080	-0.1406
13	0xa33d	-0.01414
14	0xb464	-0.2744
15	0x2225	0.012
16	0xae7a	-0.1012
17	0x25f3	0.02324
18	0x2759	0.0287
19	0xaf86	-0.11755
20	0x3149	0.1652
21	0x2b19	0.05545
22	0xaf05	-0.1097
23	0xa857	-0.0339
24	0x37b1	0.4807
25	0xb01f	-0.1288
26	0xb5cc	-0.3623
27	0xab5a	-0.05743
28	0xb370	-0.2324
29	0x347a	0.2798
30	0xbb0e	-0.882
31	0x3546	0.3296
32	0x3933	0.65
33	0xacbc	-0.074
34	0x3b4b	0.9116
35	0x35c4	0.3604
36	0xb213	-0.1898
37	0xa482	-0.01761
38	0x373e	0.4526
39	0x36b4	0.419
40	0xbe49	-1.571
41	0x34d5	0.302
42	0x3c2c	1.043
43	0xb82a	-0.5205
44	0xbc71	-1.11
45	0xae99	-0.1031
46	0xb70b	-0.4402
47	0xaaad	-0.05215
48	0xad8d	-0.08673
49	0x2a20	0.04785
50	0xb428	-0.2598
51	0x317b	0.1713
52	0x2c6a	0.069
53	0x30c9	0.1495
54	0x29d4	0.04553
55	0xb514	-0.3174
56	0xc181	-2.752
57	0xb200	-0.1875
58	0x3efe	1.748
59	0x3ab8	0.84
60	0xbbd3	-0.978
61	0x350a	0.315
62	0xba12	-0.759
63	0x3d3f	1.312
64	0xad9a	-0.0875
65	0xb494	-0.2861
66	0xb8f8	-0.621
67	0x37f0	0.496
68	0xaf02	-0.1095
69	0x3213	0.1898
70	0x369b	0.4128
71	0xb621	-0.383
72	0x3a55	0.7915
73	0x3111	0.1583
74	0x3c3f	1.062
75	0xbb75	-0.932
76	0x25d8	0.02283
77	0x3e28	1.539
78	0x2811	0.03177
79	0xb945	-0.6587
80	0xb7dd	-0.4915
81	0x3656	0.396
82	0xb4a1	-0.2893
83	0xb596	-0.349
84	0x30a2	0.1448
85	0x378c	0.4717
86	0x3a73	0.806
87	0x356c	0.3389
88	0xb80f	-0.5073
89	0x9cff	-0.00488
90	0xb13f	-0.164
91	0xb7ac	-0.4795
92	0x100f	0.0004954
93	0x3451	0.2698
94	0x3857	0.5425
95	0xb799	-0.4749
96	0x3c0a	1.01
97	0xbafa	-0.872
98	0x3d82	1.377
99	0x3628	0.3848
100	0xaac2	-0.0528
101	0x3aa1	0.8286
102	0xb971	-0.68
103	0xbdff	-1.499
104	0x3837	0.527
105	0xb849	-0.5356
106	0xb938	-0.6523
107	0x3a81	0.813
108	0x3309	0.2198
109	0x377c	0.4678
110	0x3593	0.3484
111	0xb06a	-0.138
112	0x352c	0.3232
113	0x3727	0.447
114	0x2f49	0.11383
115	0xab1f	-0.05563
116	0x3665	0.3997
117	0xb602	-0.3755
118	0x3219	0.1906
119	0xb9e4	-0.7363
120	0x396a	0.677
121	0xbd10	-1.266
122	0x38ed	0.6157
123	0x3d2f	1.296
124	0x3858	0.543
125	0xbbbe	-0.968
126	0xc01d	-2.057
127	0xc078	-2.234

arith.constant56 f2 [1, 3, 3, 16]
0	0xa65b	-0.02483
1	0x38dd	0.608
2	0x3d7c	1.371
3	0xb784	-0.4697
4	0xbe90	-1.641
5	0xadda	-0.09143
6	0xb224	-0.1919
7	0x9fb1	-0.00751
8	0xb14c	-0.1655
9	0x2882	0.03522
10	0xb7e3	-0.493
11	0x341b	0.2566
12	0x3711	0.4417
13	0x29a3	0.04404
14	0x2db5	0.0892
15	0xb009	-0.1261
16	0x2ccd	0.075
17	0xb8c4	-0.5957
18	0x2e8a	0.1022
19	0x3d1b	1.276
20	0xc11b	-2.553
21	0x301f	0.1288
22	0xb2eb	-0.2162
23	0xa17c	-0.01071
24	0x3002	0.1252
25	0x2dab	0.08856
26	0xb948	-0.66
27	0x34e3	0.3054
28	0xb220	-0.1914
29	0x2d26	0.08044
30	0x215d	0.010475
31	0x2857	0.0339
32	0xb50d	-0.3157
33	0xbc3e	-1.061
34	0x3a56	0.792
35	0xbba6	-0.956
36	0x3576	0.3413
37	0xae9b	-0.1032
38	0x2fa0	0.11914
39	0x2049	0.00837
40	0xae47	-0.0981
41	0xb5e9	-0.3694
42	0x3ce7	1.226
43	0xb2c6	-0.2117
44	0xb532	-0.3247
45	0x2fbe	0.121
46	0xb001	-0.1251
47	0xa869	-0.03445
48	0xa474	-0.0174
49	0xb913	-0.6343
50	0xc108	-2.516
51	0xb965	-0.6743
52	0x31fb	0.1869
53	0xb8b2	-0.587
54	0x39a5	0.7056
55	0x30fb	0.1556
56	0x34c4	0.2979
57	0x2ac3	0.05283
58	0x386f	0.554
59	0x3471	0.2776
60	0x37a7	0.4783
61	0xb01e	-0.1287
62	0xaf38	-0.1128
63	0xa25b	-0.01241
64	0xb00f	-0.1268
65	0x3a82	0.8135
66	0xc79e	-7.617
67	0xb305	-0.2194
68	0xbd91	-1.392
69	0x333c	0.2261
70	0xb39a	-0.2375
71	0x33ed	0.2477
72	0x3918	0.6367
73	0x351f	0.32
74	0xbf89	-1.884
75	0xb853	-0.5405
76	0xb601	-0.3752
77	0x39bf	0.7183
78	0xb51f	-0.32
79	0xae12	-0.09485
80	0xb917	-0.636
81	0x2e90	0.10254
82	0x3c9b	1.151
83	0xafdb	-0.12274
84	0x4259	3.174
85	0xb100	-0.1562
86	0x3191	0.174
87	0x3404	0.251
88	0x2e7c	0.1013
89	0xb885	-0.565
90	0x37be	0.484
91	0xb158	-0.167
92	0x2f98	0.11865
93	0xb221	-0.1915
94	0x34b9	0.2952
95	0x2c56	0.06775
96	0x3125	0.1608
97	0xb866	-0.55
98	0x4416	4.086
99	0x4571	5.44
100	0x4436	4.21
101	0xbc08	-1.008
102	0x3c8f	1.14
103	0x317b	0.1713
104	0x37a3	0.4773
105	0x2f4f	0.1142
106	0xaed9	-0.107
107	0x347d	0.2805
108	0x3aae	0.835
109	0xb970	-0.6797
110	0x2d31	0.0811
111	0xb87f	-0.562
112	0x9c52	-0.00422
113	0x3a60	0.797
114	0x3b01	0.8755
115	0x3f03	1.753
116	0x3ef3	1.737
117	0x302a	0.1301
118	0xc285	-3.26
119	0x3b4f	0.9136
120	0x39bc	0.717
121	0x396b	0.6772
122	0x3d91	1.392
123	0xc1c4	-2.883
124	0xb4d5	-0.302
125	0x3e90	1.641
126	0xac50	-0.0674
127	0xaeb9	-0.10504
128	0xbac7	-0.847
129	0x43c6	3.887
130	0xb685	-0.4075
131	0x40f1	2.47
132	0xc362	-3.691
133	0xb3ca	-0.2434
134	0x3718	0.4434
135	0xb224	-0.1919
136	0xaed6	-0.1068
137	0xbc35	-1.052
138	0xc117	-2.545
139	0x3c37	1.054
140	0x32f5	0.2174
141	0xb707	-0.4392
142	0x3c2e	1.045
143	0x2d45	0.08234

arith.constant57 f2 [8, 1, 1, 16]
0	0x38b1	0.5864
1	0xa385	-0.01469
2	0x2863	0.03427
3	0x3b08	0.879
4	0xb490	-0.2852
5	0xb0ce	-0.1501
6	0xaf12	-0.1105
7	0x28d7	0.0378
8	0x2e3c	0.0974
9	0xa91a	-0.03986
10	0xb9ca	-0.7236
11	0xb82d	-0.522
12	0x2b3f	0.0566
13	0x324d	0.1969
14	0x9dc4	-0.00563
15	0xb0c0	-0.1484
16	0xae74	-0.1008
17	0x3115	0.1588
18	0x3596	0.349
19	0x255a	0.0209
20	0x308a	0.1418
21	0xb150	-0.166
22	0xaf40	-0.1133
23	0x3581	0.344
24	0xb349	-0.2277
25	0xb0c2	-0.1487
26	0xb4e2	-0.3052
27	0x2b20	0.05566
28	0x3812	0.509
29	0x3148	0.165
30	0x3490	0.2852
31	0x33bb	0.2416
32	0xb3fe	-0.2498
33	0x2da2	0.088
34	0xb49c	-0.288
35	0x2c37	0.06586
36	0x2efa	0.109
37	0x3566	0.3374
38	0xb49b	-0.2878
39	0x3248	0.1963
40	0x30fd	0.1559
41	0x346c	0.2764
42	0x343d	0.265
43	0x2e80	0.10156
44	0x337b	0.2338
45	0xae6f	-0.1005
46	0x265a	0.02481
47	0xb715	-0.4426
48	0xadf7	-0.0932
49	0xb80e	-0.507
50	0xb193	-0.1742
51	0xac84	-0.07056
52	0xb088	-0.1416
53	0x3698	0.412
54	0xb6f4	-0.4346
55	0x2bb5	0.0602
56	0x364b	0.3933
57	0x3668	0.4004
58	0x35c3	0.36
59	0xb927	-0.644
60	0x332f	0.2245
61	0xb426	-0.2593
62	0x3760	0.461
63	0xb809	-0.5044
64	0xace8	-0.07666
65	0xb728	-0.4473
66	0xb3a7	-0.2391
67	0xb286	-0.2039
68	0xb45c	-0.2725
69	0x347f	0.281
70	0xb5b9	-0.3577
71	0x399b	0.7007
72	0x2d9d	0.0877
73	0x28e4	0.0382
74	0xafa0	-0.11914
75	0x3156	0.1667
76	0x318a	0.1731
77	0x2f1e	0.1112
78	0xac92	-0.0714
79	0x3011	0.1271
80	0x38e0	0.6094
81	0x37f5	0.4973
82	0xb2e8	-0.2158
83	0x315d	0.1676
84	0xb2cc	-0.2124
85	0x30fd	0.1559
86	0x2caa	0.0729
87	0x2a21	0.04788
88	0x349d	0.2883
89	0x3232	0.1936
90	0x2af1	0.05423
91	0xb5e2	-0.3677
92	0xb75a	-0.4595
93	0xb1b4	-0.1782
94	0xb379	-0.2335
95	0x99c5	-0.002817
96	0xb479	-0.2795
97	0xa852	-0.03375
98	0xb438	-0.2637
99	0x3089	0.1417
100	0xadfb	-0.09344
101	0x3035	0.1315
102	0xb619	-0.381
103	0x376e	0.4644
104	0x21c1	0.01124
105	0x3008	0.126
106	0x1b2f	0.003508
107	0x31d4	0.1821
108	0x2f0f	0.1103
109	0x367d	0.4055
110	0xb3cd	-0.2438
111	0x3110	0.1582
112	0xa540	-0.02051
113	0xa71d	-0.02779
114	0xb309	-0.2198
115	0xb356	-0.2292
116	0x27eb	0.03093
117	0x19db	0.00286
118	0xb888	-0.5664
119	0xb1c6	-0.1804
120	0x3406	0.2515
121	0x2278	0.012634
122	0x2766	0.0289
123	0x28d9	0.03787
124	0xaa8f	-0.05124
125	0x34ad	0.2922
126	0x3478	0.2793
127	0xb5ea	-0.3696

arith.constant58 f2 [16, 1, 1, 8]
0	0xb29b	-0.2064
1	0xb87b	-0.56
2	0x3698	0.412
3	0x3e18	1.523
4	0x16ea	0.001688
5	0x2cca	0.0748
6	0xb56b	-0.3386
7	0xb198	-0.1748
8	0x33e0	0.2461
9	0x35f1	0.3713
10	0xb96c	-0.6777
11	0xb4e1	-0.305
12	0x3242	0.1956
13	0xb4a3	-0.2898
14	0xb2e8	-0.2158
15	0x2c65	0.06866
16	0x38e6	0.6123
17	0xb2b3	-0.2094
18	0x28a9	0.0364
19	0xb253	-0.1976
20	0x31ab	0.1771
21	0x1ae0	0.003357
22	0x3629	0.385
23	0x36ff	0.4373
24	0x3699	0.4124
25	0xb0ad	-0.1461
26	0x3987	0.691
27	0x3856	0.542
28	0x3c2b	1.042
29	0x3527	0.322
30	0xac6f	-0.0693
31	0x372d	0.4485
32	0xb542	-0.3286
33	0x3c02	1.002
34	0x36de	0.4292
35	0x320f	0.1893
36	0x3a4e	0.788
37	0x3540	0.3281
38	0xb3f3	-0.2484
39	0x36b0	0.418
40	0x347e	0.2808
41	0xb573	-0.3406
42	0x313e	0.1638
43	0x3582	0.3442
44	0xa9ca	-0.04523
45	0xad5e	-0.08386
46	0xb3e9	-0.2472
47	0x3008	0.126
48	0xb102	-0.1565
49	0xac42	-0.0665
50	0xb49e	-0.2886
51	0xb6c0	-0.4219
52	0x399b	0.7007
53	0xb1fe	-0.1873
54	0x34c0	0.2969
55	0x2fcb	0.12177
56	0x2de9	0.09235
57	0xae1a	-0.09534
58	0xa831	-0.03275
59	0xb74e	-0.4565
60	0xb0fc	-0.1558
61	0x22dc	0.0134
62	0xb12e	-0.1619
63	0x3186	0.1726
64	0x3283	0.2035
65	0xb978	-0.6836
66	0x2f07	0.1098
67	0xb369	-0.2316
68	0xbccb	-1.198
69	0x305f	0.1366
70	0xb8e8	-0.6133
71	0x3218	0.1904
72	0xb19d	-0.1754
73	0xb897	-0.5737
74	0x349d	0.2883
75	0xb2e4	-0.2153
76	0xb4e7	-0.3064
77	0x2c1c	0.0642
78	0x3050	0.1348
79	0x38ae	0.585
80	0xb236	-0.1941
81	0xb985	-0.69
82	0xad39	-0.0816
83	0x2c1f	0.0644
84	0xba42	-0.782
85	0x3a89	0.817
86	0x332c	0.2241
87	0x2825	0.03238
88	0x3094	0.1431
89	0x2517	0.01988
90	0xb45b	-0.2722
91	0x35a3	0.3523
92	0x2e63	0.0998
93	0xb800	-0.5
94	0xaf93	-0.11835
95	0x3110	0.1582
96	0x2e12	0.09485
97	0x34f9	0.3108
98	0xb740	-0.4531
99	0x3216	0.1902
100	0x353a	0.3267
101	0xb997	-0.6987
102	0xb7d6	-0.4897
103	0xac63	-0.06854
104	0xa179	-0.01069
105	0xaaa7	-0.05197
106	0x36fd	0.4368
107	0x3502	0.313
108	0x3883	0.564
109	0x2a7b	0.05063
110	0xaad4	-0.05334
111	0x31be	0.1794
112	0xa293	-0.01284
113	0x2045	0.00834
114	0xb143	-0.1644
115	0xa507	-0.01964
116	0xb34b	-0.2279
117	0x9e8c	-0.006393
118	0x2c49	0.06696
119	0x04f5	7.564e-05
120	0xac34	-0.0657
121	0x3993	0.697
122	0x36a5	0.4153
123	0x2818	0.03198
124	0xba80	-0.8125
125	0x20be	0.00926
126	0x2fcb	0.12177
127	0xb467	-0.2751

arith.constant59 f2 [1, 3, 3, 16]
0	0xa564	-0.02106
1	0xb5d2	-0.3638
2	0xb493	-0.286
3	0x2f01	0.10944
4	0xb353	-0.2289
5	0x3d6c	1.355
6	0xb455	-0.2708
7	0x3c45	1.067
8	0x3185	0.1725
9	0x337e	0.2341
10	0xac87	-0.07074
11	0xb880	-0.5625
12	0x38ec	0.615
13	0x36b7	0.4197
14	0x3549	0.3303
15	0x2c5f	0.0683
16	0x2e75	0.1009
17	0xb230	-0.1934
18	0xb54e	-0.3315
19	0xb6f5	-0.4348
20	0x2f76	0.1166
21	0x3c3e	1.061
22	0xb037	-0.1317
23	0x2e0f	0.09467
24	0x2948	0.04126
25	0xaf06	-0.10974
26	0xad43	-0.0822
27	0xb4fb	-0.3113
28	0x33b3	0.2406
29	0x9e70	-0.006287
30	0xae22	-0.0958
31	0x3713	0.4421
32	0x318e	0.1736
33	0x3933	0.65
34	0x34d2	0.3013
35	0x3226	0.1921
36	0xacc8	-0.0747
37	0xb55c	-0.335
38	0x308d	0.1422
39	0x3aaf	0.8354
40	0xae35	-0.097
41	0xb4d8	-0.3027
42	0x9d27	-0.00503
43	0xbc53	-1.081
44	0x3df1	1.485
45	0x2a6f	0.05026
46	0xb23c	-0.1948
47	0xaf10	-0.11035
48	0xbce2	-1.221
49	0xb537	-0.326
50	0x2d1c	0.07983
51	0x3115	0.1588
52	0xaea5	-0.1038
53	0x2fee	0.1239
54	0x2a13	0.04745
55	0xba08	-0.754
56	0x3532	0.3247
57	0x39b5	0.7134
58	0x2a10	0.04736
59	0xb77e	-0.4683
60	0xb610	-0.379
61	0x380f	0.5073
62	0x33bc	0.2417
63	0x31d3	0.182
64	0x2fff	0.12494
65	0x39ea	0.7393
66	0xa071	-0.008675
67	0x3858	0.543
68	0xb2c4	-0.2114
69	0xb410	-0.254
70	0x2f19	0.1109
71	0x2e62	0.09973
72	0xaf08	-0.10986
73	0xb492	-0.2856
74	0x363d	0.39
75	0xba21	-0.766
76	0xb913	-0.6343
77	0xb26b	-0.2006
78	0xc02b	-2.084
79	0x3067	0.1376
80	0x37ee	0.4956
81	0x362d	0.386
82	0x1ecc	0.006638
83	0x2dde	0.0917
84	0xb035	-0.1315
85	0xb706	-0.439
86	0xaea6	-0.1039
87	0xb187	-0.1727
88	0xb3d0	-0.2441
89	0x275d	0.02876
90	0x31fa	0.1868
91	0xbc05	-1.005
92	0xc2ef	-3.467
93	0x3833	0.525
94	0xbb3d	-0.905
95	0xb7aa	-0.479
96	0x3e02	1.502
97	0xbb48	-0.91
98	0x37d2	0.4888
99	0x31a1	0.1759
100	0x396d	0.678
101	0x3a8d	0.819
102	0x3ad1	0.852
103	0xc1d4	-2.914
104	0x2dda	0.09143
105	0x394c	0.662
106	0x2a7a	0.0506
107	0x3974	0.6816
108	0xbba0	-0.953
109	0x3d57	1.335
110	0x3e5f	1.593
111	0x24a6	0.01816
112	0x3425	0.259
113	0xb6ac	-0.417
114	0x3d7c	1.371
115	0x37ca	0.4868
116	0x378c	0.4717
117	0x3ddf	1.468
118	0x39ee	0.741
119	0xba60	-0.797
120	0x358a	0.3462
121	0xb809	-0.5044
122	0x3a0e	0.757
123	0x39db	0.732
124	0x3e7e	1.623
125	0xa895	-0.0358
126	0xb5eb	-0.3699
127	0x379f	0.4763
128	0xb3df	-0.246
129	0xbcbf	-1.187
130	0x3b38	0.9023
131	0xae85	-0.10187
132	0x3c11	1.017
133	0x3028	0.1299
134	0x3012	0.1272
135	0xbe24	-1.535
136	0x3c26	1.037
137	0xb490	-0.2852
138	0x2cba	0.07385
139	0x3e67	1.601
140	0x3eec	1.73
141	0xad46	-0.0824
142	0xc34f	-3.654
143	0xbd4c	-1.324

arith.constant60 f2 [8, 1, 1, 16]
0	0xb3a2	-0.2385
1	0xb617	-0.3806
2	0xa48f	-0.0178
3	0x2e9f	0.10345
4	0xb163	-0.1683
5	0x349b	0.2878
6	0xa8bf	-0.03708
7	0x344f	0.2693
8	0x3282	0.2034
9	0x32c6	0.2117
10	0x2984	0.0431
11	0x36f0	0.4336
12	0xb20f	-0.1893
13	0xaff3	-0.1242
14	0x36ba	0.4204
15	0x34c3	0.2976
16	0xb14a	-0.1653
17	0x30fa	0.1555
18	0x28b7	0.03683
19	0x267f	0.02538
20	0xb5d2	-0.3638
21	0x338f	0.2362
22	0xad3c	-0.0818
23	0xb3fd	-0.2496
24	0xace2	-0.0763
25	0x2628	0.02405
26	0x9b34	-0.003517
27	0x30fe	0.156
28	0x2f3a	0.1129
29	0x389d	0.5767
30	0xb5ed	-0.3704
31	0xafca	-0.1217
32	0x2f3c	0.11304
33	0x2c83	0.0705
34	0xa872	-0.03473
35	0x28d3	0.0377
36	0x3518	0.3184
37	0xb208	-0.1885
38	0x30e2	0.1526
39	0xafbd	-0.1209
40	0x2cd2	0.0753
41	0x3471	0.2776
42	0xb202	-0.1877
43	0x3445	0.2668
44	0x2864	0.0343
45	0x2e88	0.10205
46	0x2633	0.02422
47	0x335c	0.23
48	0x3513	0.3171
49	0x2d61	0.08405
50	0x3442	0.266
51	0xb79b	-0.4753
52	0x2edc	0.1072
53	0xad60	-0.084
54	0xb79e	-0.476
55	0xb48a	-0.2837
56	0x3199	0.1749
57	0xb0a5	-0.1451
58	0xae28	-0.0962
59	0x2953	0.0416
60	0x3237	0.1942
61	0xb4c0	-0.2969
62	0x3091	0.1427
63	0xb247	-0.1962
64	0x3639	0.389
65	0x2ed9	0.107
66	0x2dd9	0.0914
67	0x32ba	0.2102
68	0x31c3	0.18
69	0xb0d2	-0.1506
70	0xa308	-0.01373
71	0x35be	0.359
72	0xb578	-0.3418
73	0xb475	-0.2786
74	0x211b	0.00997
75	0x11fc	0.0007305
76	0x333c	0.2261
77	0x2841	0.03323
78	0x34a7	0.2908
79	0xa454	-0.0169
80	0x33f2	0.2483
81	0xb6ea	-0.4321
82	0x295b	0.04184
83	0x2e94	0.1028
84	0x3503	0.3132
85	0x311c	0.1597
86	0x2cae	0.0731
87	0xad03	-0.0783
88	0x36fd	0.4368
89	0x2a8f	0.05124
90	0xb81c	-0.5137
91	0x3038	0.1318
92	0x3660	0.3984
93	0x387f	0.562
94	0xb320	-0.2227
95	0xb376	-0.2332
96	0xb480	-0.2812
97	0x2dfa	0.0934
98	0x2d53	0.0832
99	0xb490	-0.2852
100	0xb20b	-0.1888
101	0x326c	0.2007
102	0xafad	-0.11993
103	0x308c	0.1421
104	0x18c0	0.00232
105	0x2dd9	0.0914
106	0xb591	-0.348
107	0xb6d7	-0.4275
108	0xb56d	-0.339
109	0x2753	0.02861
110	0xab17	-0.0554
111	0x2d1d	0.0799
112	0x298e	0.0434
113	0xada5	-0.0882
114	0xa9cb	-0.04526
115	0x310c	0.1577
116	0xa1a7	-0.01104
117	0x3571	0.34
118	0x2ed0	0.10645
119	0xb050	-0.1348
120	0x3430	0.2617
121	0x303d	0.1324
122	0x3212	0.1897
123	0xb4d2	-0.3013
124	0x2104	0.009796
125	0x22b5	0.0131
126	0x22f7	0.0136
127	0xa9ac	-0.0443

arith.constant61 f2 [16, 1, 1, 8]
0	0xae92	-0.10266
1	0x2293	0.01284
2	0xbaef	-0.8667
3	0xb385	-0.235
4	0x344a	0.268
5	0x38dd	0.608
6	0x30c4	0.1489
7	0xb5b1	-0.3557
8	0x309b	0.1439
9	0x221c	0.01193
10	0x31c3	0.18
11	0x306d	0.1383
12	0x9cfb	-0.004864
13	0xb0f9	-0.1554
14	0x34c6	0.2983
15	0x32fa	0.218
16	0x3190	0.1738
17	0x335c	0.23
18	0x3440	0.2656
19	0x2929	0.0403
20	0x36a8	0.416
21	0xb438	-0.2637
22	0xb1ed	-0.1852
23	0x3b78	0.9336
24	0xbb2c	-0.8965
25	0xbaf0	-0.867
26	0xb5de	-0.3667
27	0xbac4	-0.8457
28	0x3ad2	0.8525
29	0xbb76	-0.9326
30	0x329f	0.2069
31	0x37b1	0.4807
32	0xbdcd	-1.45
33	0x3aa2	0.829
34	0x3b66	0.925
35	0x34d1	0.301
36	0x409b	2.303
37	0xb9eb	-0.7397
38	0x38ca	0.5986
39	0xb572	-0.3403
40	0x350e	0.316
41	0x261f	0.02391
42	0x319a	0.175
43	0x3a6b	0.8022
44	0xb471	-0.2776
45	0xa8fd	-0.03897
46	0x2b20	0.05566
47	0x34e9	0.307
48	0x3312	0.221
49	0xb9c4	-0.7207
50	0xb7ba	-0.483
51	0xb550	-0.332
52	0xb18b	-0.1732
53	0xb448	-0.2676
54	0x3b0d	0.8813
55	0x2bae	0.06
56	0xb13c	-0.1636
57	0x35ce	0.3628
58	0xb437	-0.2634
59	0xaeca	-0.1061
60	0xb29c	-0.2065
61	0xb0d5	-0.151
62	0x3441	0.2659
63	0xb212	-0.1897
64	0x2ee4	0.10767
65	0xb99c	-0.701
66	0x3b24	0.8926
67	0xb528	-0.3223
68	0xa805	-0.0314
69	0x3c29	1.04
70	0xb528	-0.3223
71	0xb064	-0.1372
72	0x32cf	0.2128
73	0xb2fe	-0.2185
74	0x331d	0.2223
75	0x3957	0.6675
76	0xb065	-0.1373
77	0xb23c	-0.1948
78	0x359c	0.3506
79	0x3852	0.54
80	0xb05d	-0.1364
81	0xb6de	-0.4292
82	0xb8db	-0.607
83	0xa7fa	-0.03116
84	0x33ff	0.2499
85	0xb65c	-0.3975
86	0xb855	-0.5415
87	0x31a6	0.1765
88	0x3a3e	0.7803
89	0x3179	0.171
90	0x3775	0.466
91	0xb0d2	-0.1506
92	0x35b3	0.3562
93	0xad35	-0.08136
94	0x3475	0.2786
95	0xb299	-0.2062
96	0xb8cd	-0.6
97	0x383b	0.529
98	0xb840	-0.5312
99	0xb1c4	-0.1802
100	0xb664	-0.3994
101	0xb18d	-0.1735
102	0xbbaf	-0.9604
103	0xb195	-0.1744
104	0xba06	-0.753
105	0xb4ef	-0.3083
106	0x31b3	0.1781
107	0x2b5f	0.0576
108	0xb013	-0.1273
109	0xb415	-0.2551
110	0x3048	0.1338
111	0x285c	0.03406
112	0x34ca	0.2993
113	0x3790	0.4727
114	0x3980	0.6875
115	0xa856	-0.03387
116	0xbdf3	-1.487
117	0x3db9	1.431
118	0x35e3	0.368
119	0x3a65	0.7993
120	0xa1bb	-0.01119
121	0xb7ac	-0.4795
122	0x33a5	0.2389
123	0xb9bd	-0.7173
124	0xa8c2	-0.03717
125	0xb7fb	-0.4988
126	0x332c	0.2241
127	0x3abe	0.843

arith.constant62 f2 [1, 3, 3, 16]
0	0xb152	-0.1663
1	0x4011	2.033
2	0xb19d	-0.1754
3	0x33af	0.2401
4	0xaac7	-0.05295
5	0x3b6b	0.9272
6	0x34f3	0.3093
7	0x243e	0.01657
8	0x2f95	0.11847
9	0xc027	-2.076
10	0x253d	0.02046
11	0xbf67	-1.851
12	0x30ae	0.1462
13	0x3532	0.3247
14	0x30a4	0.145
15	0xb87e	-0.5615
16	0xb02e	-0.1306
17	0x3dd2	1.455
18	0xbc81	-1.126
19	0x2f1b	0.111
20	0xaf08	-0.10986
21	0x3b1e	0.8896
22	0xa9e7	-0.0461
23	0x3250	0.1973
24	0x2482	0.01761
25	0xb828	-0.5195
26	0xad86	-0.0863
27	0xb655	-0.3958
28	0x335a	0.2297
29	0xa65a	-0.02481
30	0x3252	0.1975
31	0x3c0c	1.012
32	0xb35c	-0.23
33	0x3d23	1.284
34	0x3416	0.2554
35	0xaca5	-0.0726
36	0xab5e	-0.05756
37	0x4060	2.188
38	0x3183	0.1722
39	0xb268	-0.2002
40	0x3229	0.1925
41	0xb758	-0.459
42	0x2864	0.0343
43	0xb797	-0.4744
44	0x2e8a	0.1022
45	0x3822	0.5166
46	0x33bf	0.2421
47	0xb9a9	-0.7075
48	0x9efa	-0.006813
49	0x376a	0.4634
50	0xb62e	-0.3862
51	0x3195	0.1744
52	0xb0bd	-0.1481
53	0xbcde	-1.217
54	0x38dd	0.608
55	0x2bcd	0.06094
56	0xb184	-0.1724
57	0x403a	2.113
58	0xb99b	-0.7007
59	0xa84e	-0.03363
60	0x30d3	0.1508
61	0x34f8	0.3105
62	0xb53c	-0.3271
63	0x36c0	0.4219
64	0x2c4f	0.0673
65	0x34dc	0.3037
66	0xb44e	-0.269
67	0x252d	0.02022
68	0xae17	-0.09515
69	0xb270	-0.2012
70	0x2ce3	0.07635
71	0x2cf9	0.0777
72	0x3173	0.1703
73	0x3efe	1.748
74	0xb37e	-0.2341
75	0xaa1c	-0.04773
76	0x305c	0.1362
77	0x3143	0.1644
78	0xa8b9	-0.0369
79	0x3d30	1.297
80	0xb601	-0.3752
81	0xb357	-0.2294
82	0x3573	0.3406
83	0x9989	-0.002703
84	0xade9	-0.09235
85	0x2a32	0.0484
86	0x303b	0.1322
87	0xab9c	-0.05945
88	0x2f28	0.1118
89	0x42a7	3.326
90	0xa884	-0.03528
91	0x31e2	0.1838
92	0x2e10	0.0947
93	0x38c5	0.596
94	0xb0af	-0.1464
95	0x2b12	0.05524
96	0xbab2	-0.837
97	0xc17b	-2.74
98	0xadab	-0.08856
99	0x3860	0.547
100	0xb1c4	-0.1802
101	0x41dc	2.93
102	0x3cf8	1.242
103	0x3eb3	1.675
104	0x355c	0.335
105	0xba5a	-0.794
106	0xbba0	-0.953
107	0xb70a	-0.44
108	0x363f	0.3904
109	0x3b9a	0.95
110	0x38af	0.5854
111	0xa7b1	-0.03004
112	0xb9bd	-0.7173
113	0xb8b0	-0.586
114	0xbbcc	-0.9746
115	0xae60	-0.0996
116	0xb1aa	-0.177
117	0x4070	2.219
118	0x31a6	0.1765
119	0x3681	0.4065
120	0x3422	0.2583
121	0xc040	-2.125
122	0xb3fd	-0.2496
123	0x338d	0.236
124	0x304f	0.1346
125	0x3b0d	0.8813
126	0x36b4	0.419
127	0x3f50	1.828
128	0xbcd9	-1.212
129	0xb9da	-0.7314
130	0x3c15	1.0205
131	0x3780	0.4688
132	0xb3ed	-0.2477
133	0x441c	4.11
134	0x3cac	1.168
135	0x32b8	0.21
136	0x37b0	0.4805
137	0xb8c0	-0.5938
138	0x31c3	0.18
139	0x3750	0.457
140	0x3210	0.1895
141	0x3e4c	1.574
142	0x384f	0.5386
143	0xc06e	-2.215

arith.constant63 f2 [8, 1, 1, 16]
0	0xb07c	-0.1401
1	0x37ec	0.495
2	0x2e9e	0.1034
3	0x1bb1	0.003756
4	0x3d82	1.377
5	0x3190	0.1738
6	0xb9b2	-0.712
7	0xb8fe	-0.624
8	0x2596	0.02182
9	0x30cf	0.1503
10	0xb43b	-0.2644
11	0x3881	0.563
12	0x3b60	0.922
13	0xb426	-0.2593
14	0x271d	0.02779
15	0x3370	0.2324
16	0x39c9	0.723
17	0x2b6c	0.05798
18	0xb839	-0.528
19	0xb466	-0.275
20	0xb76c	-0.4639
21	0x2e8e	0.1024
22	0x2d7d	0.08575
23	0x2cfd	0.07794
24	0x2f33	0.1125
25	0x340e	0.2534
26	0x3893	0.572
27	0x3597	0.3494
28	0xb724	-0.4463
29	0x3836	0.5264
30	0x3362	0.2307
31	0xb33c	-0.2261
32	0x3907	0.6284
33	0xb512	-0.317
34	0xb8b7	-0.5894
35	0x35fe	0.3745
36	0xb5da	-0.3657
37	0xb61e	-0.3823
38	0xb070	-0.1387
39	0xa29b	-0.0129
40	0xb1f0	-0.1855
41	0xb3fa	-0.2493
42	0x36cd	0.425
43	0xb32b	-0.224
44	0x3408	0.252
45	0x337b	0.2338
46	0xaced	-0.07697
47	0xabc1	-0.06058
48	0xb231	-0.1935
49	0x2fc6	0.12146
50	0x3025	0.1295
51	0xa7b1	-0.03004
52	0x3583	0.3445
53	0xaeee	-0.1083
54	0xb85c	-0.545
55	0xadd1	-0.0909
56	0x2d47	0.08246
57	0x32fd	0.2184
58	0x31d6	0.1824
59	0x303e	0.1326
60	0x34b7	0.2947
61	0xadf5	-0.0931
62	0xb518	-0.3184
63	0x34f9	0.3108
64	0x344e	0.269
65	0xb17c	-0.1714
66	0xb06e	-0.1384
67	0xb564	-0.337
68	0x2d07	0.07855
69	0x3793	0.4734
70	0xb4fd	-0.3118
71	0xb6d6	-0.4272
72	0x9cfb	-0.004864
73	0x347c	0.2803
74	0x38d6	0.6045
75	0xb290	-0.2051
76	0x2d08	0.0786
77	0xaf7b	-0.1169
78	0xb689	-0.4084
79	0x3094	0.1431
80	0x342c	0.2607
81	0xb567	-0.3376
82	0x303f	0.1327
83	0xb7de	-0.4917
84	0x2e1e	0.0956
85	0x387a	0.5596
86	0x31ab	0.1771
87	0x2daf	0.0888
88	0x34ea	0.3071
89	0xb6e5	-0.431
90	0xb52a	-0.3228
91	0xb2c2	-0.2112
92	0xb722	-0.4458
93	0xb229	-0.1925
94	0xb545	-0.3293
95	0x3805	0.5024
96	0x980f	-0.001982
97	0xb47f	-0.281
98	0x36cf	0.4255
99	0x3189	0.173
100	0xb626	-0.3843
101	0x365d	0.3977
102	0xb12e	-0.1619
103	0x3228	0.1924
104	0x33b9	0.2413
105	0xa7e9	-0.0309
106	0xb58b	-0.3464
107	0xb3a4	-0.2388
108	0xb623	-0.3835
109	0xb436	-0.2632
110	0x3af0	0.867
111	0xb65a	-0.397
112	0xb164	-0.1685
113	0xb086	-0.1414
114	0x291b	0.0399
115	0x2c00	0.0625
116	0xa6fc	-0.02728
117	0x350d	0.3157
118	0xa9b1	-0.04446
119	0xad37	-0.0815
120	0xb81a	-0.5127
121	0x30d0	0.1504
122	0x2f9e	0.119
123	0x3007	0.1259
124	0xb30d	-0.2203
125	0x326c	0.2007
126	0x9f22	-0.006966
127	0x22d9	0.013374

arith.constant64 f2 [16, 1, 1, 16]
0	0x334f	0.2284
1	0x33a4	0.2388
2	0x33b2	0.2405
3	0x2ee8	0.1079
4	0xb288	-0.2041
5	0x2dc6	0.0902
6	0x2e2d	0.0965
7	0xb3d4	-0.2446
8	0x32ed	0.2164
9	0xaf2b	-0.112
10	0x2c37	0.06586
11	0xb01e	-0.1287
12	0xa2fe	-0.01366
13	0x306c	0.1382
14	0xb31e	-0.2224
15	0x3303	0.2191
16	0x3036	0.1316
17	0x3116	0.1589
18	0xb0ae	-0.1462
19	0x29f6	0.04657
20	0x2857	0.0339
21	0x2dd0	0.0908
22	0x3393	0.2367
23	0xabb0	-0.06006
24	0x2709	0.02748
25	0x2d5b	0.0837
26	0x28fd	0.03897
27	0x31b2	0.178
28	0x31cf	0.1815
29	0x2ffa	0.12463
30	0xaee6	-0.1078
31	0x2c63	0.06854
32	0xa832	-0.03278
33	0x2dfc	0.0935
34	0xb1fe	-0.1873
35	0x9f5c	-0.007187
36	0xacf5	-0.07745
37	0xaee5	-0.1077
38	0xb00d	-0.1266
39	0xb080	-0.1406
40	0x3377	0.2333
41	0xac6f	-0.0693
42	0x330f	0.2206
43	0x3109	0.1573
44	0x2f20	0.1113
45	0xb18c	-0.1733
46	0x32f2	0.217
47	0xad4e	-0.0829
48	0x2621	0.02394
49	0x3101	0.1564
50	0xae5d	-0.0994
51	0x3320	0.2227
52	0x3375	0.233
53	0xb0e6	-0.1531
54	0x3192	0.1741
55	0xb310	-0.2207
56	0x32c8	0.2119
57	0x312c	0.1616
58	0xb0cc	-0.1499
59	0x2a56	0.0495
60	0x2b87	0.0588
61	0x32d2	0.2131
62	0x1957	0.002607
63	0x2888	0.0354
64	0x31b9	0.1788
65	0x317a	0.1711
66	0x33a7	0.2391
67	0x2ae7	0.05392
68	0x316c	0.1694
69	0x313c	0.1636
70	0x33c4	0.2427
71	0xb3cf	-0.244
72	0xa421	-0.01613
73	0xaebb	-0.10516
74	0x32ea	0.2161
75	0x316a	0.1692
76	0x302f	0.1307
77	0x1c35	0.00411
78	0xad0b	-0.0788
79	0x2932	0.0406
80	0xafbf	-0.12103
81	0xaddf	-0.09174
82	0xa8ca	-0.0374
83	0x2fdb	0.12274
84	0x318a	0.1731
85	0x2357	0.014336
86	0x3069	0.1378
87	0x3028	0.1299
88	0x2ae8	0.05396
89	0xabd0	-0.06104
90	0xa840	-0.0332
91	0x31d1	0.1818
92	0xab33	-0.05624
93	0x2fdd	0.12286
94	0xb31e	-0.2224
95	0x2edb	0.1071
96	0xaf6a	-0.11584
97	0xa4fd	-0.01949
98	0x2c30	0.0654
99	0xb32e	-0.2244
100	0x2e41	0.0977
101	0xac35	-0.06573
102	0x24a2	0.0181
103	0xb0c6	-0.1492
104	0x2d14	0.07935
105	0x2e53	0.0988
106	0xae67	-0.10004
107	0xa40f	-0.01585
108	0x2c9b	0.07196
109	0xa668	-0.02502
110	0xaeb6	-0.10486
111	0xad75	-0.08527
112	0xaa57	-0.04953
113	0x2f28	0.1118
114	0xb0bd	-0.1481
115	0xac7c	-0.07007
116	0xadb6	-0.08923
117	0xb1b0	-0.1777
118	0x3274	0.2017
119	0xb0ac	-0.146
120	0x9cee	-0.004814
121	0x316a	0.1692
122	0xae87	-0.102
123	0x2d68	0.0845
124	0x3178	0.1709
125	0xb283	-0.2035
126	0xa8e6	-0.03827
127	0x3351	0.2286
128	0x2bce	0.06097
129	0x2fd0	0.1221
130	0xb1cd	-0.1813
131	0xb035	-0.1315
132	0x3123	0.1605
133	0xb0d0	-0.1504
134	0x3304	0.2192
135	0xb26d	-0.2008
136	0xb1fe	-0.1873
137	0x33f7	0.2489
138	0xb240	-0.1953
139	0x25c7	0.02257
140	0x31e9	0.1847
141	0xad8e	-0.0868
142	0x3218	0.1904
143	0x23e2	0.015396
144	0x3122	0.1604
145	0x2d76	0.0853
146	0xb1c8	-0.1807
147	0x20e9	0.00959
148	0x2f0b	0.11005
149	0x9d8c	-0.005417
150	0xb1e9	-0.1847
151	0x30b7	0.1473
152	0xb39f	-0.2382
153	0xac6f	-0.0693
154	0x33ba	0.2415
155	0xa673	-0.02519
156	0xb07a	-0.1399
157	0xb27c	-0.2026
158	0x33f0	0.248
159	0xb037	-0.1317
160	0x30f0	0.1543
161	0xabb4	-0.06018
162	0x2436	0.01645
163	0xb15a	-0.1672
164	0xa885	-0.0353
165	0xa819	-0.032
166	0x31c1	0.1798
167	0xb0b2	-0.1467
168	0x33eb	0.2474
169	0xb18d	-0.1735
170	0xb31b	-0.222
171	0x338c	0.2358
172	0xb002	-0.1252
173	0x3099	0.1437
174	0x2fee	0.1239
175	0x3005	0.1256
176	0xb093	-0.143
177	0xb3ea	-0.2473
178	0xad3d	-0.08185
179	0x2bb2	0.06012
180	0xa96f	-0.04245
181	0xa338	-0.0141
182	0xb141	-0.1642
183	0xb0a2	-0.1448
184	0x30b2	0.1467
185	0x2fe8	0.12354
186	0xb388	-0.2354
187	0xb335	-0.2252
188	0xaa71	-0.05032
189	0xa617	-0.02379
190	0xb257	-0.1981
191	0xaf76	-0.1166
192	0x323b	0.1947
193	0x2142	0.01027
194	0x9d6d	-0.0053
195	0xb338	-0.2256
196	0xaf86	-0.11755
197	0x310a	0.1575
198	0xb25a	-0.1985
199	0xb090	-0.1426
200	0x2875	0.03482
201	0x30f5	0.1549
202	0x2c05	0.0628
203	0xaeef	-0.10834
204	0x2b04	0.0548
205	0x26a4	0.02594
206	0x9eeb	-0.006756
207	0xa559	-0.02089
208	0xacfe	-0.078
209	0x3239	0.1945
210	0xae5d	-0.0994
211	0x31ac	0.1772
212	0x2a68	0.05005
213	0xa689	-0.02553
214	0x316a	0.1692
215	0x3098	0.1436
216	0xa889	-0.03543
217	0x31fc	0.187
218	0xa529	-0.02016
219	0xae0a	-0.09436
220	0xac72	-0.06946
221	0xafa6	-0.1195
222	0x2aaf	0.05222
223	0x2dde	0.0917
224	0x2aad	0.05215
225	0xac86	-0.0707
226	0xabf2	-0.06207
227	0xa86b	-0.03452
228	0xb369	-0.2316
229	0x3071	0.1388
230	0x3297	0.2059
231	0x3174	0.1704
232	0x2275	0.01261
233	0x2d17	0.0795
234	0x291a	0.03986
235	0xb319	-0.2218
236	0xb36e	-0.2322
237	0x2d60	0.084
238	0xb22c	-0.1929
239	0x31ae	0.1775
240	0x31e1	0.1837
241	0x2934	0.04065
242	0xb071	-0.1388
243	0xab01	-0.05472
244	0x32cd	0.2125
245	0x30b5	0.1471
246	0x2352	0.0143
247	0x318b	0.1732
248	0xabe4	-0.06165
249	0xa22a	-0.01204
250	0x31c8	0.1807
251	0x3340	0.2266
252	0xa68b	-0.02556
253	0xa8a4	-0.03625
254	0x303d	0.1324
255	0xacf7	-0.0776

arith.constant65 f2 [1, 3, 1, 16]
0	0x3475	0.2786
1	0x2cf4	0.0774
2	0x34b1	0.2932
3	0xb07a	-0.1399
4	0x3509	0.3147
5	0xb5b7	-0.3572
6	0x35b3	0.3562
7	0x379e	0.476
8	0xb819	-0.512
9	0x3803	0.5015
10	0xb401	-0.2502
11	0xac60	-0.06836
12	0xa71d	-0.02779
13	0x3406	0.2515
14	0xb21c	-0.1909
15	0xb4b1	-0.2932
16	0x3547	0.3298
17	0x376b	0.4636
18	0x2c81	0.0704
19	0x246b	0.01726
20	0xb55f	-0.3357
21	0x31bf	0.1796
22	0x2e36	0.09705
23	0xb80c	-0.506
24	0x320c	0.189
25	0x37a4	0.4775
26	0xaca2	-0.0724
27	0xb4eb	-0.3074
28	0xb5fa	-0.3735
29	0x3211	0.1896
30	0x35b7	0.3572
31	0x3532	0.3247
32	0xb5ee	-0.3706
33	0x2c5d	0.0682
34	0xb50f	-0.3162
35	0x35da	0.3657
36	0x3807	0.5034
37	0x3355	0.2291
38	0xb4f0	-0.3086
39	0xa587	-0.02159
40	0x32f5	0.2174
41	0x363f	0.3904
42	0xb4b0	-0.293
43	0x3781	0.469
44	0xb40f	-0.2537
45	0xb7cf	-0.488
46	0xb76c	-0.4639
47	0x37c3	0.485

arith.constant66 f2 [16, 1, 1, 16]
0	0xb3ce	-0.2439
1	0x2f44	0.1135
2	0x20bf	0.00927
3	0x2d95	0.0872
4	0xb21c	-0.1909
5	0xb150	-0.166
6	0xad63	-0.08417
7	0xb085	-0.1412
8	0x30cd	0.15
9	0xad9e	-0.08777
10	0x2569	0.02113
11	0xa1f5	-0.011635
12	0xa8d6	-0.03778
13	0x3178	0.1709
14	0x2d61	0.08405
15	0x331a	0.2219
16	0x2df0	0.0928
17	0xb2d9	-0.214
18	0x9c9e	-0.00451
19	0xac52	-0.0675
20	0x2e93	0.1027
21	0x31b9	0.1788
22	0x3233	0.1937
23	0xaa8c	-0.05115
24	0xb327	-0.2235
25	0x3149	0.1652
26	0x2bb1	0.0601
27	0x3375	0.233
28	0xb1e5	-0.1842
29	0xad89	-0.0865
30	0xb04f	-0.1346
31	0xb159	-0.1671
32	0x2f45	0.1136
33	0x2aa0	0.05176
34	0xb0ce	-0.1501
35	0xa9ad	-0.04434
36	0xae2e	-0.09656
37	0xa79c	-0.02972
38	0xa11e	-0.009995
39	0x227c	0.012665
40	0x2dd5	0.0911
41	0x30ff	0.1561
42	0x2e61	0.0997
43	0xb128	-0.1611
44	0x1c66	0.004295
45	0x25b0	0.02222
46	0xad0c	-0.07886
47	0xb3c7	-0.243
48	0xad5f	-0.0839
49	0xb035	-0.1315
50	0xb2cd	-0.2125
51	0x2e3c	0.0974
52	0x2c60	0.06836
53	0x33a0	0.2383
54	0xb01b	-0.1283
55	0x22f6	0.013596
56	0x2cc2	0.07434
57	0xa0b9	-0.009224
58	0xb0c6	-0.1492
59	0x3309	0.2198
60	0x1f2b	0.007
61	0xad3c	-0.0818
62	0x3346	0.2273
63	0x303e	0.1326
64	0x30dd	0.152
65	0x32dd	0.2145
66	0x2ca6	0.07263
67	0x2405	0.0157
68	0xa78f	-0.02953
69	0x26c1	0.02638
70	0xad0e	-0.079
71	0x2e23	0.0959
72	0xad95	-0.0872
73	0xa1ab	-0.01107
74	0xaa8d	-0.05118
75	0x2e12	0.09485
76	0xb1b9	-0.1788
77	0xaaca	-0.05304
78	0xb03a	-0.1321
79	0x3203	0.1879
80	0x30ad	0.1461
81	0xa9b8	-0.04468
82	0xa910	-0.03955
83	0x2c00	0.0625
84	0x2c77	0.06976
85	0xaf57	-0.1147
86	0xb0fb	-0.1556
87	0xa696	-0.02573
88	0x10e2	0.000596
89	0xaf46	-0.11365
90	0xb063	-0.1371
91	0x2e1a	0.09534
92	0x30e9	0.1534
93	0xa405	-0.0157
94	0x9c2e	-0.00408
95	0xb3ef	-0.2479
96	0xb0f3	-0.1547
97	0xb142	-0.1643
98	0xb162	-0.1682
99	0xa8c3	-0.0372
100	0x32d1	0.213
101	0xb199	-0.1749
102	0x2e91	0.1026
103	0x2c3e	0.0663
104	0x3175	0.1705
105	0xb2e8	-0.2158
106	0xb128	-0.1611
107	0x2c8a	0.0709
108	0x2fbb	0.1208
109	0xaf02	-0.1095
110	0x3220	0.1914
111	0x302b	0.1302
112	0xb269	-0.2003
113	0xacd0	-0.0752
114	0xaffe	-0.1249
115	0x2fdb	0.12274
116	0xb324	-0.2231
117	0x3140	0.1641
118	0x283a	0.03302
119	0x2970	0.04248
120	0x2dbf	0.0898
121	0x2297	0.01287
122	0xb0d3	-0.1508
123	0xac60	-0.06836
124	0x9f8a	-0.007362
125	0x29fc	0.04675
126	0x2a72	0.05035
127	0x3318	0.2217
128	0xab5c	-0.0575
129	0xafd2	-0.1222
130	0x3066	0.1375
131	0xab97	-0.0593
132	0x328e	0.2048
133	0x335e	0.2302
134	0x33ea	0.2473
135	0x20b8	0.00922
136	0x2f43	0.11346
137	0xaf37	-0.11273
138	0x27d4	0.03058
139	0xab87	-0.0588
140	0x315b	0.1674
141	0xacc4	-0.07446
142	0xaf07	-0.1098
143	0x30d0	0.1504
144	0x2afd	0.0546
145	0x2c5c	0.0681
146	0xb008	-0.126
147	0xadc6	-0.0902
148	0x28ed	0.03848
149	0x30e2	0.1526
150	0xad83	-0.0861
151	0x2dd4	0.09106
152	0xafc4	-0.12134
153	0xae64	-0.09985
154	0x2eeb	0.1081
155	0x315d	0.1676
156	0xb045	-0.1334
157	0xb00f	-0.1268
158	0xadce	-0.0907
159	0xb22c	-0.1929
160	0x31aa	0.177
161	0xaedf	-0.10736
162	0xb330	-0.2246
163	0xab24	-0.0558
164	0x2f33	0.1125
165	0x305e	0.1365
166	0xb138	-0.1631
167	0x9d6d	-0.0053
168	0xaa26	-0.04803
169	0xb201	-0.1876
170	0xaa4a	-0.04913
171	0xb103	-0.1566
172	0xacba	-0.07385
173	0x33b7	0.2411
174	0xb271	-0.2013
175	0x3092	0.1428
176	0x33d0	0.2441
177	0x328f	0.205
178	0x3028	0.1299
179	0xb263	-0.1996
180	0xacb8	-0.0737
181	0xb28f	-0.205
182	0xb02e	-0.1306
183	0xb352	-0.2288
184	0xb2bc	-0.2104
185	0xb263	-0.1996
186	0x2eeb	0.1081
187	0xa489	-0.01772
188	0x2fcd	0.1219
189	0x9d77	-0.005337
190	0x2f07	0.1098
191	0xac6e	-0.0692
192	0xaabd	-0.05264
193	0x3248	0.1963
194	0xb1f1	-0.1857
195	0xac35	-0.06573
196	0x29d7	0.04562
197	0xb1b6	-0.1785
198	0xaf3f	-0.1132
199	0xa5de	-0.02292
200	0xb3d5	-0.2448
201	0xad43	-0.0822
202	0x2398	0.01483
203	0x30ab	0.1459
204	0x2938	0.04077
205	0x2a86	0.05096
206	0xb272	-0.2014
207	0xb14f	-0.1659
208	0xae6f	-0.1005
209	0x2e3c	0.0974
210	0x3291	0.2052
211	0xb157	-0.1669
212	0x31e6	0.1843
213	0x29f1	0.04642
214	0xb246	-0.196
215	0xa6f1	-0.02711
216	0x3326	0.2234
217	0x308a	0.1418
218	0xa5a4	-0.02203
219	0xad00	-0.0781
220	0xa847	-0.03342
221	0xac30	-0.0654
222	0xb2af	-0.2089
223	0xa74a	-0.02847
224	0xa200	-0.01172
225	0x2e26	0.09607
226	0xaaa4	-0.05188
227	0x324a	0.1965
228	0x2a81	0.0508
229	0x253c	0.02045
230	0xb260	-0.1992
231	0xb1a3	-0.1761
232	0x317d	0.1715
233	0x32ee	0.2166
234	0x29f0	0.0464
235	0xb1ca	-0.1809
236	0x33b5	0.2408
237	0x260e	0.02365
238	0xa6a5	-0.02596
239	0x2c4b	0.0671
240	0xb2b3	-0.2094
241	0x2f6b	0.1159
242	0xb321	-0.2228
243	0xafde	-0.1229
244	0xb0cd	-0.15
245	0x2d55	0.0833
246	0xb2d4	-0.2134
247	0x33ff	0.2499
248	0x33be	0.242
249	0x2f01	0.10944
250	0x24c8	0.01868
251	0xb0c3	-0.1488
252	0xb0fd	-0.1559
253	0xa7f0	-0.031
254	0x241d	0.01607
255	0xb138	-0.1631

arith.constant67 f2 [16, 1, 1, 16]
0	0x32d8	0.2139
1	0xa275	-0.01261
2	0x2604	0.0235
3	0xaf43	-0.11346
4	0x2d00	0.0781
5	0x30f2	0.1545
6	0xb1a7	-0.1766
7	0x3085	0.1412
8	0xacb4	-0.0735
9	0xa024	-0.00809
10	0xb1a9	-0.1769
11	0x30b1	0.1466
12	0xac38	-0.0659
13	0x3176	0.1707
14	0x2eb7	0.1049
15	0xb28a	-0.2043
16	0xb054	-0.1353
17	0xa7bc	-0.03021
18	0x2c98	0.0718
19	0x3342	0.2268
20	0x30b8	0.1475
21	0xb3b6	-0.241
22	0xac85	-0.0706
23	0x2684	0.02545
24	0xac06	-0.06287
25	0x332f	0.2245
26	0x30a6	0.1453
27	0xb07d	-0.1403
28	0x2b39	0.05643
29	0x2cd6	0.07556
30	0x318a	0.1731
31	0xa827	-0.03244
32	0xb2dc	-0.2144
33	0x2ca6	0.07263
34	0x2a1c	0.04773
35	0x33d9	0.2452
36	0xb244	-0.1958
37	0x2c9c	0.072
38	0xb147	-0.1649
39	0xb1dd	-0.1832
40	0x26a4	0.02594
41	0xb283	-0.2035
42	0xac7d	-0.0701
43	0x301f	0.1288
44	0xa01c	-0.008026
45	0x319d	0.1754
46	0xad3c	-0.0818
47	0x2cd2	0.0753
48	0x8e60	-0.000389
49	0x9dfe	-0.00585
50	0x302a	0.1301
51	0x26b9	0.02626
52	0x32c3	0.2113
53	0x2c79	0.0699
54	0xb323	-0.223
55	0xa982	-0.04303
56	0xb3b6	-0.241
57	0x2b03	0.05478
58	0x327c	0.2026
59	0x2fb1	0.1202
60	0xaea8	-0.104
61	0x3322	0.2229
62	0xad80	-0.08594
63	0x318c	0.1733
64	0xae34	-0.0969
65	0xacc3	-0.0744
66	0xaf84	-0.11743
67	0xb313	-0.2211
68	0x30e8	0.1533
69	0xb25c	-0.1987
70	0xb1d9	-0.1827
71	0x33e3	0.2465
72	0x32a7	0.2079
73	0x2ea0	0.1035
74	0x315f	0.1678
75	0xb0a3	-0.1449
76	0xb3ad	-0.2399
77	0x328f	0.205
78	0x2bcf	0.061
79	0x2ccb	0.0749
80	0xaedc	-0.1072
81	0xac83	-0.0705
82	0x31fa	0.1868
83	0x30a6	0.1453
84	0xb1a7	-0.1766
85	0x2aef	0.05417
86	0x33da	0.2454
87	0xa74d	-0.02852
88	0x1cc9	0.004673
89	0xa9c0	-0.04492
90	0x2cbd	0.07404
91	0x33e1	0.2462
92	0xb176	-0.1707
93	0xb15f	-0.1678
94	0x2c36	0.0658
95	0xb35b	-0.2299
96	0xa8ab	-0.03647
97	0x30aa	0.1458
98	0x2ce6	0.07654
99	0xabfc	-0.06238
100	0x2d44	0.0823
101	0x33d7	0.245
102	0xae12	-0.09485
103	0x31a5	0.1764
104	0x31bd	0.1793
105	0x3233	0.1937
106	0x3380	0.2344
107	0x3016	0.1277
108	0x2f95	0.11847
109	0x3394	0.2368
110	0xb30a	-0.22
111	0xb34b	-0.2279
112	0xaa9b	-0.0516
113	0xb219	-0.1906
114	0x2f0b	0.11005
115	0xa9f4	-0.0465
116	0xb38f	-0.2362
117	0x1c74	0.00435
118	0x2c38	0.0659
119	0x2945	0.04117
120	0x2a7a	0.0506
121	0x257e	0.02145
122	0x238f	0.01476
123	0x327d	0.2028
124	0x2b2e	0.0561
125	0x2c28	0.06494
126	0x2c9e	0.07214
127	0x3032	0.1311
128	0xb071	-0.1388
129	0xb00d	-0.1266
130	0x2a26	0.04803
131	0x30e1	0.1525
132	0x298b	0.0433
133	0x2297	0.01287
134	0xb2d8	-0.2139
135	0xad67	-0.0844
136	0xae51	-0.0987
137	0xb023	-0.1293
138	0x2c10	0.0635
139	0xac1b	-0.06415
140	0xb360	-0.2305
141	0xb01f	-0.1288
142	0x31ad	0.1774
143	0xb209	-0.1886
144	0x28dd	0.038
145	0xb295	-0.2057
146	0xb2e6	-0.2156
147	0x2c9a	0.0719
148	0xb03c	-0.1323
149	0xb152	-0.1663
150	0x294e	0.04144
151	0x30b2	0.1467
152	0x19db	0.00286
153	0x2c42	0.0665
154	0x9c8c	-0.00444
155	0x2b3d	0.05655
156	0xa20b	-0.0118
157	0x24a4	0.01813
158	0x31af	0.1776
159	0x3115	0.1588
160	0x28ca	0.0374
161	0x3273	0.2015
162	0x2ce7	0.0766
163	0xb11c	-0.1597
164	0x3279	0.2023
165	0x2edf	0.10736
166	0x3169	0.1691
167	0xb3b4	-0.2407
168	0xa87a	-0.03497
169	0x2fc5	0.1214
170	0x3233	0.1937
171	0x1d0c	0.00493
172	0x2175	0.01066
173	0xb1d3	-0.182
174	0x31c4	0.1802
175	0x30b4	0.147
176	0x32dd	0.2145
177	0x3321	0.2228
178	0xad5c	-0.08374
179	0xae50	-0.09863
180	0xb208	-0.1885
181	0xb1b9	-0.1788
182	0x2e98	0.103
183	0x280d	0.03165
184	0xacb9	-0.0738
185	0x2c2c	0.0652
186	0x316d	0.1696
187	0x32dc	0.2144
188	0xb3f0	-0.248
189	0x329a	0.2063
190	0x313e	0.1638
191	0x3019	0.128
192	0x30ff	0.1561
193	0x3308	0.2197
194	0xb0f9	-0.1554
195	0x2faa	0.11975
196	0x2951	0.04153
197	0xb36a	-0.2317
198	0x334b	0.2279
199	0xa33d	-0.01414
200	0x286c	0.03455
201	0xb0ad	-0.1461
202	0x25cc	0.02264
203	0xb2c9	-0.212
204	0x33fe	0.2498
205	0xa405	-0.0157
206	0xa674	-0.0252
207	0x33f7	0.2489
208	0xad3b	-0.0817
209	0x33bf	0.2421
210	0xb109	-0.1573
211	0x331c	0.2222
212	0x2e7a	0.1012
213	0xac25	-0.06476
214	0x2d8a	0.08655
215	0x3126	0.1609
216	0x3182	0.1721
217	0xb204	-0.188
218	0x30b1	0.1466
219	0x3133	0.1625
220	0x33af	0.2401
221	0x2e3d	0.0975
222	0xafbf	-0.12103
223	0x2357	0.014336
224	0x331b	0.222
225	0xb2fd	-0.2184
226	0x31c0	0.1797
227	0xa2cf	-0.0133
228	0xb2c6	-0.2117
229	0xb29c	-0.2065
230	0x2e4d	0.09845
231	0xaa34	-0.04846
232	0x3238	0.1943
233	0x28fd	0.03897
234	0x2f5f	0.1152
235	0xb293	-0.2054
236	0x2e24	0.09595
237	0x30c5	0.149
238	0xb1bf	-0.1796
239	0x323b	0.1947
240	0x3314	0.2212
241	0x2570	0.02124
242	0xac6d	-0.06915
243	0xa00a	-0.00789
244	0x336c	0.2319
245	0xa079	-0.008736
246	0xb320	-0.2227
247	0x3390	0.2363
248	0x30d1	0.1505
249	0x2fa6	0.1195
250	0x3366	0.2312
251	0xaa44	-0.04895
252	0xb1a7	-0.1766
253	0x3118	0.1592
254	0xb309	-0.2198
255	0xb3bc	-0.2417

arith.constant68 f2 [1, 3, 1, 16]
0	0x3896	0.573
1	0xb848	-0.535
2	0x36b7	0.4197
3	0x19eb	0.00289
4	0xa57a	-0.0214
5	0x2aec	0.05408
6	0xb49f	-0.2888
7	0x34a2	0.2896
8	0xb466	-0.275
9	0x26f6	0.02719
10	0xb855	-0.5415
11	0x28fa	0.03888
12	0xaede	-0.1073
13	0x2cb5	0.07355
14	0xb6e0	-0.4297
15	0x32e8	0.2158
16	0xb7c9	-0.4866
17	0x31ab	0.1771
18	0x3635	0.388
19	0xb188	-0.1729
20	0x34e1	0.305
21	0xaddd	-0.0916
22	0x37a7	0.4783
23	0x34b9	0.2952
24	0x382c	0.5215
25	0x36dd	0.429
26	0xb764	-0.462
27	0xaa34	-0.04846
28	0xb861	-0.5474
29	0xa6eb	-0.02702
30	0x380d	0.5063
31	0x29cd	0.04532
32	0x3289	0.2042
33	0x3575	0.341
34	0x2fac	0.1199
35	0xaef9	-0.10895
36	0x35cf	0.363
37	0x2924	0.04016
38	0x3026	0.1296
39	0xb7ac	-0.4795
40	0x3592	0.3481
41	0xb278	-0.2021
42	0xb694	-0.4111
43	0x31b6	0.1785
44	0x319a	0.175
45	0x318d	0.1735
46	0xb0c1	-0.1486
47	0xb5cb	-0.362
