gtcrn_micro/models/tflite/gtcrn_micro_float32.tflite (tflite, 242148 bytes, 104 tensors)

arith.constant f4 [8]
0	0xbeeb5a4c	-0.4596733
1	0x3fc55c58	1.5418806
2	0x3f3253a7	0.69658893
3	0xc09116a4	-4.5340137
4	0x4000c52a	2.012034
5	0xc01e5f88	-2.4745808
6	0xbedc5bdc	-0.43038833
7	0xbff82794	-1.9387078

arith.constant1 f4 [16]
0	0x3fab7e4c	1.3397918
1	0xbf8aed86	-1.0853736
2	0xbf4c66d1	-0.79844385
3	0x3eca1b2a	0.3947385
4	0xbdbe50fa	-0.09292789
5	0x3e49f5c5	0.1972266
6	0x3ee7b802	0.45257574
7	0xbf86f3de	-1.0543172
8	0x3e91910f	0.28430983
9	0x3ebee699	0.37285307
10	0xc0934840	-4.6025696
11	0x3f3d71a7	0.74001545
12	0xbe817490	-0.25284243
13	0x3f1fc375	0.6240762
14	0x3f13ff9d	0.5781191
15	0xbfa2b8c6	-1.2712638

arith.constant2 f4 [8]
0	0x3fe43e3d	1.7831494
1	0xbe371d00	-0.17882156
2	0xc035ceb6	-2.8407416
3	0xbe230e94	-0.1592353
4	0xbffd59a0	-1.9792976
5	0x3f4088fc	0.7520902
6	0xbf6b3e58	-0.91892004
7	0x3efec50c	0.4975971

arith.constant3 f4 [16]
0	0x3f0d63df	0.55230516
1	0xbfdbd027	-1.7172898
2	0x3e9024ea	0.28153163
3	0x3e3c6797	0.18398891
4	0x3f80b14c	1.0054107
5	0xbf87ce45	-1.0609823
6	0x3f8980d4	1.074244
7	0x3f0e80f5	0.5566552
8	0x3f8915c3	1.0709766
9	0x3f2433fa	0.6414181
10	0xbee1cd67	-0.44102022
11	0x3e66e592	0.22548512
12	0x3f076f73	0.52904433
13	0xbf5339cb	-0.8251006
14	0x3f95786a	1.1677372
15	0x3e6dcc37	0.23222433

arith.constant4 f4 [8]
0	0x403900b8	2.8906689
1	0xbda08a28	-0.07838851
2	0xbf82a315	-1.0206019
3	0x3fc0b099	1.5053893
4	0x40268e36	2.6024299
5	0xbf008004	-0.50195336
6	0x4081c2ab	4.055013
7	0x3f3c2231	0.7348967

arith.constant5 f4 [16]
0	0xbef3c09c	-0.47607887
1	0x3e669d38	0.22520912
2	0x3e2c9e91	0.16857363
3	0x3ea02c81	0.31283954
4	0x3f8add9a	1.0848877
5	0xbe41f6cf	-0.18941806
6	0x3f77d87e	0.96814716
7	0x3ef3f901	0.47650912
8	0xbdcc3e35	-0.099728025
9	0xbf9f3805	-1.2438971
10	0x3f95f92e	1.1716669
11	0x3f312312	0.6919414
12	0xbf7eeec2	-0.99583066
13	0x3fd40448	1.6563807
14	0xbfdbf6db	-1.7184709
15	0xbec734f6	-0.38907593

arith.constant6 f4 [8, 1, 1, 16]
0	0xbef0caec	-0.47029817
1	0xbec003ee	-0.37502998
2	0xbd0c94c4	-0.03432156
3	0xbe82da9c	-0.2555741
4	0x3fbd0ba6	1.476918
5	0x3ed22124	0.4104091
6	0xbf069174	-0.52565694
7	0x3e0cffc3	0.1376944
8	0x3ef88644	0.48539937
9	0xbee35745	-0.4440252
10	0x400ccb78	2.1999187
11	0x3f36ed8c	0.7145622
12	0xbeb9ef39	-0.36315325
13	0x3f80fa95	1.0076472
14	0xbf37fb56	-0.71867883
15	0xbf2286f7	-0.6348719
16	0xc00c5d5e	-2.1931987
17	0xbecf2beb	-0.40463194
18	0xbe397c7f	-0.18113898
19	0x3eacabfd	0.33724967
20	0x3f9cb0b4	1.2241426
21	0xbf45c72a	-0.77257025
22	0xbef95898	-0.48700404
23	0xbf421914	-0.75819516
24	0xbf12b649	-0.57309395
25	0xbddd0215	-0.10791413
26	0xbf94271d	-1.1574436
27	0xbf9b5394	-1.2134881
28	0x3ee51325	0.4474117
29	0xbfbb859a	-1.4650147
30	0x3fe24f58	1.7680464
31	0xbe79f7a5	-0.24410875
32	0xbee302c0	-0.44338036
33	0xbfaeef08	-1.3666697
34	0xbf646cbb	-0.8922841
35	0x3e6613ba	0.22468463
36	0x3f2a449d	0.66510946
37	0x3e782563	0.24233012
38	0xbf87bf8a	-1.0605328
39	0xbf4ffd79	-0.81246144
40	0x3de1cabd	0.110249974
41	0x3f2b83f1	0.669982
42	0x3da94b64	0.08266333
43	0xbecf4948	-0.40485597
44	0x3f12dfa6	0.5737251
45	0x3f62e174	0.88625264
46	0x3f66f209	0.90213066
47	0xbf233c0b	-0.63763493
48	0x3f838bf2	1.0277083
49	0x3fa294cb	1.2701658
50	0x3fd39621	1.6530191
51	0xc007bb96	-2.1208243
52	0x3ec41e7e	0.38304514
53	0x40562302	3.3458867
54	0x3f4ccaeb	0.7999713
55	0xbf4054cc	-0.7512939
56	0x3ff09ded	1.8798195
57	0x3d775e19	0.060392473
58	0xbed3d5ac	-0.41373956
59	0x401bebc0	2.436264
60	0x3f843305	1.032807
61	0x3fb47be0	1.4100304
62	0xbf795fc7	-0.9741177
63	0xbfd16251	-1.6358129
64	0x3fb74eeb	1.4320959
65	0xc010edfc	-2.2645254
66	0xbff57079	-1.9174949
67	0x40102ccc	2.2527342
68	0xbf8135f5	-1.0094591
69	0xbdfb2e96	-0.12264745
70	0xc024e377	-2.5763834
71	0xbdc76077	-0.09735196
72	0x3e59cd21	0.21269657
73	0x3f73d5dc	0.952482
74	0xbf3e5813	-0.7435314
75	0xbeaf0f80	-0.34191513
76	0xbe98427b	-0.2973822
77	0xbd224a36	-0.039621554
78	0x3f84d555	1.0377604
79	0xbfc23417	-1.5172147
80	0xbeae2e71	-0.34019807
81	0x3e4d3ead	0.2004344
82	0x3f1352c3	0.5754816
83	0x3d4ea7dd	0.050453056
84	0x3ebae3b0	0.36501837
85	0x3f4f5a67	0.8099732
86	0xbe13f256	-0.14447913
87	0xbf755bb7	-0.9584307
88	0x3fb38147	1.4023827
89	0x3e8ba3f8	0.27273536
90	0xbf2e7296	-0.68143594
91	0xbeee5ee8	-0.46556783
92	0x3d12ada3	0.035810124
93	0x3caa69ed	0.020802462
94	0x3f7980b5	0.97462016
95	0x3f2e8545	0.68172103
96	0xbf283e91	-0.6572047
97	0xbe8863da	-0.2663868
98	0xbe34f9df	-0.17673443
99	0x3e159b36	0.1460999
100	0x3fbd372d	1.4782463
101	0x3fd1319c	1.6343265
102	0x3e019d9c	0.1265778
103	0x3ff067b3	1.8781646
104	0xbfcb4753	-1.5881141
105	0xbe94a28f	-0.29030272
106	0xbf8858f9	-1.0652152
107	0x3ee6c69a	0.45073396
108	0x3ef10542	0.47074324
109	0x3f742f8b	0.95385045
110	0xbe9ca743	-0.3059636
111	0xbeed6cdd	-0.4637212
112	0xbdcc8cc0	-0.099877834
113	0x3f35918e	0.70925224
114	0xbdd9c7a3	-0.10633781
115	0xbf0d8526	-0.55281293
116	0x3eadf0f6	0.339729
117	0xbddf1197	-0.10892027
118	0x3f6375fb	0.888519
119	0x3f3ff690	0.749856
120	0x3dafb77d	0.085799195
121	0x3ebf05ec	0.37309206
122	0xbf7d72ae	-0.9900311
123	0xbfabcd6f	-1.3422068
124	0x3f4c04bd	0.7969473
125	0xbe8adeac	-0.2712301
126	0x3f27d6ec	0.6556232
127	0x3fc3eaf4	1.5306077

arith.constant7 f4 [16, 1, 1, 8]
0	0x3e03695e	0.12833163
1	0xbe3d591c	-0.18491024
2	0x3e6beaa5	0.23038729
3	0xbd339cba	-0.043850638
4	0x3d1857f1	0.037193242
5	0xbe1c03fb	-0.15235893
6	0x3e952a11	0.29133657
7	0x3d2503bf	0.040286776
8	0xbe82a4d6	-0.25516385
9	0x3d81d401	0.06339265
10	0xbe1c9c49	-0.15293993
11	0x3ce209e0	0.0275926
12	0x3dbdb38d	0.09262762
13	0xbe4f062b	-0.20217197
14	0xbe8dba85	-0.27681366
15	0x3e7ff221	0.24994709
16	0x3e249886	0.16073808
17	0x3e9dd3b4	0.3082558
18	0x3d28f875	0.041252572
19	0x3b991a0e	0.0046722954
20	0x3dcc3a5d	0.099720694
21	0xbe3cd639	-0.18441094
22	0x3e974d53	0.2955118
23	0x3e88f920	0.26752567
24	0x3e0b2ec1	0.13592054
25	0x3e40ea63	0.18839411
26	0x3d0f4551	0.034978215
27	0xbcfe52f3	-0.031045413
28	0xbe96896e	-0.29401726
29	0x3d40f997	0.047113027
30	0x3c009f05	0.007850413
31	0xbdd8b483	-0.10581305
32	0x3d2b87e2	0.041877635
33	0x3d835cb0	0.06414163
34	0xbd55997f	-0.05214834
35	0xbbfdab2d	-0.007741353
36	0x3e843bd3	0.25826892
37	0xbd434fa7	-0.047683384
38	0x3ca2a8de	0.019855913
39	0x3cb9ab6f	0.022664754
40	0x3df6af96	0.12045209
41	0xbe8cd2e8	-0.2750466
42	0xbdb1d800	-0.08683777
43	0xbdc69277	-0.09695905
44	0xbda31285	-0.07962517
45	0xbccf9f7e	-0.025344606
46	0x3e65e2a5	0.2244974
47	0x3e1bb950	0.1520741
48	0x3e1275ff	0.14302824
49	0xbd00329c	-0.031298265
50	0xbe6b5351	-0.22981001
51	0xbd86362d	-0.06553302
52	0x3de511f0	0.11185062
53	0xbdde1c70	-0.10845268
54	0xbcf7221e	-0.030167636
55	0x3d446017	0.0479432
56	0x3d7981df	0.06091487
57	0xbd8454cf	-0.064614885
58	0xbe39a27f	-0.18128394
59	0x3df4676b	0.11933788
60	0x3e2b4f01	0.16729356
61	0x3ca8317a	0.020531405
62	0xbd8e0cde	-0.06936048
63	0x3cfec240	0.031098485
64	0xbb6ed323	-0.0036441765
65	0x3e7cd4b1	0.2469051
66	0xbe436e2d	-0.19084997
67	0xbd80509a	-0.062653735
68	0xbe22ca4b	-0.15897481
69	0x3ccb933a	0.024850477
70	0xbd32ee62	-0.04368437
71	0xbe8055cf	-0.25065467
72	0x3e3ad12b	0.18243854
73	0xbe41c257	-0.18921791
74	0xbde5251d	-0.111887194
75	0xbcf86c20	-0.030324996
76	0x3cec075d	0.028812105
77	0xbeca6393	-0.39529094
78	0xbe7e968c	-0.24862117
79	0xbe08cbdd	-0.13359018
80	0x3db58489	0.0886317
81	0x3e005fca	0.1253654
82	0xbe110824	-0.14163262
83	0x3d9ac9e1	0.075580366
84	0x3e1c9004	0.15289313
85	0xbe9ae53b	-0.30253014
86	0xbee79b0e	-0.45235485
87	0x3ec5b717	0.3861625
88	0xbc80eab0	-0.015736908
89	0xbd7be936	-0.061501704
90	0x3d5ca10b	0.05386452
91	0xbe088371	-0.13331391
92	0xbd05e195	-0.032685835
93	0x3b87bf8c	0.004142707
94	0xbe0c67f3	-0.13711528
95	0x3bdd806b	0.0067596934
96	0xbe5adca5	-0.21373232
97	0x3d95f333	0.07321777
98	0x3e4452cd	0.19172211
99	0xbddec6b3	-0.108777426
100	0xbcd624ad	-0.026140535
101	0xbbcfa903	-0.0063372864
102	0xbbd2080e	-0.0064096516
103	0x3d5e3f82	0.054259785
104	0xbde3dc79	-0.11126036
105	0x3d26bbad	0.040706325
106	0xbe292d6a	-0.1652123
107	0xbd711ecc	-0.05886726
108	0xbe7508d2	-0.23929146
109	0xbe12ce05	-0.14336403
110	0xbd38fc30	-0.04516238
111	0xbdaf0a53	-0.08546891
112	0xbe587bab	-0.21140926
113	0xbe02c0aa	-0.12768808
114	0xbd3cb535	-0.04607125
115	0xbd98adc4	-0.07455018
116	0x3c199377	0.009373537
117	0xbda2f2f6	-0.07956497
118	0xbe0ed525	-0.13948496
119	0xbddd37b1	-0.10801638
120	0x3e39b6f4	0.18136197
121	0x3cd08ffe	0.025459286
122	0xbe014169	-0.12622608
123	0x3e11b781	0.14230157
124	0x3cb31b77	0.021863682
125	0xbeb41fe5	-0.35180584
126	0xbe1ecece	-0.15508577
127	0x3e8d6602	0.27616888

arith.constant8 f4 [8, 1, 1, 16]
0	0xbf399498	-0.7249236
1	0xbf316bcf	-0.6930513
2	0x3d609f41	0.054839376
3	0xbf4e8e09	-0.8068548
4	0xbf48e02d	-0.78467065
5	0xbeb744d4	-0.357947
6	0xbf0453fc	-0.5169065
7	0x3dcc0026	0.09960966
8	0x3f661152	0.8987018
9	0xbf68e2c6	-0.9097103
10	0x3f86537f	1.0494231
11	0x3f1c7660	0.61118126
12	0x3e921176	0.28528947
13	0xbf3c6436	-0.7359041
14	0xbeb8f141	-0.36121562
15	0x3d6a26dc	0.057165965
16	0x3f6665a0	0.8999882
17	0xbf0ebd42	-0.55757535
18	0xbf68248c	-0.90680766
19	0xbd3b1129	-0.045670662
20	0xbf71b57b	-0.9441754
21	0x3df9149c	0.12162134
22	0x3f0fbecb	0.561505
23	0x3f9d8833	1.230719
24	0xbf50563a	-0.8138157
25	0x3fb3e5bb	1.4054483
26	0xbe5bcfdc	-0.21466011
27	0x3d95a495	0.07306782
28	0x3fa2c7f9	1.2717277
29	0x3f3e38e5	0.74305564
30	0xbf3a961f	-0.72885317
31	0xbfaef7f2	-1.3669417
32	0xbf3590c3	-0.70924014
33	0x3fa2ecd7	1.2728528
34	0x3fa75b26	1.3074691
35	0xbf3bcaa1	-0.7335606
36	0x3f72b062	0.9480039
37	0x3ec92b8f	0.39291045
38	0x3f717249	0.9431501
39	0xbef55dbf	-0.47923085
40	0x3f5e2e92	0.8678981
41	0xbf4e85d2	-0.80672944
42	0x3f58ba5e	0.84659374
43	0xbebe2c6a	-0.3714326
44	0x3ec7369f	0.3890886
45	0xbf3c24d9	-0.73493725
46	0x3fab97db	1.3405718
47	0xbf0c86e7	-0.54893345
48	0xbcfdb3a4	-0.030969448
49	0xbf1c803e	-0.6113318
50	0xbdf36f33	-0.11886444
51	0x3ebd1ef8	0.3693769
52	0x3e78bdc4	0.2429114
53	0xbe9056fe	-0.2819137
54	0x3f71a63f	0.94394296
55	0xbf4271aa	-0.7595469
56	0xbde6880e	-0.11256419
57	0x3e82b627	0.25529596
58	0xbf2dd36a	-0.6790072
59	0x3cfc3a13	0.03078941
60	0xbf9aea7d	-1.210281
61	0xbefed4f2	-0.4977184
62	0x3de28100	0.11059761
63	0x3f2f0c1d	0.6837786
64	0x3f8f063f	1.1173781
65	0xbe78e07e	-0.24304387
66	0x3ef378e6	0.47553176
67	0x3f189019	0.59594876
68	0x3ec47b6c	0.38375413
69	0xbfd22ed2	-1.6420538
70	0x3efda683	0.495411
71	0x3e6c9fbc	0.23107809
72	0x3e55b6fd	0.20870586
73	0xbe3e1ef3	-0.18566494
74	0xbe5f2609	-0.21791853
75	0x400f4d06	2.2390761
76	0xbe16d45e	-0.14729449
77	0xbef08a17	-0.46980354
78	0x3eb091c7	0.3448622
79	0xbe7981d5	-0.24365933
80	0xbf8fcea0	-1.1234932
81	0xbefca054	-0.4934107
82	0x3f4948b0	0.7862654
83	0xbc5e7a20	-0.013578922
84	0x3ee1b781	0.44085315
85	0xbf80baf1	-1.005705
86	0xbec3e5fc	-0.38261402
87	0xbe27d7ad	-0.16390868
88	0x3fab3eab	1.33785
89	0xbca2979a	-0.01984768
90	0x3ebf71cb	0.37391505
91	0xbf897cd0	-1.0741215
92	0x3ef6f4b3	0.48233566
93	0x3f362817	0.7115492
94	0xbdaee70c	-0.085401624
95	0x3f073216	0.528108
96	0xbcc54baf	-0.02408394
97	0xbe94044a	-0.28909522
98	0xbed9e883	-0.42560205
99	0x3e521a96	0.20517954
100	0x3d74d704	0.059775367
101	0x3fbb4149	1.4629298
102	0x3edd9577	0.43278095
103	0xbf399214	-0.7248852
104	0x3e58fe37	0.21190725
105	0x3f1f6e6b	0.6227786
106	0xbf34a11b	-0.7055833
107	0xbe16c987	-0.14725314
108	0x3d93ec31	0.07222784
109	0x3e38a521	0.18031742
110	0x3d1aab07	0.03776076
111	0xbce1202a	-0.027481157
112	0x3e08f702	0.13375476
113	0xbf3ecb01	-0.7452851
114	0xbed24e15	-0.41075197
115	0x3d2ca245	0.04214694
116	0xbd4219df	-0.047387954
117	0xbf3ce8b9	-0.73792607
118	0x3e333820	0.17501879
119	0xbf016872	-0.50549996
120	0x3e989d96	0.2980773
121	0xbe9efcdc	-0.3105229
122	0xbe1488d2	-0.14505318
123	0x3f2f5de2	0.6850263
124	0x3e2bcf84	0.1677838
125	0x3e08068a	0.13283744
126	0x3de25c5d	0.11052773
127	0xbe10c830	-0.14138865

arith.constant9 f4 [16, 1, 1, 8]
0	0x3e1154ea	0.14192548
1	0xbe5d2c22	-0.21598867
2	0xbddb0d8c	-0.10695943
3	0x3dd24aa7	0.10268145
4	0xbe5e87d0	-0.21731496
5	0x3d1c6fe0	0.03819263
6	0x3e73646a	0.23768774
7	0x3e3f9016	0.18707308
8	0x3dea51e2	0.11441399
9	0x3edd3099	0.4320114
10	0xbe0932e0	-0.13398314
11	0x3e9ebe47	0.31004545
12	0x3e54c382	0.20777705
13	0xbe91b346	-0.28457087
14	0x3d03d824	0.03218855
15	0x3da9e8ab	0.08296331
16	0x3c12e4a8	0.008965649
17	0xbe57dcab	-0.21080272
18	0x3ecbdf6d	0.39818898
19	0xbe11fd0a	-0.14256683
20	0x3d2949d4	0.041330174
21	0x3c9936e6	0.018702935
22	0xbe61f8c7	-0.22067557
23	0x3dfe2aa6	0.12410478
24	0xbe4ce44f	-0.20008968
25	0x3d6a456a	0.057195105
26	0xbc223f9a	-0.009902859
27	0x3cdaa02b	0.026687702
28	0x3e5bb22d	0.21454687
29	0xbd5530fc	-0.05204867
30	0xbe9b229c	-0.30299842
31	0xbe48cf03	-0.19610219
32	0xbde3d16e	-0.1112393
33	0x3b61f02e	0.0034475434
34	0xbd95fe69	-0.073239155
35	0xbd2f14f1	-0.04274458
36	0x3efddb62	0.49581438
37	0x3e9cba45	0.30610862
38	0x3e11946b	0.14216773
39	0x3db2aae1	0.08723999
40	0xbeaa589b	-0.33270726
41	0x3de64b7d	0.11244867
42	0xbe8ab406	-0.27090472
43	0xbd350c5b	-0.044201236
44	0x3e9f76f5	0.31145445
45	0xbe8bc639	-0.2729967
46	0x3e2243af	0.15846132
47	0x3e0e4d56	0.13896689
48	0xbe5479d4	-0.20749599
49	0xbdfbf35f	-0.12302279
50	0xbe341efb	-0.17589943
51	0xbd3a5d01	-0.04549885
52	0xbee20736	-0.44146127
53	0xbe24db1d	-0.1609921
54	0xbd20a703	-0.039221775
55	0x3d868919	0.06569118
56	0x3e1f15a0	0.15535593
57	0xbea4ee62	-0.32213122
58	0xbe8d5ec5	-0.27611366
59	0xbd955671	-0.07291878
60	0x3ed6dc67	0.4196503
61	0x3c6c2b57	0.01441463
62	0x3d92ed5b	0.07174178
63	0x3db77b96	0.08959119
64	0x3c82e43a	0.015977968
65	0xbba9aa29	-0.0051777554
66	0xbec196dd	-0.37810412
67	0xbe926a22	-0.28596598
68	0xbd003ea0	-0.031309724
69	0xbcaa9490	-0.020822793
70	0x3e57c931	0.21072842
71	0xbe87e56c	-0.26542222
72	0x3e6a6834	0.22891313
73	0xbdd7df76	-0.10540669
74	0xbcfebbf6	-0.031095486
75	0x3e02ed25	0.12785776
76	0xbe313257	-0.1730436
77	0xbc3fe84b	-0.011713098
78	0xbe5c5cab	-0.21519725
79	0xbe03b87b	-0.12863342
80	0x3d65f613	0.056142878
81	0x3ea1d2fd	0.31606284
82	0xbda9b416	-0.08286302
83	0xbe10bfea	-0.1413571
84	0xbe740fa7	-0.23834096
85	0xbbaf5d06	-0.0053516654
86	0xbe95a8b6	-0.2923028
87	0xbe0b97ce	-0.13632128
88	0xbd01378b	-0.03154711
89	0xbd8da2bd	-0.069158055
90	0x3e1517c5	0.14559849
91	0x3d26343e	0.040577166
92	0x3d9b641c	0.07587454
93	0xbdd7a0b0	-0.105286956
94	0x3e7cd28e	0.24689695
95	0x3c449382	0.011998059
96	0xbe33d959	-0.1756338
97	0xbd33f974	-0.04393907
98	0x3e04c2da	0.12964955
99	0xbea273d9	-0.3172901
100	0xbe5848ca	-0.21121517
101	0x3e3ad073	0.1824358
102	0x3cb1fe10	0.021727592
103	0x3e076777	0.13223062
104	0xbdb26363	-0.08710363
105	0x3e9d552c	0.30729043
106	0x3db9eee1	0.09078766
107	0x3e8363d9	0.25662115
108	0x3dacf290	0.084447026
109	0xbed60165	-0.4179794
110	0x3d68cbbb	0.056834918
111	0xbeabe03b	-0.33569512
112	0xbe3ec4ef	-0.18629812
113	0xbea6c0d2	-0.32568985
114	0xbcac79a2	-0.021054093
115	0xbd80a3d7	-0.0628125
116	0xbd9986f9	-0.07496447
117	0x3e3d7839	0.18502893
118	0x3e1a81a1	0.15088512
119	0xbe3808f5	-0.17972167
120	0x3dea6128	0.11444312
121	0x3e0bd6b7	0.13656126
122	0xbed6f117	-0.41980812
123	0x3da22a7a	0.07918258
124	0xbc8f4456	-0.01748864
125	0x3d927ad0	0.07152331
126	0x3e616b8b	0.2201368
127	0xbe8a3ea5	-0.2700092

arith.constant10 f4 [8, 1, 1, 16]
0	0x3ec4a6e2	0.3840857
1	0xbea4560e	-0.32096905
2	0xbe8bbd2d	-0.27292767
3	0x3fb495c4	1.4108205
4	0x3f456442	0.77106106
5	0x3d25c23b	0.040468436
6	0xbe9e1dfc	-0.3088225
7	0xbf45e983	-0.77309436
8	0xbf7cd830	-0.98767376
9	0x3eec6c02	0.46176153
10	0xc04bc8ff	-3.1841428
11	0xbe727a70	-0.23679519
12	0x3deab61b	0.11460515
13	0x3c2c013b	0.01049834
14	0x3f11f946	0.57020986
15	0x3f1d69af	0.61489385
16	0x3eb2419d	0.34815684
17	0xbeb4fb4b	-0.3534797
18	0xbf536355	-0.82573444
19	0x3f11f1a2	0.5700933
20	0x3e947b7a	0.29000455
21	0xbf94dcec	-1.162992
22	0x3f7b7f98	0.9824157
23	0x3f5ff884	0.8748858
24	0x3eda6f05	0.42662826
25	0x3f96f0a8	1.1792192
26	0xbe025c32	-0.12730482
27	0xbfaf0866	-1.3674438
28	0x3f2b37e2	0.66882145
29	0xbd22d767	-0.039756205
30	0x3f6d59d5	0.927152
31	0xbf8f4b6e	-1.1194894
32	0x3eeb6353	0.45974216
33	0xbfbc5bb5	-1.4715487
34	0x3f66d3db	0.90167016
35	0x3f51ea50	0.8199816
36	0xbedd65ab	-0.4324163
37	0xbf9d1255	-1.227122
38	0xbf360f89	-0.71117455
39	0xbf3753a1	-0.7161198
40	0x3f1a73f8	0.60333204
41	0xbef54f06	-0.47911853
42	0x3f12a68e	0.5728539
43	0x3ea2ae47	0.31773588
44	0x3faab4fa	1.333648
45	0x3f6a915b	0.91628045
46	0xbf21d379	-0.63213307
47	0x3ee63c01	0.44967654
48	0x3fb788e1	1.4338647
49	0xbf1b7a02	-0.60733044
50	0xbf107edd	-0.5644358
51	0x3e1487fb	0.14504997
52	0xbe9e8939	-0.30964068
53	0xbf357205	-0.70877105
54	0x3f7232de	0.9460887
55	0x3f8886f9	1.066619
56	0x3fb3732d	1.4019524
57	0x3fe07f18	1.7538786
58	0xbd60945e	-0.054828994
59	0xbf9b2ab2	-1.2122405
60	0x3f0cc016	0.549806
61	0xbf9682c2	-1.1758654
62	0xbf575d2e	-0.84126556
63	0xbff28103	-1.8945621
64	0x3e0910ff	0.1338539
65	0xbf678d3d	-0.9044989
66	0xbda187ca	-0.07887228
67	0x3d4bad09	0.049725566
68	0xbfa0eda7	-1.2572526
69	0x3e893e6d	0.2680544
70	0x3ec380f3	0.38184318
71	0x3e50b70a	0.20382324
72	0xbea01abd	-0.312704
73	0x3e099d59	0.1343893
74	0xbda49ad8	-0.080373466
75	0xbcc5fe94	-0.024169244
76	0xbe2f5ec1	-0.1712599
77	0xbdab48cf	-0.083634965
78	0xbee756f0	-0.45183516
79	0xbdfc83e9	-0.12329847
80	0x3edc171b	0.42986378
81	0x3e867ff7	0.26269504
82	0x3e1bcfee	0.15216038
83	0x3e3103a2	0.17286542
84	0x3eacf8ae	0.33783478
85	0xbf45b03e	-0.7722205
86	0xbf704c5d	-0.9386652
87	0x3f4d5310	0.8020487
88	0x3e9fdef4	0.31224787
89	0x3d8cebbe	0.06880902
90	0xbd7d5a4c	-0.061853692
91	0xbf0e50aa	-0.55591834
92	0x3eada4ca	0.33914787
93	0x3b9a9d8f	0.0047184895
94	0xbe4b7570	-0.19869018
95	0xbe70a6eb	-0.23501174
96	0x3f745063	0.9543516
97	0x3f0c1b0b	0.54728764
98	0x3e7c9c6b	0.24669044
99	0xbe8a60d4	-0.27027
100	0xc0245ddf	-2.5682294
101	0x3c9c4369	0.019075112
102	0xbeff18d2	-0.49823624
103	0xc01b7a6f	-2.4293478
104	0x3e7f9f33	0.24963073
105	0x3f18c124	0.5966971
106	0xbf26d454	-0.65167737
107	0xbf0bde9c	-0.5463655
108	0x3eea5356	0.45766705
109	0x3ed05e5f	0.40697
110	0xbf1f407d	-0.62207776
111	0x3dcc038f	0.09961616
112	0xbf0ad6a1	-0.5423375
113	0x3ee36c2e	0.44418472
114	0xbf6d2abd	-0.9264334
115	0x3e0581eb	0.13037841
116	0xbf95bc5d	-1.1698109
117	0x3f346189	0.70461327
118	0x3e974a3b	0.2954882
119	0x3e6c87d0	0.23098683
120	0xbee0df90	-0.43920565
121	0x3e8193b6	0.25308007
122	0xbdfe951c	-0.12430784
123	0xbf24889a	-0.6427094
124	0x3e698ee9	0.22808422
125	0xbeea365a	-0.45744592
126	0x3f31f3d4	0.6951268
127	0xbe310201	-0.1728592

arith.constant11 f4 [16, 1, 1, 8]
0	0x3e9ede71	0.31029084
1	0x3f3ddac9	0.74161965
2	0xbe35f51b	-0.17769282
3	0xbe5c86e1	-0.21535827
4	0x3e09445c	0.13404983
5	0xbe836ea1	-0.2567034
6	0xbcb3418b	-0.02188184
7	0x3e6b68b7	0.22989164
8	0xbbf2b03a	-0.0074062617
9	0x3e97f528	0.29679227
10	0xbe91adbb	-0.28452858
11	0x3ddf6879	0.109085985
12	0xbe0d7946	-0.13815793
13	0xbec18565	-0.37797084
14	0xbe31915d	-0.17340608
15	0x3e9acddc	0.30235183
16	0xbe14b445	-0.14521892
17	0x3e6d2667	0.2315918
18	0xbdcd077a	-0.10011192
19	0x3e283b4a	0.16428867
20	0xbf0d7359	-0.5525413
21	0xbe3e31d3	-0.18573694
22	0x3d1640e6	0.036682986
23	0xbe2412b4	-0.1602276
24	0xbda9fbdc	-0.082999915
25	0xbe173701	-0.14767076
26	0x3e209cc1	0.15684797
27	0x3e131a94	0.14365608
28	0x3e3f62c4	0.1869002
29	0xbe8204d9	-0.25394323
30	0x3e340de8	0.1758343
31	0xbe99cc82	-0.3003884
32	0xbedd35a6	-0.43204993
33	0x3d473ac7	0.04864004
34	0x3d8fb078	0.070160806
35	0xbe28cd8e	-0.16484663
36	0xbd5571c8	-0.052110463
37	0x3c8d21a7	0.01722796
38	0x3d116099	0.035492513
39	0xbd296bb8	-0.041362494
40	0x3e2fa361	0.17152168
41	0x3d3baa99	0.04581699
42	0x3e972ec3	0.29527864
43	0xbeae7b2f	-0.34078357
44	0x3d5d288f	0.053993758
45	0xbe6cdaa9	-0.23130287
46	0xbde59b52	-0.112112656
47	0xbc21f977	-0.009886137
48	0xbcd9b8db	-0.026577404
49	0xbe400494	-0.18751746
50	0xbd0081e8	-0.03137389
51	0xbdf13689	-0.1177798
52	0x3e8d9727	0.27654383
53	0x3d19f398	0.037585825
54	0x3e9172dd	0.28407946
55	0xbd69a19f	-0.0570389
56	0xbe3720ef	-0.17883657
57	0xbd7ec5c8	-0.062200338
58	0xbe66a17b	-0.22522537
59	0x3e790070	0.24316573
60	0x3e32df89	0.17468084
61	0x3e75504e	0.23956415
62	0x3dad3692	0.08457674
63	0x3cb5c1b2	0.022187088
64	0x3e115ca1	0.14195491
65	0xbe8f994d	-0.28046647
66	0x3e779c17	0.24180637
67	0xbeba94d9	-0.36441687
68	0xbe9d8255	-0.30763498
69	0xbea4e9f1	-0.32209733
70	0xbde8e346	-0.11371474
71	0x3d774518	0.060368627
72	0xbd116232	-0.035494037
73	0x3e422529	0.18959488
74	0xbd47f6ea	-0.04881946
75	0xbbffbe9b	-0.0078047044
76	0x3ee1d8b9	0.4411066
77	0x3c2fe286	0.01073516
78	0x3e63dc1e	0.22251937
79	0x3e304cee	0.17216846
80	0x3d941e33	0.072323225
81	0xbe16fbd6	-0.14744505
82	0x3c8d9c9c	0.017286591
83	0x3d389eb5	0.04507323
84	0x3ea9f0d8	0.33191562
85	0x3d973e3d	0.07384918
86	0xbe65b3aa	-0.22431818
87	0x3e0fea9f	0.14054345
88	0x3d8c6a72	0.0685624
89	0x3e20b22c	0.15692967
90	0x3e909530	0.2823882
91	0x3ce653d1	0.028116139
92	0x3e989332	0.297998
93	0xbd5d2fc8	-0.054000646
94	0xbdc85bb5	-0.09783117
95	0xbdc2db2e	-0.095144615
96	0xbe94bf72	-0.2905231
97	0xbf0a0d7c	-0.53926826
98	0xbdf59255	-0.11990801
99	0xbe01277e	-0.12612721
100	0xbf2ff7f9	-0.6873775
101	0x3deb59a8	0.1149171
102	0x3db52ff1	0.08847035
103	0x3d8343bc	0.06409404
104	0xbce83bd5	-0.028348843
105	0xbd95a25f	-0.073063605
106	0xbd9af021	-0.07565332
107	0xbe19e1d8	-0.15027559
108	0xbcbf2686	-0.0233338
109	0x3e3e9b15	0.18613847
110	0xbe0a874a	-0.13528171
111	0xbe4421c0	-0.191535
112	0x3ea35e96	0.319081
113	0xbcc1c436	-0.023653131
114	0xbd85e48e	-0.06537734
115	0xbde7f0b3	-0.113252066
116	0xbeae198b	-0.34003863
117	0xbe0f8ef1	-0.14019372
118	0x3e918fb2	0.28429943
119	0x3eade93a	0.33967
120	0xbd3fbf89	-0.04681352
121	0xbecd09bf	-0.40046498
122	0x3d1c0307	0.038088825
123	0x3cf33646	0.029688966
124	0xbe801bc0	-0.25021172
125	0x3e92d086	0.28674716
126	0xbdb6b152	-0.0892054
127	0x3f10e3b2	0.56597435

arith.constant12 f4 [2]
0	0x3f2b1419	0.6682754
1	0x3dd426ff	0.103590004

arith.constant13 f4 [16]
0	0x3dcb5b19	0.09929485
1	0x3dbb10b3	0.091340445
2	0x3d8a6a40	0.06758547
3	0x3dbbe999	0.091754146
4	0x3d16b046	0.0367892
5	0x3d1d1408	0.03834918
6	0xbdb2cec9	-0.087308474
7	0xbc6a1e5f	-0.014289468
8	0xbcf95699	-0.0304368
9	0x3c51dca5	0.012808953
10	0xbd05c1fe	-0.03265571
11	0xbce302eb	-0.027711352
12	0xbb60d417	-0.0034306103
13	0xbcacfc21	-0.021116318
14	0x3d029637	0.031881537
15	0xbd646136	-0.05575677

arith.constant14 f4 [16]
0	0x3d38c65c	0.045111045
1	0xbd5bf1b1	-0.05369729
2	0xbcf9c890	-0.030491143
3	0x3daa60df	0.08319258
4	0xbd666725	-0.05625071
5	0xbd3ae90f	-0.04563242
6	0xbdac25b6	-0.0840563
7	0xbd09a9ad	-0.03360908
8	0x3d6ee693	0.05832536
9	0xbdc71e47	-0.09722572
10	0xbd28a4d2	-0.04117281
11	0xbccef0a3	-0.025261229
12	0xbcda4ead	-0.026648844
13	0xbb61f059	-0.0034475534
14	0x3c705d35	0.01467066
15	0x3d07a444	0.03311564

arith.constant15 f4 [16]
0	0x3d53598c	0.05159907
1	0x3c0becce	0.008540345
2	0xbd445345	-0.047930975
3	0xbd557197	-0.05211028
4	0xbd1df91f	-0.03856766
5	0xbda01504	-0.078165084
6	0x3cf90db6	0.030402046
7	0x3d823073	0.06356897
8	0x3d8a34b9	0.06748337
9	0xbd4d536e	-0.050128393
10	0xbd3f7771	-0.046744768
11	0x3b8e76d1	0.00434766
12	0x3d8fbd5c	0.07018539
13	0x3d8714cd	0.06595764
14	0x3cd6c232	0.026215646
15	0x3d57d949	0.052697454

arith.constant16 f4 [16]
0	0x3cd5608c	0.026047014
1	0x3db253de	0.08707403
2	0xbc253412	-0.010083215
3	0xbbb8bdb8	-0.0056378506
4	0x3d19ef17	0.03758153
5	0xbe041e1f	-0.12902115
6	0xbc91540a	-0.017740268
7	0xbce2e61a	-0.027697612
8	0x3d960405	0.073249854
9	0x3d9174f7	0.071023874
10	0xbe16f5a0	-0.14742136
11	0x3d65657e	0.056004994
12	0xbb878d45	-0.0041367137
13	0x3d9c45e6	0.076305196
14	0x3d5669e2	0.05234707
15	0xbdb64338	-0.0889954

arith.constant17 f4 [16]
0	0xbd4042e1	-0.04693878
1	0x3e1d0b62	0.15336373
2	0x3e12811e	0.14307067
3	0xbe12bb2e	-0.14329216
4	0x3e55b246	0.20868787
5	0x3df79887	0.12089639
6	0xbd182ffe	-0.037155144
7	0xbcc12971	-0.023579331
8	0xbe66fcd2	-0.22557381
9	0xbd1a21f5	-0.03763004
10	0xbe247d7a	-0.1606349
11	0xbd17cdce	-0.037061505
12	0x3d5d7dff	0.054075237
13	0x3e426426	0.18983516
14	0x3e75b525	0.23994882
15	0xbe50dfcb	-0.2039787

arith.constant18 f4 [16]
0	0x3f03a074	0.5141671
1	0x3ed752dc	0.42055404
2	0x3d022250	0.031771004
3	0x3e9b434f	0.3032479
4	0xbd4f157b	-0.050557595
5	0xbeb2c938	-0.34919143
6	0x3f001bd1	0.50042444
7	0x3d00b0e3	0.031418692
8	0x3e9a55d2	0.301436
9	0x3d4b47a3	0.049628865
10	0x3ed47bcb	0.41500697
11	0xbec1e823	-0.3787242
12	0x3e4e5c5e	0.20152423
13	0xbeb467cb	-0.35235438
14	0xbc02fa07	-0.0079941815
15	0x3e39ff3f	0.18163775

arith.constant19 f4 [16]
0	0xbe06c050	-0.13159299
1	0xbd23ad6a	-0.039960302
2	0x3da45e22	0.08025767
3	0xbe08d71d	-0.13363309
4	0x3e0c7ffc	0.13720697
5	0xbe251f40	-0.16125202
6	0xb9b2dbc5	-0.00034114547
7	0xbe48d732	-0.1961334
8	0xbe597c67	-0.21238862
9	0x3e28f263	0.16498713
10	0xbe6b16b7	-0.22957884
11	0xbd79517e	-0.060868733
12	0x3e68e946	0.22745237
13	0x3e0bcaf0	0.13651633
14	0x3e3c11b8	0.18366134
15	0x3e77e8c5	0.24209888

arith.constant20 f4 [16]
0	0xbd9e85f0	-0.0774039
1	0xbe65ee2d	-0.22454138
2	0x3e494996	0.19656977
3	0x3bb1f486	0.005430761
4	0xbdd8a5e5	-0.10578517
5	0x3d9a22c1	0.0752616
6	0xbdeac84b	-0.11463984
7	0xbe3294c5	-0.17439564
8	0xbdfdb199	-0.1238739
9	0x3e2c6a4d	0.16837426
10	0xbc811356	-0.01575629
11	0x3e31c66e	0.17360851
12	0xbe3b1c21	-0.18272449
13	0xbd0e5711	-0.034751
14	0x3df80c0f	0.12111675
15	0x3e15b547	0.14619933

arith.constant21 f4 [16]
0	0x3ed30a28	0.41218686
1	0xbec76f0e	-0.38951916
2	0xbdb326f5	-0.08747665
3	0x3ef3a14d	0.47584
4	0xbe6856a7	-0.22689305
5	0x3d261a11	0.040552203
6	0x3dad87e2	0.08473183
7	0xbde2b999	-0.11070556
8	0x3dc9657b	0.09833809
9	0x3e121b4e	0.14268228
10	0xbdca806b	-0.09887775
11	0xbf125da9	-0.57174164
12	0xbed59c24	-0.41720688
13	0xbe5d0d02	-0.21586993
14	0x3f0c7331	0.5486327
15	0xbd873a41	-0.06602908

arith.constant22 f4 [16]
0	0x3dd21947	0.102587275
1	0x3e01599e	0.12631842
2	0xbe7bd227	-0.24591886
3	0x3c91ebc0	0.01781261
4	0x3e7128b3	0.23550682
5	0xbdcf3634	-0.1011776
6	0x3e1785b0	0.14797091
7	0x3e44f099	0.19232406
8	0x3d281439	0.04103491
9	0x3d50d2e3	0.050982367
10	0x3d719a31	0.05898494
11	0x3e7a4ad4	0.24442607
12	0x3dda96ec	0.10673317
13	0x3e11ebe0	0.14250135
14	0x3d602316	0.05472096
15	0xbe03fe8f	-0.12890075

arith.constant23 f4 [16]
0	0x3e65b609	0.22432722
1	0x3e572f6d	0.21014185
2	0x3e019171	0.12653138
3	0x3e45cae5	0.1931568
4	0x3c8019f6	0.01563738
5	0xbe23c5c4	-0.1599341
6	0x3db1fdc2	0.086909786
7	0xbe2c3b25	-0.16819437
8	0x3e27c0f5	0.16382201
9	0xbdac770b	-0.08421143
10	0x3ddba09c	0.10723993
11	0xbd0daa22	-0.03458608
12	0x3d038a7d	0.032114495
13	0xbd7793a7	-0.060443547
14	0xbd935100	-0.07193184
15	0x3d29c2f8	0.041445702

arith.constant24 f4 [16]
0	0xbc10e76f	-0.008844241
1	0xbd70d749	-0.058799062
2	0xbe02e763	-0.1278358
3	0xbef0c32e	-0.4702391
4	0xbeea823f	-0.45802495
5	0xbeeffb6d	-0.4687151
6	0x3eb68298	0.3564651
7	0x3e206487	0.15663348
8	0x3c4e47f1	0.012590394
9	0x3ec9e589	0.39432934
10	0xbeefb6d6	-0.4681918
11	0xbd9b971f	-0.075971834
12	0xbe69d25d	-0.22834153
13	0x3e880285	0.26564422
14	0x3d7209a5	0.05909123
15	0xbe3e4a43	-0.18583016

arith.constant25 f4 [16]
0	0x3e407f05	0.18798454
1	0xbe3e882b	-0.18606631
2	0xbdb89f6f	-0.090147845
3	0xbdbb207f	-0.091370575
4	0x3c00f956	0.007871946
5	0xbdc77de7	-0.09740811
6	0xbd73b628	-0.05949989
7	0xbe404949	-0.18777956
8	0x3dbd0576	0.09229557
9	0x3d5dd0f7	0.054154363
10	0xbd8d237e	-0.06891535
11	0xbe40b121	-0.1881757
12	0xbdfeed8c	-0.12447652
13	0x3da308f3	0.07960691
14	0x3d807b32	0.06273498
15	0x3d8bee12	0.06832518

arith.constant26 f4 [16]
0	0xbe6cb30e	-0.23115179
1	0x3e29c81e	0.16580245
2	0x3e1df264	0.15424496
3	0xbe227f47	-0.15868865
4	0xbcd3d46a	-0.025858123
5	0x3e2fd7d4	0.17172176
6	0x3e41cce8	0.18925822
7	0x3e2b8880	0.1675129
8	0xbca5674a	-0.020190854
9	0x3dc02a51	0.09383071
10	0xbd6d338a	-0.05791048
11	0xbc23ce8a	-0.009997973
12	0x3e068f9c	0.1314072
13	0x3e6111c8	0.2197944
14	0x3e67bcd2	0.22630623
15	0xbd08d423	-0.033405434

arith.constant27 f4 [16]
0	0xbeaec366	-0.34133452
1	0x3e76f35b	0.2411627
2	0x3d0eb0d7	0.034836616
3	0xbcb42c48	-0.021993771
4	0x3d7e46b1	0.062079135
5	0xbda90634	-0.08253136
6	0x3ec65623	0.38737592
7	0xbeeb28cc	-0.45929563
8	0xbb61d0a3	-0.0034456633
9	0x3e16b587	0.14717685
10	0x3e36305b	0.17791884
11	0x3f0a751b	0.5408494
12	0x3f03356b	0.51253384
13	0x3eaedd68	0.34153295
14	0x3bf57a87	0.007491413
15	0x3c1aeee6	0.009456372

arith.constant28 f4 [16]
0	0x3e4820de	0.19543788
1	0xbe50cd1d	-0.20390745
2	0x39ea97b3	0.00044744983
3	0xbe1daa8e	-0.15397093
4	0xbe3f934d	-0.18708535
5	0xbdaa5eb8	-0.083188474
6	0xbd866bbc	-0.065635175
7	0x3e42ad5c	0.19011444
8	0xbd90cc7c	-0.07070252
9	0xbdbe9ff1	-0.0930785
10	0xbe195e02	-0.14977267
11	0x3e3f7bd9	0.18699588
12	0x3e4de2fe	0.20106122
13	0xbe3c4800	-0.18386841
14	0x3d31aa86	0.043375514
15	0xbc2dcbc7	-0.010607666

arith.constant29 f4 [16]
0	0xbe22e89b	-0.15909044
1	0x3e5aee74	0.21380025
2	0x3cdb6648	0.02678217
3	0x3d9c3675	0.07627574
4	0xbc80f966	-0.015743922
5	0xbc6f3712	-0.014600532
6	0xbda17057	-0.07882755
7	0x3cce87bc	0.025211208
8	0x3d661dcc	0.05618076
9	0x3dd2ca8f	0.10292541
10	0xbe39347f	-0.18086432
11	0xbe2af466	-0.16694793
12	0xbccf00dc	-0.025268964
13	0xbd1cb59d	-0.038259137
14	0xbd8b217a	-0.067934945
15	0xbde13d5a	-0.1099803

arith.constant30 f4 [16]
0	0xbe6ee349	-0.2332889
1	0x3f0dc238	0.5537448
2	0xbed3a8b4	-0.41339648
3	0xbe832b89	-0.25619152
4	0x3e698086	0.22802934
5	0x3df0eae1	0.117635496
6	0xbede806a	-0.43457347
7	0xbefcbfe3	-0.49365148
8	0xbe7b16cf	-0.2452042
9	0xbefffac4	-0.49996006
10	0x3d98e75c	0.07466003
11	0xbd99ec7f	-0.07515811
12	0xbef523eb	-0.47878966
13	0xbe9b7e88	-0.30369973
14	0xbd0f8eb0	-0.035048187
15	0xbee171cf	-0.44032142

arith.constant31 f4 [16]
0	0xbdf8192b	-0.121141754
1	0xbdf4f9ac	-0.11961684
2	0xbe1380cc	-0.14404601
3	0xbe14359b	-0.14473574
4	0xbde2f81e	-0.11082481
5	0xbe7bdf09	-0.245968
6	0x3e0a28c3	0.13492112
7	0x3e3fb0c9	0.18719782
8	0xbdc2d484	-0.095131904
9	0x3c922cf0	0.017843693
10	0x3e3523bb	0.17689411
11	0xbdc281e0	-0.09497428
12	0xbe2e8a2d	-0.17044897
13	0xbd3edd89	-0.04659799
14	0x3e5b5466	0.21418914
15	0x3e62e59a	0.22157899

arith.constant32 f4 [16]
0	0x3d8a1c63	0.067436956
1	0xbd3cd442	-0.046100862
2	0xbe39d013	-0.1814578
3	0x3d06c5bc	0.032903418
4	0xbe4cbcc3	-0.19993882
5	0xbe594b69	-0.21220173
6	0x3e4f3984	0.20236784
7	0xbd07ae3b	-0.033125143
8	0x3e0aee66	0.13567504
9	0xbdbe4c4a	-0.09291895
10	0xbc75842f	-0.014985128
11	0xbe366a72	-0.17814043
12	0xbdff0af0	-0.12453258
13	0x3d295b28	0.0413467
14	0xbe1d1bcc	-0.15342635
15	0x3d973dea	0.07384856

arith.constant33 f4 [16]
0	0xbe9e7441	-0.3094807
1	0xbec01889	-0.3751872
2	0x3e827aeb	0.25484404
3	0x3e1b5a16	0.15171084
4	0x3ce88b71	0.028386803
5	0x3e38f42f	0.18061899
6	0xbf0e5303	-0.55595416
7	0xbdce228f	-0.10065185
8	0xbf0df9c3	-0.5545923
9	0x3f05eb60	0.5231228
10	0xbf02616d	-0.5092991
11	0xbe1bcced	-0.15214892
12	0x3f0f5854	0.55994153
13	0x3ef72656	0.48271435
14	0x3dc29ae8	0.09502202
15	0x3ebf2ad2	0.37337357

arith.constant34 f4 [16]
0	0x3da77791	0.08177102
1	0xbdca0ca6	-0.09865694
2	0x3d399373	0.045306634
3	0xbe6221d4	-0.22083217
4	0xbe60815e	-0.2192435
5	0x3e6c7372	0.23090914
6	0x3dafcb1a	0.085836604
7	0xbda242bb	-0.07922884
8	0xbe07a42b	-0.13246219
9	0x3e413409	0.18867506
10	0xbe34abf1	-0.17643715
11	0xbbdab378	-0.0066742264
12	0x3e7da79b	0.24770968
13	0x3dbe2eea	0.09286292
14	0xbdcb1145	-0.09915403
15	0xbd93bbc4	-0.07213548

arith.constant35 f4 [16]
0	0x3e595175	0.2122248
1	0x3d53bf5b	0.051696163
2	0x3e4e3710	0.20138192
3	0x3e0e71a3	0.13910536
4	0x3ba1608b	0.004924839
5	0x3d508a9c	0.05091344
6	0xbd9016ed	-0.07035623
7	0x3e75b865	0.23996122
8	0x3e31dfc2	0.17370513
9	0x3e3d41b6	0.18482098
10	0xbe442724	-0.19155556
11	0x3e5467e4	0.20742756
12	0x3d82cb59	0.06386442
13	0x3dfd13cd	0.12357292
14	0x3db1c112	0.08679403
15	0xbe230699	-0.15920486

arith.constant36 f4 [16]
0	0x3f04d214	0.51883054
1	0xbe1207a4	-0.14260727
2	0xbbf4f247	-0.007475171
3	0xbcd4c215	-0.025971452
4	0xbef718f3	-0.48261222
5	0xbe676cc1	-0.2260008
6	0xbe387fa2	-0.18017438
7	0xbf0eaebf	-0.5573539
8	0x3f029c00	0.5101929
9	0xbef25391	-0.4732938
10	0xbe9beba0	-0.30453205
11	0x3e6c06c7	0.2304946
12	0x3f0b73ec	0.5447376
13	0x3f0eaa55	0.55728656
14	0xbf06c26d	-0.5264042
15	0xbd26cd67	-0.04072323

arith.constant37 f4 [16]
0	0x3d3abf6b	0.045592707
1	0xbdbd34b6	-0.092385694
2	0xbe4d3d63	-0.20042948
3	0xbdb66d00	-0.08907509
4	0x3dd45272	0.10367288
5	0x3e42d1cc	0.19025344
6	0xbce85054	-0.028358616
7	0xbe779a61	-0.24179985
8	0x3e772caf	0.24138139
9	0x3e261d0b	0.16222017
10	0xbd4a083e	-0.049324267
11	0xbd4f930c	-0.050677344
12	0x3e21641f	0.1576085
13	0x3d2f163f	0.042745825
14	0xbe6cdc32	-0.23130873
15	0xbd115698	-0.035482973

arith.constant38 f4 [16]
0	0xbdc7be8a	-0.09753139
1	0x3d66be24	0.056333676
2	0xbdffacb8	-0.12484115
3	0xbd076bc4	-0.033061758
4	0x3e5080f2	0.20361689
5	0xbe1847e6	-0.14871177
6	0xbe03097b	-0.12796585
7	0xbe03ecbb	-0.12883274
8	0x3e2acc4e	0.16679499
9	0x3ddd8d27	0.10817938
10	0x3e7de553	0.24794511
11	0xbd7f9ff4	-0.062408403
12	0xbe4b3c35	-0.19847186
13	0x3d2a0840	0.041511774
14	0x3d95e5d3	0.07319226
15	0x3dc5b743	0.09654095

arith.constant39 f4 [16]
0	0xbf111348	-0.56670046
1	0x3efe488d	0.49664727
2	0xbf120f5f	-0.57054704
3	0xbe912cf5	-0.28354612
4	0x3e07c560	0.13258886
5	0xbf09e8fd	-0.53871137
6	0xbe6726e9	-0.22573437
7	0x3ebe6cb2	0.37192303
8	0xbdb351dd	-0.087558486
9	0x3e99b5a3	0.3002139
10	0xbe147cd2	-0.1450074
11	0x3f0b6aa7	0.54459614
12	0xbf0d877b	-0.5528485
13	0x3d0de3bc	0.034641013
14	0xbe84d75d	-0.2594556
15	0x3e3a222d	0.181771

arith.constant40 f4 [16]
0	0xbd6ab693	-0.057303023
1	0xbe7bd69d	-0.24593587
2	0x3e2dbff7	0.1696776
3	0xbe1b21eb	-0.15149657
4	0xbe321470	-0.17390609
5	0x3d148bcf	0.036266144
6	0xbe7c4dbb	-0.24639027
7	0xbce78f04	-0.028266437
8	0x3dc9edc6	0.09859805
9	0xbe2c4773	-0.1682413
10	0xbde77d14	-0.11303154
11	0x3e6a8b89	0.22904791
12	0x3e06e9dc	0.13175148
13	0xbe0bf6ca	-0.13668361
14	0xbde8e4c4	-0.113717586
15	0xbd0c1c0a	-0.034206428

arith.constant41 f4 [8]
0	0xbefbe1f6	-0.49195832
1	0xbf88b658	-1.0680647
2	0xbf9a5c20	-1.2059364
3	0x3c278c94	0.0102263875
4	0x3f2a2541	0.66463095
5	0x3bb5bb20	0.0055459887
6	0x3e193f94	0.1496566
7	0x3e91a86c	0.28448808

arith.constant42 f4 [16]
0	0x3ffb6d90	1.9642811
1	0xbf8e5b0c	-1.1121535
2	0xbc8576da	-0.016292024
3	0xbf1316bf	-0.5745658
4	0x3f614478	0.879951
5	0x3f61d57b	0.8821637
6	0xbeb57983	-0.3544427
7	0xbf8ee849	-1.1164638
8	0xbf126dc6	-0.5719875
9	0xbfdb6c72	-1.714247
10	0x3f56c5a8	0.8389535
11	0xbd43bfe7	-0.047790434
12	0xbe476174	-0.19470769
13	0x3eb46f2c	0.35241067
14	0xbf875f0b	-1.057588
15	0xbef03d6c	-0.4692186

arith.constant43 f4 [16]
0	0x3f53c29e	0.8271884
1	0x3f0d390b	0.55165166
2	0xbf778cd0	-0.9669924
3	0xbf02c804	-0.5108645
4	0xbef28a3d	-0.47371092
5	0xbf3dc3c8	-0.74126863
6	0xbf0289be	-0.5099143
7	0x3f46a73a	0.7759892
8	0x3ee7ce78	0.4527471
9	0xbf527d9e	-0.82222927
10	0x3eac15c1	0.33610347
11	0xbec6f6bc	-0.38860118
12	0x3f02aa08	0.510407
13	0xbf141ae0	-0.5785351
14	0x3e08a114	0.13342696
15	0xbf9c57a4	-1.2214246

arith.constant44 f4 [8]
0	0xbf363989	-0.7118154
1	0x3e7a5e6b	0.2445008
2	0xbf026e1f	-0.5094928
3	0x3f29b744	0.66295266
4	0xbf224551	-0.6338702
5	0xbf424d75	-0.7589944
6	0x3fb37254	1.4019265
7	0x3d8e9e5f	0.06963801

arith.constant45 f4 [16]
0	0xbf74f082	-0.95679486
1	0x3fa402d6	1.2813365
2	0x3dc4b62c	0.09605059
3	0xbf070d75	-0.5275491
4	0xbd9da7ac	-0.076979965
5	0x3edf4c6e	0.43613
6	0xbce55b60	-0.027997673
7	0x40247eae	2.570232
8	0xbf165519	-0.587236
9	0x3b526940	0.003210619
10	0x3e57fb94	0.21092063
11	0x3fc403f7	1.531371
12	0xbeff789b	-0.49896702
13	0xbfadda9c	-1.3582339
14	0x4098bf9f	4.7733912
15	0x3ebebe18	0.37254405

arith.constant46 f4 [16]
0	0xbfb95e49	-1.4481899
1	0x3f125079	0.5715404
2	0xbf071057	-0.5275931
3	0xbfc22880	-1.516861
4	0xbf983171	-1.1890088
5	0xbf4e1d12	-0.8051311
6	0x3f6e8f82	0.93187726
7	0x3f6eff1a	0.93358004
8	0x3bef8460	0.0073094815
9	0x3eb15e14	0.34642088
10	0xbd801ee8	-0.06255895
11	0x3e8f613b	0.28003868
12	0x3ef2c68c	0.47417104
13	0xbd02b280	-0.031908512
14	0x3f5b9a33	0.85782164
15	0x3f16d449	0.5891767

arith.constant48 f4 [8]
0	0xbec7460b	-0.38920626
1	0xbf1dbf10	-0.61619663
2	0x3edab05a	0.4271267
3	0x3e8c7283	0.27431116
4	0x3cc64758	0.024203941
5	0xbf4a5552	-0.7903644
6	0xbc847db0	-0.016173214
7	0x3f52ffc0	0.82421494

arith.constant49 f4 [16]
0	0x3f7592ba	0.9592701
1	0xc01c53fa	-2.4426255
2	0x40039c4e	2.056415
3	0x3e9de45f	0.30838296
4	0xbe96e2cb	-0.29469904
5	0x3f8ccef8	1.1000662
6	0x3fe39abe	1.7781599
7	0xbfa83e37	-1.3143986
8	0xbfc3d302	-1.529877
9	0x3e6d9b3c	0.23203748
10	0x3f4c8539	0.7989078
11	0x3f16fb66	0.58977354
12	0xbe1ef0c0	-0.15521526
13	0xbed5bdc1	-0.41746333
14	0x3efa0cd4	0.48837912
15	0x3f8e1d46	1.1102684

arith.constant50 f4 [16]
0	0x3fff348f	1.9937915
1	0x3fb3263c	1.3996043
2	0x3f55c7c2	0.8350793
3	0x3e99b1d4	0.30018485
4	0xbfab6422	-1.3389933
5	0x3f10e260	0.5659542
6	0x3f24f72e	0.64439666
7	0xbff5d008	-1.9204111
8	0x3f790a32	0.9728118
9	0xbfaa7111	-1.3315755
10	0x3e2a239a	0.16615143
11	0x3f173f25	0.59080726
12	0xbfc78650	-1.5587864
13	0x3dcc7c48	0.09984642
14	0x3e49058b	0.1963102
15	0x3e9043c6	0.28176707

arith.constant51 f4 [16]
0	0xbfff51ec	-1.9946876
1	0x3ec65cd6	0.38742703
2	0x40207509	2.5071433
3	0x4003c1e3	2.058709
4	0x3fbaa8e6	1.4582794
5	0x4005bec5	2.0897686
6	0x3f8eeda4	1.1166272
7	0xbecfc848	-0.4058249
8	0x3dafea44	0.085896045
9	0x4017180a	2.3608422
10	0x40122188	2.2832966
11	0x404439b6	3.0660224
12	0xbfeaec1c	-1.8353305
13	0x3f8b150b	1.0865797
14	0xc03f516c	-2.9893446
15	0x3f02a7d8	0.5103736

arith.constant52 f4 [16]
0	0x3bd67078	0.006544169
1	0x3a5ce7ac	0.0008426856
2	0x3e1f60ae	0.15564224
3	0x3c1f63a8	0.00972835
4	0x3ea1240c	0.31472814
5	0x3bbdcdde	0.0057923635
6	0x3c55abb4	0.0130414255
7	0x3cf96c30	0.030447096
8	0x3c1aeda0	0.009456068
9	0x3c0be058	0.008537374
10	0x3e3a9a7a	0.1822299
11	0xbc156ba0	-0.009119898
12	0x3e38408a	0.1799337
13	0x3a06f352	0.0005147952
14	0x3de190fe	0.11013983
15	0x3efaa170	0.48951292

arith.constant53 f4 [192, 64]
0	0x3f800000	1.0
1	0x2b8cbccc	1e-12
2	0x00000000	0.0
3	0x00000000	0.0
4	0x00000000	0.0
5	0x00000000	0.0
6	0x00000000	0.0
7	0x00000000	0.0
8	0x00000000	0.0
9	0x00000000	0.0
10	0x00000000	0.0
11	0x00000000	0.0
12	0x00000000	0.0
13	0x00000000	0.0
14	0x00000000	0.0
15	0x00000000	0.0
16	0x00000000	0.0
17	0x00000000	0.0
18	0x00000000	0.0
19	0x00000000	0.0
20	0x00000000	0.0
21	0x00000000	0.0
22	0x00000000	0.0
23	0x00000000	0.0
24	0x00000000	0.0
25	0x00000000	0.0
26	0x00000000	0.0
27	0x00000000	0.0
28	0x00000000	0.0
29	0x00000000	0.0
30	0x00000000	0.0
31	0x00000000	0.0
32	0x00000000	0.0
33	0x00000000	0.0
34	0x00000000	0.0
35	0x00000000	0.0
36	0x00000000	0.0
37	0x00000000	0.0
38	0x00000000	0.0
39	0x00000000	0.0
40	0x00000000	0.0
41	0x00000000	0.0
42	0x00000000	0.0
43	0x00000000	0.0
44	0x00000000	0.0
45	0x00000000	0.0
46	0x00000000	0.0
47	0x00000000	0.0
48	0x00000000	0.0
49	0x00000000	0.0
50	0x00000000	0.0
51	0x00000000	0.0
52	0x00000000	0.0
53	0x00000000	0.0
54	0x00000000	0.0
55	0x00000000	0.0
56	0x00000000	0.0
57	0x00000000	0.0
58	0x00000000	0.0
59	0x00000000	0.0
60	0x00000000	0.0
61	0x00000000	0.0
62	0x00000000	0.0
63	0x00000000	0.0
64	0x00000000	0.0
65	0x3f800000	1.0
66	0x2b0cbccc	5e-13
67	0x00000000	0.0
68	0x00000000	0.0
69	0x00000000	0.0
70	0x00000000	0.0
71	0x00000000	0.0
72	0x00000000	0.0
73	0x00000000	0.0
74	0x00000000	0.0
75	0x00000000	0.0
76	0x00000000	0.0
77	0x00000000	0.0
78	0x00000000	0.0
79	0x00000000	0.0
80	0x00000000	0.0
81	0x00000000	0.0
82	0x00000000	0.0
83	0x00000000	0.0
84	0x00000000	0.0
85	0x00000000	0.0
86	0x00000000	0.0
87	0x00000000	0.0
88	0x00000000	0.0
89	0x00000000	0.0
90	0x00000000	0.0
91	0x00000000	0.0
92	0x00000000	0.0
93	0x00000000	0.0
94	0x00000000	0.0
95	0x00000000	0.0
96	0x00000000	0.0
97	0x00000000	0.0
98	0x00000000	0.0
99	0x00000000	0.0
100	0x00000000	0.0
101	0x00000000	0.0
102	0x00000000	0.0
103	0x00000000	0.0
104	0x00000000	0.0
105	0x00000000	0.0
106	0x00000000	0.0
107	0x00000000	0.0
108	0x00000000	0.0
109	0x00000000	0.0
110	0x00000000	0.0
111	0x00000000	0.0
112	0x00000000	0.0
113	0x00000000	0.0
114	0x00000000	0.0
115	0x00000000	0.0
116	0x00000000	0.0
117	0x00000000	0.0
118	0x00000000	0.0
119	0x00000000	0.0
120	0x00000000	0.0
121	0x00000000	0.0
122	0x00000000	0.0
123	0x00000000	0.0
124	0x00000000	0.0
125	0x00000000	0.0
126	0x00000000	0.0
127	0x00000000	0.0
128	0x00000000	0.0
129	0x3f000000	0.5
130	0x3f000000	0.5
131	0x00000000	0.0
132	0x00000000	0.0
133	0x00000000	0.0
134	0x00000000	0.0
135	0x00000000	0.0
136	0x00000000	0.0
137	0x00000000	0.0
138	0x00000000	0.0
139	0x00000000	0.0
140	0x00000000	0.0
141	0x00000000	0.0
142	0x00000000	0.0
143	0x00000000	0.0
144	0x00000000	0.0
145	0x00000000	0.0
146	0x00000000	0.0
147	0x00000000	0.0
148	0x00000000	0.0
149	0x00000000	0.0
150	0x00000000	0.0
151	0x00000000	0.0
152	0x00000000	0.0
153	0x00000000	0.0
154	0x00000000	0.0
155	0x00000000	0.0
156	0x00000000	0.0
157	0x00000000	0.0
158	0x00000000	0.0
159	0x00000000	0.0
160	0x00000000	0.0
161	0x00000000	0.0
162	0x00000000	0.0
163	0x00000000	0.0
164	0x00000000	0.0
165	0x00000000	0.0
166	0x00000000	0.0
167	0x00000000	0.0
168	0x00000000	0.0
169	0x00000000	0.0
170	0x00000000	0.0
171	0x00000000	0.0
172	0x00000000	0.0
173	0x00000000	0.0
174	0x00000000	0.0
175	0x00000000	0.0
176	0x00000000	0.0
177	0x00000000	0.0
178	0x00000000	0.0
179	0x00000000	0.0
180	0x00000000	0.0
181	0x00000000	0.0
182	0x00000000	0.0
183	0x00000000	0.0
184	0x00000000	0.0
185	0x00000000	0.0
186	0x00000000	0.0
187	0x00000000	0.0
188	0x00000000	0.0
189	0x00000000	0.0
190	0x00000000	0.0
191	0x00000000	0.0
192	0x00000000	0.0
193	0x00000000	0.0
194	0x3f800000	1.0
195	0x2b0cbccc	5e-13
196	0x00000000	0.0
197	0x00000000	0.0
198	0x00000000	0.0
199	0x00000000	0.0
200	0x00000000	0.0
201	0x00000000	0.0
202	0x00000000	0.0
203	0x00000000	0.0
204	0x00000000	0.0
205	0x00000000	0.0
206	0x00000000	0.0
207	0x00000000	0.0
208	0x00000000	0.0
209	0x00000000	0.0
210	0x00000000	0.0
211	0x00000000	0.0
212	0x00000000	0.0
213	0x00000000	0.0
214	0x00000000	0.0
215	0x00000000	0.0
216	0x00000000	0.0
217	0x00000000	0.0
218	0x00000000	0.0
219	0x00000000	0.0
220	0x00000000	0.0
221	0x00000000	0.0
222	0x00000000	0.0
223	0x00000000	0.0
224	0x00000000	0.0
225	0x00000000	0.0
226	0x00000000	0.0
227	0x00000000	0.0
228	0x00000000	0.0
229	0x00000000	0.0
230	0x00000000	0.0
231	0x00000000	0.0
232	0x00000000	0.0
233	0x00000000	0.0
234	0x00000000	0.0
235	0x00000000	0.0
236	0x00000000	0.0
237	0x00000000	0.0
238	0x00000000	0.0
239	0x00000000	0.0
240	0x00000000	0.0
241	0x00000000	0.0
242	0x00000000	0.0
243	0x00000000	0.0
244	0x00000000	0.0
245	0x00000000	0.0
246	0x00000000	0.0
247	0x00000000	0.0
248	0x00000000	0.0
249	0x00000000	0.0
250	0x00000000	0.0
251	0x00000000	0.0
252	0x00000000	0.0
253	0x00000000	0.0
254	0x00000000	0.0
255	0x00000000	0.0

arith.constant54 f4 [2, 1, 5, 16]
0	0x3e428f2a	0.18999925
1	0x3c9001b9	0.017578946
2	0xbea1c33f	-0.31594273
3	0xbc5c2d59	-0.013438546
4	0x3e9a639a	0.30154115
5	0xbd0bc16e	-0.034120016
6	0xbf2c3b6c	-0.6727817
7	0xbce0c801	-0.02743912
8	0x3e5053a3	0.20344405
9	0xbc8ada12	-0.016949687
10	0xbea021a9	-0.3127568
11	0xbe050253	-0.12989168
12	0x3e1d8aec	0.15385026
13	0x3dd6f825	0.104965486
14	0xbda65f76	-0.081236765
15	0x3d0d4534	0.034489825
16	0x3e5c1fe0	0.21496534
17	0x3d13b150	0.03605777
18	0xbe5c623c	-0.21521848
19	0xbd39d1fa	-0.045366265
20	0x3e5f833f	0.2182741
21	0xbe1bb2cf	-0.15204929
22	0xbf181684	-0.59409356
23	0x3eac6a18	0.33674693
24	0x3f5b8137	0.8574404
25	0xbccae5ba	-0.024767745
26	0xbf48c4a5	-0.78425056
27	0xbdfbe8f8	-0.12300295
28	0x3d224836	0.039619647
29	0x3e5f4420	0.21803331
30	0xbddf5f7a	-0.109068826
31	0x3e313c98	0.17308271
32	0x3e01f386	0.12690553
33	0x3c1a5767	0.009420252
34	0x3e359bd0	0.17735219
35	0x3d49b338	0.049243182
36	0xbe807ca6	-0.250951
37	0xbe55fa66	-0.208963
38	0xbe84c532	-0.25931698
39	0x3f6773e3	0.90411204
40	0x3f5e7131	0.86891466
41	0xbd127dc9	-0.03576449
42	0x3f379a06	0.71719396
43	0xbe71a329	-0.23597397
44	0xbdeb9ea1	-0.115048654
45	0x3e4b5718	0.19857442
46	0x3d022e60	0.031782508
47	0x3e4e2805	0.20132454
48	0x3ddb3809	0.10704047
49	0x3cf486f5	0.029849509
50	0xbe1f70d2	-0.15570381
51	0xbd1e34d7	-0.03862461
52	0xbe7e9081	-0.24859811
53	0xbd2f9a47	-0.04287174
54	0xbe4a02e0	-0.19727659
55	0x3f62d9bc	0.88613486
56	0x3e886bfb	0.26644883
57	0xbcc09976	-0.023510676
58	0x3f463386	0.7742237
59	0xbe80754d	-0.25089493
60	0xbd5ca5f5	-0.053869206
61	0x3e73165f	0.23739003
62	0xbdde682d	-0.10859714
63	0x3ea457e8	0.32098317
64	0x3dfa6274	0.1222581
65	0x3dce1058	0.10061711
66	0xbeb6fc01	-0.3573914
67	0xbd810f7c	-0.063017815
68	0xbddfdb9d	-0.1093056
69	0x3ce67ca7	0.02813561
70	0xbefc5eb8	-0.49291015
71	0x3e79662b	0.2435538
72	0x3bd4a82e	0.006489775
73	0xbc57041a	-0.0131235365
74	0xbee523a4	-0.44753754
75	0xbe139dc5	-0.14415653
76	0xbd3e45c8	-0.046453267
77	0x3e00acae	0.12565872
78	0xbdff3330	-0.12460935
79	0x3e85ea07	0.2615511
80	0xbc227286	-0.009915
81	0x3de1c7ea	0.11024459
82	0xbfc0571b	-1.5026582
83	0x3e768575	0.24074347
84	0x3f2334bc	0.6375234
85	0x3ed750ff	0.42053983
86	0xc0755e1f	-3.8338697
87	0xbe0c0e4e	-0.13677332
88	0xbd6ab5d4	-0.05730231
89	0x3d9439f3	0.072376154
90	0xbff7ec51	-1.9368993
91	0xbecc4ecc	-0.39903867
92	0x3da30c86	0.07961373
93	0x3cf615df	0.030039726
94	0xbde01a68	-0.109425366
95	0x3d201163	0.03907908
96	0xbe211e12	-0.15734127
97	0xbddec29a	-0.10876961
98	0x3f812a80	1.0091095
99	0xbce7d7aa	-0.028301079
100	0xbc808502	-0.015688423
101	0xbe6f34cf	-0.23359989
102	0x400a9bb2	2.165753
103	0x3ea5b2d9	0.32363012
104	0x3cc34ee7	0.023841335
105	0xbd496177	-0.049165215
106	0x3f8c42df	1.0957907
107	0x3e530d4b	0.2061054
108	0xbc06f1e5	-0.008236383
109	0xbce56473	-0.028002
110	0xbda948c2	-0.082658306
111	0xbe9bfceb	-0.304664
112	0xbcc34979	-0.023838745
113	0x3e0d1644	0.13778025
114	0x3e65d74f	0.22445415
115	0x3ea11f72	0.31469303
116	0xbf7f2ee9	-0.99680954
117	0xbea97f0b	-0.3310474
118	0x3f4481ba	0.7676045
119	0x3d01be40	0.031675577
120	0x3d621815	0.055198748
121	0xbe1257ee	-0.14291355
122	0x3f76103a	0.9611851
123	0xbeb75343	-0.3580571
124	0xbe5397a0	-0.20663309
125	0xbda81498	-0.08207053
126	0x3e9daf79	0.30797938
127	0x3e4ec867	0.20193635
128	0xbd2baf7b	-0.041915398
129	0xbcdadc96	-0.026716512
130	0x3ec3cdeb	0.3824304
131	0xbef65e73	-0.48118934
132	0x3dec9f48	0.11553818
133	0xbc8052db	-0.015664509
134	0x3f03e190	0.51516056
135	0xbdb4e942	-0.08833553
136	0xbe25c0ee	-0.16186878
137	0x3e3469f1	0.17618538
138	0x3e29ce75	0.16582663
139	0xbcf60b06	-0.030034553
140	0x3ce501e4	0.027955003
141	0xbd4ef38c	-0.050525233
142	0xbe82601d	-0.25463954
143	0xbde71612	-0.112835065
144	0x3d034360	0.032046676
145	0x3de21d18	0.110407054
146	0xbfd565be	-1.6671674
147	0xbd3a7842	-0.045524843
148	0xbdcade98	-0.09905738
149	0x3dff93ac	0.12479338
150	0xc06d5fbb	-3.708968
151	0xbdd73066	-0.10507278
152	0xbd319f12	-0.043364592
153	0x3cd08668	0.025454715
154	0xc0041442	-2.0637364
155	0xbf43356c	-0.7625339
156	0xbe3243d6	-0.1740869
157	0x3d1dca2b	0.03852288
158	0x3d496aaf	0.049174007
159	0x3e7bf5eb	0.24605529
