gtcrn_micro/ckpts/best_model_dns3.tar (torch, 637105 bytes, 645 tensors)

exp_avg f4 [16, 3, 1, 5]
0	0xbc7a3aa7	-0.015272773
1	0xbc366b82	-0.01113403
2	0xbc6b0c65	-0.014346217
3	0xbc57483f	-0.013139783
4	0xbc0ac8d3	-0.008470732
5	0x3b21220d	0.0024586946
6	0xbb27ea63	-0.0025621883
7	0x3b5d3cdd	0.0033758201
8	0xb9dd0f35	-0.00042163735
9	0xbbebff9b	-0.0072021014
10	0xba567a62	-0.00081816886
11	0xbaad8d6e	-0.0013241002
12	0x3a9d686f	0.0012009273
13	0x39ff5676	0.0004870181
14	0xbab7b077	-0.0014014383
15	0xbc6194d1	-0.013768391
16	0xbc38f6be	-0.011289297
17	0xbc3c10bf	-0.011478602
18	0xbc5887f9	-0.013216012
19	0xbc2b1978	-0.010443084
20	0xbba7720b	-0.0051100305
21	0x3ac03b6c	0.0014666147
22	0xba4b1128	-0.0007746392
23	0x3b32426f	0.0027200242
24	0xbb804972	-0.0039150054
25	0x397da6b9	0.00024190069
26	0xbaaf1b61	-0.00133596
27	0x3b2808e5	0.0025640067
28	0xb98cb34f	-0.00026836476
29	0xbb954603	-0.004555465
30	0xba1eb579	-0.0006054263
31	0xba598057	-0.0008297017
32	0xba1edffd	-0.00060605985
33	0x3a15ee24	0.00057193846
34	0x3aa6adbe	0.0012716574
35	0xb9b08bd6	-0.00033673522
36	0x3a410dd5	0.0007364427
37	0xba3d4e92	-0.0007221486
38	0x39d0bc6e	0.00039813243
39	0x36a15865	4.8084644e-06
40	0xb9b83382	-0.0003513359
41	0x39a4a6c3	0.00031404765
42	0xb9c5575d	-0.0003763986
43	0x396813d5	0.00022132632
44	0x39bc7320	0.0003594393
45	0xbbaa169a	-0.0051906826
46	0xbb61b9b2	-0.0034442958
47	0xbc05ee12	-0.008174436
48	0xbb1c72d5	-0.0023872156
49	0xbc4723f5	-0.012154569
50	0xbaccfea1	-0.001563985
51	0xba493f87	-0.0007677008
52	0xb999129b	-0.00029196296
53	0x3a82aafd	0.0009969171
54	0xbc662142	-0.014046015
55	0xbc2cb3de	-0.010540931
56	0x3bab98b2	0.0052367086
57	0xba8e8039	-0.0010871954
58	0x3b31680e	0.0027070078
59	0xbc13e11f	-0.009025841
60	0x39041573	0.00012596491
61	0xb9d222ea	-0.00040080334
62	0x3afb5f8d	0.0019178257
63	0x3b69ad95	0.0035656441
64	0x3b7d01da	0.003860584
65	0xba432e8f	-0.00074455974
66	0x3a4e51d6	0.0007870471
67	0xbac635fd	-0.0015122291
68	0x3a8b10ab	0.0010609826
69	0x3a78994c	0.0009483292
70	0xb952c399	-0.00020100026
71	0x39b77ab6	0.00034995907
72	0xb84be131	-4.8608697e-05
73	0xbac2dc57	-0.0014866692
74	0x3b4470e2	0.002997451
75	0x39811fcb	0.00024628485
76	0x3a9a09c7	0.0011752181
77	0xb88fe772	-6.8618814e-05
78	0xbb3f4ef6	-0.0029191351
79	0xbb4a6099	-0.003088033
80	0x3a3ead58	0.0007273755
81	0x3a6cb9ce	0.00090303726
82	0xba61c73f	-0.0008612759
83	0xba4a5357	-0.0007718107
84	0x3a7dfedb	0.00096891605
85	0xba963a74	-0.0011461512
86	0x3ae8f976	0.001777454
87	0xba1e01b5	-0.0006027476
88	0x3a4b74bf	0.0007761232
89	0xbb09082d	-0.0020909414
90	0x3a0ac36c	0.00052934024
91	0x3aa3e3e7	0.0012503833
92	0x39b83973	0.00035138018
93	0xbb0d7b50	-0.0021588393
94	0xbb99a1e1	-0.004688487
95	0xb9c032f2	-0.0003665905
96	0x39a50cdc	0.00031480833
97	0xb9fe5002	-0.00048506266
98	0xba9c77fc	-0.0011937614
99	0x3a358b4b	0.00069253583
100	0xba80053f	-0.0009767188
101	0x3ab00e13	0.0013431929
102	0xba05ebbe	-0.00051086757
103	0xba39f498	-0.0007093637
104	0xb88e31ca	-6.7803616e-05
105	0x3a9fb2e7	0.0012184054
106	0x3a2817e2	0.000641225
107	0xb8cf793f	-9.893113e-05
108	0xb88804fb	-6.485913e-05
109	0x3a7a1481	0.00095397985
110	0xb9cfae9c	-0.0003961221
111	0x3a78c5d8	0.000948993
112	0xbabe409b	-0.0014515104
113	0x3a575990	0.0008214945
114	0xb9b59e88	-0.00034641125
115	0xba716cbe	-0.0009209624
116	0x3a8fc313	0.0010968171
117	0xba2ab168	-0.0006511421
118	0xb7cfc2d7	-2.4767052e-05
119	0x399cfbd2	0.0002994226
120	0x3ad9c7b7	0.0016615306
121	0x3b1cf92c	0.002395223
122	0x3b37e66c	0.0028060926
123	0x3b6f0215	0.0036469747
124	0x3b9a2812	0.004704484
125	0x396e5439	0.00022728824
126	0x3a202712	0.00061093376
127	0xba42f286	-0.00074366515
128	0x3a640a46	0.00086990406
129	0xbaaa5de6	-0.0012997955
130	0xb94533bd	-0.00018806658
131	0x3956c4db	0.00020481965
132	0xb91da221	-0.00015033084
133	0xb5e4b454	-1.7039806e-06
134	0xb919c93e	-0.00014666186
135	0xbc3f24b3	-0.011666465
136	0xbc3bb747	-0.011457271
137	0xbd0c05ec	-0.034185335
138	0xbd05740d	-0.032581378
139	0xbcd00bfa	-0.025396336
140	0xbc402667	-0.011727906
141	0x3bf1f9fb	0.0073845363
142	0xbbdf8910	-0.006821759
143	0x3be64ad7	0.0070279646
144	0xbc670110	-0.014099374
145	0xbc0350a5	-0.008014833
146	0x3bb122bc	0.005405752
147	0xbc0752fe	-0.008259533
148	0x3be3a53c	0.0069471877
149	0xbc280186	-0.0102542695
150	0xbaf75dbd	-0.0018872541
151	0xbaffb56e	-0.0019509026
152	0xb9022c02	-0.0001241416
153	0x39e4d0fd	0.00043643257
154	0x3807bbca	3.23614e-05
155	0xb9e2e4e5	-0.0004327662
156	0x3a7f2f74	0.0009734549
157	0xba6892ad	-0.0008871954
158	0x3a40a5a8	0.00073489035
159	0xba346084	-0.0006880837
160	0x39c1338d	0.00036850237
161	0xba35057d	-0.000690542
162	0x38426a2b	4.635208e-05
163	0x39c2289d	0.00037032823
164	0x3965f8e0	0.00021931855
165	0xbb04254f	-0.002016384
166	0xba6b9700	-0.00089870393
167	0xbb646fea	-0.0034856745
168	0xbc289498	-0.010289334
169	0xbc5037ee	-0.012708647
170	0xbaad9fa8	-0.0013246434
171	0x3afd6f44	0.0019335528
172	0xbadc6064	-0.0016813395
173	0x3bf0f44f	0.0073533426
174	0xbc22845a	-0.00991925
175	0xbaae46af	-0.0013296212
176	0x3a8326a3	0.0010006021
177	0xbb130bf7	-0.0022437552
178	0x3b45414c	0.0030098734
179	0xba681a7b	-0.00088540436
180	0xba6bb72b	-0.0008991833
181	0xba6b8f29	-0.0008985871
182	0xbb0fc5f3	-0.0021938055
183	0xbbc4a0a1	-0.006000594
184	0xbbee065c	-0.0072639417
185	0x3b5e69c8	0.0033937562
186	0xbb575882	-0.0032859151
187	0x3aac48d9	0.0013144269
188	0xbabc0f01	-0.0014347733
189	0x3b2fea57	0.0026842558
190	0x3aebdd49	0.0017995025
191	0xbaa003f4	-0.0012208209
192	0x3a2a2920	0.00064911135
193	0xbac2267c	-0.0014812495
194	0x3afcc435	0.0019284548
195	0x3a84e594	0.001013922
196	0x3be2f510	0.0069261864
197	0x3bf2175d	0.007388039
198	0x3b8f6257	0.0043757367
199	0x3c132da3	0.008983049
200	0x39e57303	0.00043763974
201	0x398b88ee	0.00026614167
202	0x39025a36	0.00012431372
203	0x3b209b47	0.0024506615
204	0xbc2683a2	-0.01016322
205	0x3b3af650	0.0028528161
206	0xbad89f83	-0.001652703
207	0x3b67e126	0.0035382002
208	0xbb1f2543	-0.0024283684
209	0xbb9422e1	-0.0045207595
210	0xbc1a8482	-0.009431006
211	0x38b0dbb5	8.4332576e-05
212	0xba5aaf87	-0.00083421957
213	0x3c1f27ce	0.00971408
214	0x3b9f0d40	0.0048538744
215	0x3bc6fc58	0.006072562
216	0xba751c70	-0.0009350246
217	0xba8451bf	-0.0010095163
218	0x39de1d08	0.0004236477
219	0xbbd294e6	-0.0064264415
220	0xbb70cfe0	-0.0036744997
221	0x3ac63f35	0.0015125038
222	0x3a0861d0	0.00052025635
223	0xbab505f4	-0.0013810978
224	0x39a17b65	0.0003080025
225	0x3987c2f4	0.00025894458
226	0x397e3af7	0.00024245294
227	0xba8f5f60	-0.0010938458
228	0xba82403a	-0.0009937354
229	0x3b370d2f	0.0027931442
230	0x3b7f0e64	0.003891849
231	0xba2aa455	-0.0006509473
232	0xba595c9e	-0.0008291694
233	0x3a205320	0.0006115902
234	0xb9f5fb24	-0.00046917156
235	0xba746046	-0.0009322207
236	0x3aa23954	0.0012376704
237	0xbae1df1f	-0.0017232633
238	0x3ad246b3	0.0016042799
239	0xb9cc21e2	-0.00038935157

exp_avg_sq f4 [16, 3, 1, 5]
0	0x3b83f10c	0.0040265378
1	0x3b85a3c5	0.0040783607
2	0x3b882ba2	0.004155592
3	0x3b8768e1	0.0041323756
4	0x3b8a7940	0.00422588
5	0x39d1bac7	0.00040002746
6	0x395f464b	0.00021293123
7	0x39b33ae9	0.00034185432
8	0x39a06892	0.0003059549
9	0x399b0f0a	0.0002957511
10	0x397c6739	0.00024071046
11	0x396b7ba4	0.00022457406
12	0x39307721	0.00016829047
13	0x39a5db28	0.00031634537
14	0x39b0a649	0.00033693228
15	0x3b44d1f7	0.0030032375
16	0x3b54cef4	0.0032471986
17	0x3b690f2a	0.0035562017
18	0x3b726cdc	0.0036991155
19	0x3b7c9ec1	0.0038546773
20	0x398a43f1	0.0002637203
21	0x39575949	0.00020537259
22	0x399a53c2	0.00029435573
23	0x399bc498	0.00029710378
24	0x398d7034	0.00026977214
25	0x39294a97	0.00016144883
26	0x394c7872	0.00019499825
27	0x395293cc	0.00020082219
28	0x3972ccf8	0.00023155275
29	0x3993ee8f	0.00028215765
30	0x387b8ee2	5.9976133e-05
31	0x372ca1f4	1.0289707e-05
32	0x372d2fb8	1.0322714e-05
33	0x36b72a1d	5.4587276e-06
34	0x37860652	1.5976988e-05
35	0x371d137d	9.362467e-06
36	0x368ef13f	4.2600145e-06
37	0x371b78ce	9.266847e-06
38	0x36b4817f	5.3794934e-06
39	0x3690d79e	4.3166356e-06
40	0x36f0af2d	7.1729505e-06
41	0x368242bc	3.882071e-06
42	0x368bbf3d	4.164786e-06
43	0x368c6ac1	4.184753e-06
44	0x369cf224	4.677351e-06
45	0x3d2a999c	0.0416504
46	0x3d41ef92	0.047347613
47	0x3d0fd6d9	0.035117004
48	0x3d23bd35	0.039975364
49	0x3d6c9d07	0.05776694
50	0x3b191c77	0.0023362914
51	0x3a8f31eb	0.0010924911
52	0x39b284a3	0.00034049628
53	0x3a01f760	0.0004957821
54	0x3ab570b0	0.0013842788
55	0x3ada5e64	0.0016660211
56	0x3a7c27ca	0.0009618966
57	0x399b3af4	0.00029607827
58	0x3a1494bd	0.00056679157
59	0x3ac786bc	0.0015222649
60	0x35e62417	1.7146839e-06
61	0x35ff3807	1.9015287e-06
62	0x387690ce	5.878583e-05
63	0x38ea8cdf	0.00011184229
64	0x3971fa66	0.00023076832
65	0x36516c22	3.1206368e-06
66	0x3635c1d1	2.7083918e-06
67	0x37d788c0	2.5693676e-05
68	0x37a5846b	1.9731195e-05
69	0x38051f0e	3.1738593e-05
70	0x362b1747	2.5494535e-06
71	0x3620a921	2.3940304e-06
72	0x36a98569	5.0521235e-06
73	0x3791d391	1.7383865e-05
74	0x3802984f	3.1136264e-05
75	0x39fbb4b8	0.00048009097
76	0x39dfd918	0.00042695622
77	0x3a15249f	0.0005689356
78	0x3a1673cb	0.00057393004
79	0x3a0ba1df	0.000532655
80	0x381aca36	3.6904785e-05
81	0x38309c9a	4.2107516e-05
82	0x382bac9e	4.093034e-05
83	0x381d94de	3.757036e-05
84	0x3814e808	3.5502046e-05
85	0x37e553a6	2.733788e-05
86	0x37d758c6	2.5671336e-05
87	0x37e55439	2.7338147e-05
88	0x381894ac	3.6378085e-05
89	0x38239238	3.8998405e-05
90	0x397c9882	0.00024089406
91	0x398bd3f3	0.0002667006
92	0x3a012432	0.0004926353
93	0x39efd5db	0.00045744967
94	0x39dd024f	0.00042154125
95	0x3797d733	1.8100813e-05
96	0x37a782cc	1.9968858e-05
97	0x3889c02f	6.568466e-05
98	0x384d104a	4.889098e-05
99	0x382aa7d3	4.0687457e-05
100	0x38499a49	4.8065824e-05
101	0x389d28e1	7.493958e-05
102	0x38c3ffa6	9.345943e-05
103	0x38a5437b	7.880382e-05
104	0x38625d53	5.3969514e-05
105	0x38c2fd4e	9.2978225e-05
106	0x384f7bc9	4.946793e-05
107	0x3741703c	1.1529828e-05
108	0x3667ba9f	3.453031e-06
109	0x36bd4590	5.640737e-06
110	0x3742619e	1.1586029e-05
111	0x36957099	4.453654e-06
112	0x37143be9	8.835436e-06
113	0x369cf6ad	4.677879e-06
114	0x36411726	2.8772715e-06
115	0x36b52c07	5.399346e-06
116	0x374c3c95	1.2173453e-05
117	0x3701a2f3	7.726939e-06
118	0x36612c5d	3.3553436e-06
119	0x362f9767	2.616516e-06
120	0x3836f380	4.361896e-05
121	0x3868057d	5.531822e-05
122	0x388053ec	6.119147e-05
123	0x384db281	4.9042053e-05
124	0x38909129	6.893493e-05
125	0x3754e732	1.2690014e-05
126	0x373f018f	1.138485e-05
127	0x3759f612	1.2991501e-05
128	0x36f7a654	7.3805368e-06
129	0x36f66988	7.3436568e-06
130	0x368f69b9	4.27404e-06
131	0x36a78ccc	4.9933788e-06
132	0x36a0f1c7	4.796518e-06
133	0x36cc37a2	6.0861503e-06
134	0x370d3fd8	8.41912e-06
135	0x3d2524bc	0.040318236
136	0x3d01f776	0.031730138
137	0x3d32d614	0.043661192
138	0x3d70e72d	0.058814216
139	0x3d643397	0.055713262
140	0x3b0856e5	0.0020803746
141	0x3a2fca56	0.00067058706
142	0x3a628b28	0.0008641952
143	0x3aaea896	0.0013325389
144	0x3ae0a721	0.0017139652
145	0x3aac8be9	0.0013164255
146	0x39fdacff	0.00048384813
147	0x3a0242a4	0.00049690367
148	0x3abc9de0	0.0014390312
149	0x3af73f09	0.001886339
150	0x38da8fa9	0.00010421809
151	0x3819bb80	3.6652666e-05
152	0x36478170	2.9728653e-06
153	0x3666cd1f	3.4392067e-06
154	0x37668da1	1.3742044e-05
155	0x3765cbb8	1.3696896e-05
156	0x36ea1f92	6.9774187e-06
157	0x36d09cd3	6.21714e-06
158	0x3691f3dc	4.3497257e-06
159	0x36b03542	5.2514088e-06
160	0x37447e27	1.17118825e-05
161	0x36e4f59e	6.823523e-06
162	0x3689f2f0	4.1112e-06
163	0x368108c0	3.845518e-06
164	0x36a51a99	4.9204796e-06
165	0x38ecfc66	0.0001130037
166	0x389d8beb	7.512405e-05
167	0x3a8d9554	0.001080195
168	0x3a74c629	0.00093373895
169	0x3a09fdbf	0.00052639464
170	0x37f57017	2.9258472e-05
171	0x37ee76fb	2.8427216e-05
172	0x3a26f3ef	0.00063687464
173	0x39c0a574	0.00036744366
174	0x38d4dce3	0.00010150091
175	0x38463716	4.725818e-05
176	0x38595994	5.1820258e-05
177	0x3898dbb4	7.288848e-05
178	0x391c7ae9	0.00014923107
179	0x38b47466	8.60475e-05
180	0x3887dc4e	6.4783366e-05
181	0x38a6be1f	7.95091e-05
182	0x3a3ebcb1	0.0007276042
183	0x3a8ca8b5	0.0010731431
184	0x3a8ece91	0.0010895302
185	0x392a2e13	0.00016229627
186	0x38fecf49	0.00012150274
187	0x395ffa92	0.00021360282
188	0x390bb56d	0.0001332366
189	0x38eee270	0.00011390902
190	0x38fe6924	0.00012131248
191	0x3900f7c7	0.00012299336
192	0x3903fb38	0.0001258672
193	0x38d44da0	0.000101234065
194	0x38e43c5c	0.0001088313
195	0x3b672ee0	0.0035275742
196	0x3b812b4b	0.0039419285
197	0x3b91a7b9	0.004445043
198	0x3b85f391	0.0040878733
199	0x3b89cdf7	0.004205461
200	0x39be1f69	0.00036263026
201	0x39854ad5	0.0002542349
202	0x396c8161	0.00022554911
203	0x39812a11	0.0002463614
204	0x399f9ccc	0.00030443666
205	0x3980c4d3	0.00024560708
206	0x3943e2a4	0.0001868108
207	0x3965a075	0.00021898917
208	0x398bf5c4	0.00026695256
209	0x398c035b	0.0002670538
210	0x3bc3bd4e	0.0059734946
211	0x3a3a5976	0.00071086676
212	0x39a56963	0.00031549772
213	0x3b4cde4c	0.003126043
214	0x3c0f56da	0.008748734
215	0x39951653	0.00028436127
216	0x37ef898e	2.8555074e-05
217	0x37ed64d5	2.8299555e-05
218	0x393b503e	0.00017863602
219	0x3a1bbe00	0.0005941093
220	0x39960aa6	0.00028618163
221	0x3863176f	5.414284e-05
222	0x3828b844	4.0225932e-05
223	0x3970b7e4	0.00022956688
224	0x3a2ab9c7	0.00065126683
225	0x397a8ef1	0.00023895108
226	0x38b0bd00	8.427538e-05
227	0x37a31943	1.9442878e-05
228	0x3708f90b	8.1642165e-06
229	0x3805e25e	3.1920492e-05
230	0x3859988e	5.187891e-05
231	0x37d999fe	2.5940124e-05
232	0x37c5578b	2.3524995e-05
233	0x37863572	1.5998932e-05
234	0x3789e708	1.6439255e-05
235	0x3816262d	3.579834e-05
236	0x37c84fa4	2.3878943e-05
237	0x3796cc39	1.7976492e-05
238	0x37757e59	1.4632556e-05
239	0x37a21090	1.9319617e-05

exp_avg f4 [16]
0	0xb2c9d8bf	-2.3498044e-08
1	0xb268da72	-1.3553846e-08
2	0xb091116d	-1.0555091e-09
3	0xb207d7ff	-7.907146e-09
4	0xb121c3fa	-2.3539983e-09
5	0x3096dd06	1.0976755e-09
6	0x309214be	1.0628793e-09
7	0x2ea9625c	7.7027024e-11
8	0xaf289cf4	-1.5335272e-10
9	0x31264ed4	2.4200988e-09
10	0x31113cf6	2.113493e-09
11	0x31892934	3.991909e-09
12	0x303ed746	6.942752e-10
13	0x31210b74	2.3435094e-09
14	0x327500ce	1.426106e-08
15	0xb0c4536f	-1.428459e-09

exp_avg_sq f4 [16]
0	0x26a7f1bd	1.1653476e-15
1	0x2688c46a	9.490134e-16
2	0x26746244	8.478768e-16
3	0x275d1bfc	3.0685081e-15
4	0x25167a2a	1.3051817e-16
5	0x24c36e5b	8.475472e-17
6	0x248a89bb	6.0081284e-17
7	0x259afa7c	2.6884476e-16
8	0x23c9a2dc	2.1861437e-17
9	0x2744828f	2.727124e-15
10	0x2636cf47	6.342485e-16
11	0x24823d3f	5.648227e-17
12	0x257b74e4	2.1810384e-16
13	0x26abe23c	1.192683e-15
14	0x271eb82e	2.2026749e-15
15	0x2583eef9	2.2886812e-16

exp_avg f4 [16]
0	0xbd1559ec	-0.03646271
1	0xbc1f88eb	-0.009737234
2	0x3c41070b	0.011781464
3	0x3c1bc250	0.009506777
4	0x3bdfd0ce	0.0068303114
5	0x3c8fd91c	0.01755958
6	0x3ba0a914	0.004902968
7	0xbc54404e	-0.012954785
8	0x3d5a73f4	0.053333238
9	0x3ba15535	0.0049234875
10	0x3c8fe159	0.017563509
11	0x3c82b91d	0.01595741
12	0xbd19caf1	-0.037547056
13	0xbd19f98d	-0.037591506
14	0xbc279a3e	-0.010229645
15	0x3b0fa336	0.002191735

exp_avg_sq f4 [16]
0	0x3ce7a59d	0.028277213
1	0x3c87f2a6	0.016595196
2	0x3b9e5c8b	0.0048328093
3	0x3be5dfc6	0.0070152013
4	0x3b16b433	0.002299559
5	0x3c32db33	0.010916519
6	0x3c601452	0.01367672
7	0x3b4ed49d	0.0031559833
8	0x3c316c4f	0.010829045
9	0x3c10fe82	0.008849742
10	0x3b9443c4	0.00452468
11	0x3b0bb497	0.0021317357
12	0x3dd8c47c	0.105843514
13	0x3d4bb7e2	0.04973591
14	0x3c2e459d	0.010636714
15	0x3cc62b7a	0.024190653

exp_avg f4 [16]
0	0x3d8a58ec	0.06755242
1	0x3df05df3	0.117366694
2	0x3ca0886e	0.019596305
3	0x3c268ce9	0.010165432
4	0xbcf83e9e	-0.030303296
5	0x3d1fea75	0.039041955
6	0x3bb5f7cd	0.005553222
7	0xbc8af681	-0.016963245
8	0x3d15ff06	0.036620162
9	0x3ca1a9aa	0.019734222
10	0xbd3125a6	-0.043248795
11	0x3cfe4f3b	0.03104364
12	0x3c1c6484	0.009545449
13	0xbe172d89	-0.14763464
14	0xbc66ca0a	-0.014086256
15	0x3b69f55e	0.0035699229

exp_avg_sq f4 [16]
0	0x3dc90777	0.09815877
1	0x3d5ee334	0.054415897
2	0x3ce8d894	0.028423585
3	0x3d931f3e	0.07183693
4	0x3c3c2b47	0.0114849275
5	0x3d3ef8ef	0.04662412
6	0x3dfde35c	0.12396881
7	0x3c437126	0.011928832
8	0x3c82eb3d	0.015981311
9	0x3d5ee3a1	0.054416303
10	0x3d11c206	0.035585426
11	0x3bf147bc	0.0073632877
12	0x3b579993	0.0032897934
13	0x3e400030	0.18750072
14	0x3da421e9	0.0801428
15	0x3b99e023	0.0046959086

exp_avg f4 [16, 16, 1, 5]
0	0x3a51d660	0.00080046616
1	0xb9b703a1	-0.00034907184
2	0x398a95b8	0.0002643296
3	0x39074727	0.0001290111
4	0x3ae65f17	0.0017575946
5	0x3a888753	0.0010416306
6	0xb9808fa7	-0.00024521092
7	0x39e666cd	0.0004394561
8	0x3aa680d7	0.0012703192
9	0x39c4729a	0.00037469418
10	0xb848902f	-4.7817997e-05
11	0xba947d17	-0.0011328784
12	0xbafa9dca	-0.0019120511
13	0xb9a17bdc	-0.00030800595
14	0xba58ada8	-0.0008265623
15	0x3b0312fc	0.002000033
16	0xba8e6e45	-0.0010866603
17	0x3b1c9f30	0.0023898594
18	0x3b15991b	0.0022826854
19	0x3a5a9a90	0.00083390716
20	0xba29fd88	-0.00064846175
21	0x3ab0adf8	0.0013479581
22	0x3a9821e2	0.0011606778
23	0x3b45e35d	0.0030195334
24	0x3ae1671d	0.0017196868
25	0x3997d46f	0.0002895924
26	0x3a8d4249	0.0010777201
27	0x3a35ebb9	0.00069397275
28	0xb8e66798	-0.000109865505
29	0xb943cb87	-0.00018672469
30	0x3909ee80	0.00013154186
31	0x3988af06	0.00026070344
32	0x3895538d	7.120436e-05
33	0x3940f45c	0.00018401578
34	0x398a6e02	0.00026403373
35	0xba47b8f8	-0.000761881
36	0xba55eebd	-0.000816088
37	0xba54fba2	-0.00081246544
38	0xba1c7b8a	-0.00059693365
39	0xbac39f81	-0.0014924855
40	0x3951b60f	0.00019999615
41	0x395d7e53	0.00021123262
42	0x3994c648	0.0002837649
43	0x369cde78	4.675061e-06
44	0x396185c5	0.00021507505
45	0xbb9a55d5	-0.004709939
46	0x3b5d4287	0.0033761577
47	0xbb0a8bef	-0.0021140536
48	0x3a806477	0.0009795566
49	0x3bb4c7eb	0.005516996
50	0x3ac15ab9	0.0014751769
51	0x3a0f5303	0.0005467387
52	0x37ad3131	2.0646114e-05
53	0x3a9ef93f	0.0012128724
54	0x3a601dc1	0.00085493556
55	0xba694cb8	-0.00088996766
56	0xb8ab8f4f	-8.180609e-05
57	0xb87ed3ee	-6.0755694e-05
58	0x38c7db19	9.5298696e-05
59	0x39683b51	0.00022147341
60	0x3b8a0c92	0.0042129243
61	0x3a5b9e4a	0.0008377774
62	0x3a9aae3e	0.0011801196
63	0x3b38819a	0.002815342
64	0x3b3cd054	0.0028810697
65	0x38f86a4f	0.00011845363
66	0x39ad91dd	0.00033105808
67	0x3a5dc007	0.0008459095
68	0x39d40287	0.00040437674
69	0x3aa49c78	0.0012558838
70	0xba13aaac	-0.0005633037
71	0x3a125fff	0.00055837625
72	0xba844414	-0.001009109
73	0x3a991e2f	0.0011681969
74	0x3a9cb624	0.0011956138
75	0xba00edec	-0.00049182656
76	0x3751a39a	1.2495462e-05
77	0xb9e3f13c	-0.00043476548
78	0x3b81a99d	0.003956987
79	0x3b7cb989	0.0038562736
80	0xbb3beeee	-0.0028676349
81	0xbaab888d	-0.001308696
82	0xbac3603e	-0.0014906002
83	0x3a6d45bb	0.0009051223
84	0xbb288c59	-0.002571842
85	0xbb40a708	-0.0029396433
86	0xba642ac7	-0.0008703884
87	0x3833421a	4.2738488e-05
88	0xbb52a137	-0.0032139549
89	0x38e488a8	0.000108973414
90	0xb9a1c2ef	-0.0003085355
91	0xba91baa9	-0.0011118251
92	0xba9f8706	-0.0012170977
93	0xba9e0139	-0.0012054808
94	0xba868012	-0.0010261557
95	0xbb09d392	-0.0021030647
96	0xb9bf3532	-0.00036469992
97	0x3b138cbc	0.0022514304
98	0xbb01b263	-0.0019790165
99	0x3b8516bd	0.0040615485
100	0xbb392ac1	-0.0028254243
101	0xbb7ae48b	-0.0038283195
102	0xbb6edea7	-0.003644863
103	0xbb5c63aa	-0.003362874
104	0xbbb41559	-0.005495709
105	0xbaa3ffe7	-0.0012512178
106	0xbac19e15	-0.0014771844
107	0xbac9aca2	-0.0015386532
108	0xba94644b	-0.0011321394
109	0xbaef61cf	-0.0018263402
110	0xb96e8557	-0.00022747122
111	0xb9527e0e	-0.0002007412
112	0xba1c6cff	-0.00059671694
113	0xb985c0e3	-0.0002551145
114	0xba01c49b	-0.0004950256
115	0xb83a57da	-4.4427674e-05
116	0xb97cd361	-0.00024111338
117	0xb999a79b	-0.0002930731
118	0xb7dd5768	-2.6385955e-05
119	0x39e7e40f	0.0004422967
120	0xb9b6b602	-0.00034849352
121	0xb9ef3a3b	-0.00045629017
122	0xb9dc23d9	-0.00041988379
123	0xb9fcc97c	-0.00048215303
124	0xba16af0f	-0.00057481317
125	0xb7ffc579	-3.0490324e-05
126	0xbae6b6f2	-0.0017602129
127	0x3b6a0e43	0.0035714067
128	0xba2736ce	-0.0006378711
129	0xbacdc7cb	-0.0015699802
130	0xbb28d597	-0.0025762075
131	0xbb42d990	-0.0029731728
132	0xbb592381	-0.0033132734
133	0xbb851a41	-0.0040619676
134	0xbb6465a5	-0.0034850624
135	0x39f86a55	0.0004738147
136	0x384474a2	4.6838664e-05
137	0x354528d8	7.3447654e-07
138	0xb85ca15c	-5.2602365e-05
139	0xb90dce99	-0.00013523771
140	0xbba36834	-0.004986787
141	0xba79ed78	-0.0009533982
142	0x3a8a5bf3	0.0010555967
143	0x3a0629f3	0.0005117945
144	0x3b530b1a	0.0032202662
145	0xba9437fd	-0.001130819
146	0x39bdfb74	0.00036236236
147	0xba7d0126	-0.0009651355
148	0xba97e72d	-0.0011589281
149	0xbb02552b	-0.001988719
150	0xb95d0d36	-0.00021081124
151	0xbb0976ec	-0.0020975424
152	0xb94daea0	-0.00019615376
153	0xbac4db65	-0.0015018998
154	0xbaa7bf77	-0.001279815
155	0xba577389	-0.0008218815
156	0xba3cb72e	-0.0007198927
157	0xbb1cbf3b	-0.0023917693
158	0xbb172f3d	-0.0023068928
159	0xb97e5411	-0.00024254645
160	0x3998d8ae	0.00029153138
161	0xb95faae1	-0.00021330595
162	0x3a15b00f	0.00057101337
163	0x3ad09a80	0.0015915185
164	0x3a6e8627	0.000909897
165	0xba012dd4	-0.00049277884
166	0xb90769bd	-0.00012913994
167	0x3abd3e71	0.0014438165
168	0x3aebb739	0.0017983682
169	0x3aaeaba9	0.0013326305
170	0xba47c8d5	-0.0007621174
171	0xbb1ae518	-0.0023635086
172	0xbb82b666	-0.0039890287
173	0xbb903c3a	-0.004401711
174	0xbb9d8697	-0.004807304
175	0x3ac37bd6	0.0014914225
176	0x3b4e00e3	0.0031433634
177	0x3baba63a	0.0052383216
178	0x3af6a675	0.0018817919
179	0x3b9597da	0.0045652213
180	0xbbc70112	-0.0060731256
181	0xbbb70834	-0.0055856947
182	0xbba84bae	-0.005135975
183	0xbbe42556	-0.0069624586
184	0xbc2f6b9d	-0.010706809
185	0x39c6a532	0.00037888583
186	0x39626e67	0.00021594168
187	0x3a9938a1	0.001168985
188	0xba0474c1	-0.0005052798
189	0xbb15d3fd	-0.002286195
190	0xb9bfe36c	-0.000365998
191	0xb977ecea	-0.00023644013
192	0xb9737250	-0.0002321687
193	0xb95b2e66	-0.00020902752
194	0xba3c1a66	-0.00071755645
195	0xba7827d9	-0.0009466387
196	0xbac14aa1	-0.0014746973
197	0xbb004a35	-0.001957548
198	0xbb14e81f	-0.0022721363
199	0xbafccff5	-0.001928805
200	0xb93826e9	-0.00017562103
201	0xb939f49c	-0.00017734099
202	0x3966e8e6	0.0002202127
203	0xb9bcea83	-0.0003603288
204	0xba56adf6	-0.00081893743
205	0xb99f656e	-0.00030402414
206	0x3bb99125	0.0056630545
207	0x3a2df212	0.00066354976
208	0x3b6a7c37	0.0035779604
209	0x3af93dcf	0.0019015613
210	0xbb556a42	-0.0032564555
211	0xbb926976	-0.0044681383
212	0xbbdc36b2	-0.0067203874
213	0xbc031b59	-0.008002126
214	0xbc0fb108	-0.008770235
215	0xba80eda3	-0.0009836446
216	0xba224624	-0.00061902613
217	0xbace2047	-0.0015726172
218	0xbaa65f97	-0.0012693283
219	0xbada4631	-0.0016652999
220	0x3bbd0af0	0.005769126
221	0x3b68e8b7	0.00355391
222	0x3b85c02a	0.0040817456
223	0x3bf57246	0.007490429
224	0x3c562042	0.013069214
225	0x3a202818	0.000610949
226	0xb8c72e26	-9.497655e-05
227	0x3a3595b2	0.00069269084
228	0x3a0369f6	0.0005013043
229	0x3acb124c	0.0015493124
230	0xba7d62ee	-0.0009665926
231	0xba6eabed	-0.00091045984
232	0xbb51111f	-0.0031901074
233	0xbb26cfe5	-0.0025453505
234	0xbb7b9474	-0.0038388046
235	0xbba6ccdb	-0.0050903386
236	0xbba3955a	-0.0049921693
237	0xbbbcaa04	-0.005757572
238	0xbbce1ec9	-0.006290291
239	0xbbaec308	-0.005333308
240	0x3a33edd0	0.0006863745
241	0xbad64cf0	-0.0016349833
242	0x3b3ae39b	0.002851701
243	0xbb3734cc	-0.0027955053
244	0x3b52b794	0.0032152878
245	0x3aac6af6	0.0013154435
246	0xb921b280	-0.00015420653
247	0x39c09e15	0.00036738874
248	0x3b72d816	0.0037055067
249	0xbb3a25c3	-0.0028403855
250	0x3ae8e36e	0.0017767975
251	0x3af75e55	0.0018872718
252	0xb968f01b	-0.0002221469
253	0xba52a63b	-0.00080356345
254	0x3ab90b25	0.0014117701
255	0xbb54fd31	-0.0032499547

exp_avg_sq f4 [16, 16, 1, 5]
0	0x378373a3	1.5670264e-05
1	0x376bfe71	1.4066333e-05
2	0x3756bf5b	1.2799947e-05
3	0x38006acf	3.061705e-05
4	0x388d7a09	6.746135e-05
5	0x37fe1b75	3.0291945e-05
6	0x37bfaa7a	2.2848359e-05
7	0x37dd6f9c	2.6397225e-05
8	0x387f88ed	6.092426e-05
9	0x38e26b24	0.00010796476
10	0x38642c68	5.4400793e-05
11	0x38a1fe6d	7.724469e-05
12	0x38e084e9	0.00010705909
13	0x39071f24	0.00012886204
14	0x38f1c05b	0.000115276045
15	0x38301d25	4.1988813e-05
16	0x38b29bff	8.516758e-05
17	0x38a54c29	7.881999e-05
18	0x394c6277	0.00019491637
19	0x390637a0	0.00012799958
20	0x37c6defe	2.3707278e-05
21	0x37977950	1.8057093e-05
22	0x38a46ef8	7.840799e-05
23	0x39a53eaf	0.00031517955
24	0x39b12e3b	0.00033794515
25	0x37826187	1.5542622e-05
26	0x3729227a	1.0081212e-05
27	0x377b77b9	1.4988641e-05
28	0x37905daa	1.7209753e-05
29	0x38112bbf	3.4611436e-05
30	0x355cf21f	8.230872e-07
31	0x351c9e6b	5.8345057e-07
32	0x3540fea0	7.18961e-07
33	0x35ae168c	1.2970572e-06
34	0x362ca625	2.5726706e-06
35	0x36bd0ea0	5.6343415e-06
36	0x3701386f	7.702139e-06
37	0x3769a64c	1.3926601e-05
38	0x37a2b455	1.9395879e-05
39	0x37b1f0b4	2.121213e-05
40	0x3549537d	7.4999826e-07
41	0x350dabeb	5.2776767e-07
42	0x352bb225	6.39617e-07
43	0x359ac347	1.1530727e-06
44	0x36091b6a	2.0430548e-06
45	0x38a3521a	7.787738e-05
46	0x3875f11f	5.8637113e-05
47	0x388f8943	6.844338e-05
48	0x38c167dc	9.2223025e-05
49	0x392477da	0.00015684907
50	0x3820fe92	3.838406e-05
51	0x3888f99a	6.531477e-05
52	0x38ef152e	0.00011400353
53	0x392f83b0	0.00016738358
54	0x3901b39f	0.00012369313
55	0x37803d3e	1.5287307e-05
56	0x363d1a98	2.8178674e-06
57	0x3786221f	1.5989934e-05
58	0x36b45027	5.373749e-06
59	0x3759e9be	1.298863e-05
60	0x39001fa8	0.00012218824
61	0x39714af3	0.00023011472
62	0x38eab56d	0.00011191783
63	0x398c24c2	0.00026730268
64	0x39ec1b0b	0.00045033576
65	0x37a2c946	1.940563e-05
66	0x37339166	1.0703085e-05
67	0x37a1dd3e	1.929572e-05
68	0x37b3c816	2.1431635e-05
69	0x388b13e8	6.631744e-05
70	0x37d569fd	2.5440933e-05
71	0x3801ccb1	3.094663e-05
72	0x38714956	5.7527177e-05
73	0x38b23853	8.4981926e-05
74	0x3886be2f	6.4250424e-05
75	0x37e997ce	2.7846454e-05
76	0x384b8f93	4.8532685e-05
77	0x38fb0c41	0.00011970895
78	0x39b94ac7	0.00035341663
79	0x398a0733	0.00026326775
80	0x3894341f	7.066898e-05
81	0x3808af60	3.2588257e-05
82	0x380c16d1	3.339985e-05
83	0x37df8193	2.664401e-05
84	0x37b05614	2.1020918e-05
85	0x3905ed24	0.0001277221
86	0x38624630	5.3947966e-05
87	0x3894a1f4	7.087356e-05
88	0x3841212f	4.604569e-05
89	0x3823eb9e	3.9081664e-05
90	0x38b2e77b	8.530818e-05
91	0x385ce2da	5.266336e-05
92	0x37fe993d	3.0350517e-05
93	0x37c65381	2.3642324e-05
94	0x38133829	3.5099834e-05
95	0x38ffde4f	0.00012200756
96	0x38f8a2d4	0.000118558906
97	0x38c05921	9.171875e-05
98	0x397a29e0	0.00023857458
99	0x38b3734b	8.55686e-05
100	0x3a097bc5	0.00052445784
101	0x39d4356f	0.00040475602
102	0x399c2e62	0.00029789197
103	0x3919b9a4	0.00014660374
104	0x3962e8f1	0.00021639817
105	0x382dbe01	4.142337e-05
106	0x37bbec20	2.2402091e-05
107	0x382b3d3f	4.0826617e-05
108	0x37c96d28	2.4011897e-05
109	0x37834e98	1.5653015e-05
110	0x35cc7054	1.5231876e-06
111	0x35cd8916	1.5313587e-06
112	0x361637fc	2.238433e-06
113	0x359321e6	1.0962219e-06
114	0x35b4d679	1.3473465e-06
115	0x37d31703	2.5163876e-05
116	0x36fc5e38	7.5211537e-06
117	0x367e77a4	3.791859e-06
118	0x36fd76db	7.553824e-06
119	0x3712ebe8	8.757204e-06
120	0x35de395d	1.6556984e-06
121	0x35c57617	1.4712012e-06
122	0x36117ee6	2.1680548e-06
123	0x35ba0008	1.3858089e-06
124	0x359bf3e1	1.1619378e-06
125	0x398b434d	0.0002656229
126	0x391e0a9f	0.00015072011
127	0x391ed62e	0.00015147842
128	0x392e211b	0.00016606266
129	0x3927a38f	0.00015987291
130	0x3917596c	0.00014433794
131	0x38f49608	0.00011662772
132	0x38c509bb	9.3955045e-05
133	0x38adebb0	8.293183e-05
134	0x38baf076	8.9139605e-05
135	0x38346691	4.3010867e-05
136	0x37661fbe	1.3716459e-05
137	0x38197c12	3.6593592e-05
138	0x3638a55e	2.7514393e-06
139	0x36f26714	7.224162e-06
140	0x3ac351bf	0.0014901682
141	0x3a8f9425	0.0010954185
142	0x3996b4be	0.00028744893
143	0x3966db32	0.00022016166
144	0x39af462f	0.00033430892
145	0x385040a3	4.9651262e-05
146	0x37ea16ae	2.7905535e-05
147	0x38354203	4.321524e-05
148	0x379a9e18	1.8431849e-05
149	0x3797596b	1.8042241e-05
150	0x38e0903d	0.00010708019
151	0x38bce202	9.006636e-05
152	0x382b4e3a	4.084243e-05
153	0x38313165	4.224609e-05
154	0x388c565a	6.6918044e-05
155	0x39824e82	0.00024854025
156	0x38cdffb6	9.8227916e-05
157	0x38aa2012	8.112205e-05
158	0x38b14e7c	8.4546366e-05
159	0x38b7cf8a	8.764777e-05
160	0x37955123	1.7799966e-05
161	0x37b83b7b	2.1962207e-05
162	0x381f7117	3.8013877e-05
163	0x38ad94b7	8.276983e-05
164	0x38d551bd	0.000101718564
165	0x38276db8	3.9918086e-05
166	0x382c6368	4.1100575e-05
167	0x38b44611	8.59612e-05
168	0x39103748	0.00013753504
169	0x393196ba	0.00016936185
170	0x396fd3e6	0.00022871754
171	0x398d960c	0.0002700541
172	0x39822592	0.00024823524
173	0x3960e9b7	0.0002144937
174	0x396788a8	0.00022080785
175	0x38be5c89	9.077142e-05
176	0x38c9d582	9.624196e-05
177	0x3931d9e4	0.00016961206
178	0x399a4b08	0.00029429072
179	0x3a086912	0.0005203645
180	0x3a6c6cfa	0.00090189243
181	0x3a4b358d	0.0007751815
182	0x3a53642b	0.00080639374
183	0x3a633229	0.0008666837
184	0x3a5d5f67	0.0008444697
185	0x37b4c645	2.1549999e-05
186	0x3749f39a	1.20372515e-05
187	0x389a1c25	7.3485346e-05
188	0x38369480	4.3530483e-05
189	0x381dcb52	3.7621074e-05
190	0x35cf9d3c	1.5468463e-06
191	0x35b18c3c	1.3228341e-06
192	0x360553e3	1.9867373e-06
193	0x364aee66	3.0239112e-06
194	0x363d717e	2.8229256e-06
195	0x37ea78d6	2.7951242e-05
196	0x380a18b0	3.2924756e-05
197	0x38297617	4.040272e-05
198	0x384b9561	4.853809e-05
199	0x386c0ef2	5.6280704e-05
200	0x3599a81e	1.1448317e-06
201	0x356c5170	8.803536e-07
202	0x361b866e	2.3175048e-06
203	0x3616bd79	2.246203e-06
204	0x36391e7a	2.7584888e-06
205	0x38f0773e	0.000114663024
206	0x38c69a0e	9.470071e-05
207	0x38efd8f8	0.00011436822
208	0x3979eb98	0.00023834256
209	0x3990c088	0.00027609267
210	0x39cd1d34	0.00039122405
211	0x39f16178	0.00046039722
212	0x39e4bb69	0.0004362718
213	0x39cad7ab	0.00038689128
214	0x39cf33ae	0.0003952062
215	0x382235a9	3.8673785e-05
216	0x3716f9ee	8.998888e-06
217	0x38d21e0c	0.00010019177
218	0x379ca365	1.8672736e-05
219	0x37e0413d	2.673326e-05
220	0x3a2b6c98	0.0006539314
221	0x39e3c38b	0.00043442505
222	0x39fedaa2	0.0004860955
223	0x3a846c48	0.0010103071
224	0x3aa9d560	0.0012957267
225	0x37d44a2b	2.5306907e-05
226	0x3783c9c7	1.5710377e-05
227	0x38a62fc8	7.924397e-05
228	0x386bbc21	5.6203575e-05
229	0x389e7c9c	7.5572374e-05
230	0x38fd5683	0.00012080094
231	0x39236fbb	0.00015586514
232	0x394a1271	0.00019271091
233	0x391c095c	0.00014880806
234	0x391d731f	0.00015015573
235	0x3a1e0bbd	0.0006028971
236	0x3a1a6320	0.00058894046
237	0x3a009c6b	0.00049061206
238	0x3a1fe4c2	0.0006099456
239	0x3a2ecbab	0.0006667922
240	0x395f13cb	0.0002127431
241	0x38ee3f1e	0.00011360481
242	0x38f21895	0.00011544038
243	0x390ab7fd	0.00013229247
244	0x392356af	0.00015577184
245	0x39dee632	0.00042514649
246	0x393f675b	0.00018253682
247	0x3960684c	0.00021401158
248	0x397d03a2	0.00024129314
249	0x3987a70a	0.0002587366
250	0x3991966d	0.0002776863
251	0x3992a39e	0.00027969194
252	0x39b7bcf3	0.00035045258
253	0x39a27b37	0.0003099085
254	0x39ace8a2	0.0003297972
255	0x3a23a67f	0.00062427664

exp_avg f4 [16]
0	0x323b62bb	1.0907281e-08
1	0xb1cff574	-6.0523977e-09
2	0x31f4ba6a	7.1225275e-09
3	0x31edd05b	6.921295e-09
4	0x312aebd2	2.4872304e-09
5	0xb2931313	-1.7121726e-08
6	0xb177babc	-3.6049377e-09
7	0xb18eb097	-4.15282e-09
8	0xb22d440a	-1.0085396e-08
9	0xb109681c	-1.9995303e-09
10	0x30f13334	1.7549611e-09
11	0xb037f927	-6.692908e-10
12	0xb057ce9a	-7.8510143e-10
13	0xafc6ddd2	-3.6173603e-10
14	0x31cddbc0	5.991268e-09
15	0x3119b9e1	2.237009e-09

exp_avg_sq f4 [16]
0	0x27008f30	1.784119e-15
1	0x26240b3f	5.691417e-16
2	0x2729610f	2.3506077e-15
3	0x27a999f8	4.7073856e-15
4	0x27813235	3.5859127e-15
5	0x2708e970	1.9000338e-15
6	0x278c56be	3.895185e-15
7	0x27d1b67c	5.8207003e-15
8	0x26bac69e	1.2960178e-15
9	0x26ab8f9d	1.1904435e-15
10	0x26d3d5a6	1.4698976e-15
11	0x26a05e0f	1.1127725e-15
12	0x25aca70f	2.9950447e-16
13	0x265511e9	7.3923493e-16
14	0x27136600	2.0455642e-15
15	0x26644023	7.919031e-16

exp_avg f4 [16]
0	0x3cf0b3a8	0.029382542
1	0x3c2e5a9a	0.010641718
2	0x3cd8b86d	0.026455129
3	0xbd032675	-0.032019097
4	0xbd864eb3	-0.065579794
5	0x3be0734f	0.0068496834
6	0x3c9e4853	0.019321596
7	0x3b48c29d	0.0030633577
8	0x3af7895f	0.0018885544
9	0xbb424a82	-0.002964646
10	0x3c1a8f4d	0.00943358
11	0x3bad51fb	0.005289314
12	0x3bb5c2bf	0.005546897
13	0xbbd72484	-0.0065656323
14	0x3c0927e2	0.008371325
15	0xbb9d7f6e	-0.0048064506

exp_avg_sq f4 [16]
0	0x3b70e8c1	0.0036759826
1	0x3c1b78ef	0.009489282
2	0x3b6a56a5	0.003575721
3	0x3b85ba84	0.0040810723
4	0x3cdfdba0	0.027326405
5	0x3a986d95	0.0011629338
6	0x3ae4cd23	0.0017456155
7	0x3a908579	0.0011026106
8	0x3a7df2bf	0.0009687356
9	0x3a18fb01	0.00058357423
10	0x3b878f0a	0.0041369246
11	0x3957d14f	0.00020581971
12	0x3a9f20e4	0.001214054
13	0x3ac3c076	0.0014934677
14	0x3c091ba4	0.008368406
15	0x3ae4dbca	0.0017460522

exp_avg f4 [16]
0	0x3c69eafd	0.014277217
1	0x3c98b8f1	0.018642874
2	0x3b49d9a7	0.0030799897
3	0x3b539227	0.0032283159
4	0xb99efcab	-0.0003032436
5	0xba18ed31	-0.0005833684
6	0x3ba3d2fa	0.0049995156
7	0xba1fb9e6	-0.00060930697
8	0xbb788f21	-0.0037927108
9	0xba946f4c	-0.0011324673
10	0xb96af5ae	-0.00022407502
11	0xb984a915	-0.00025302978
12	0x3bc0193a	0.0058623822
13	0xbbad9059	-0.0052967486
14	0x3c63c4d8	0.013901912
15	0xbc1bf7cf	-0.009519531

exp_avg_sq f4 [16]
0	0x3aa1b70f	0.0012337881
1	0x3b2b26fb	0.0026115763
2	0x38dbaf59	0.00010475395
3	0x39c1b373	0.0003694553
4	0x36f51a3c	7.304623e-06
5	0x381b4652	3.702037e-05
6	0x399d4ee0	0.0003000414
7	0x3a8c8ed4	0.0010723718
8	0x38c628e5	9.448993e-05
9	0x38a60a03	7.917362e-05
10	0x37933050	1.7546263e-05
11	0x38757188	5.8518286e-05
12	0x3a28081d	0.00064099004
13	0x39f854dd	0.00047365474
14	0x3bba05a4	0.005676942
15	0x39fd6b96	0.00048336078

exp_avg f4 [16, 8, 1, 1]
0	0xbc47d53f	-0.012196838
1	0x3cd845a1	0.02640039
2	0xbba9f7e4	-0.0051870216
3	0x3c37642d	0.011193317
4	0x3ce3f953	0.027828848
5	0x3b977c53	0.004622975
6	0x3ac0b6ad	0.0014702879
7	0xbc42e241	-0.011894763
8	0xbc0855db	-0.008321251
9	0x3b6e083b	0.0036320824
10	0xbba8d829	-0.0051527214
11	0x3c51645b	0.012780274
12	0x3ba1fe4a	0.0049436437
13	0x39ea786d	0.00044721682
14	0xbb285551	-0.0025685618
15	0xbbc57136	-0.0060254587
16	0x3af29b84	0.0018509482
17	0xbb921b8a	-0.0044588493
18	0xbb6ca7be	-0.0036110724
19	0x3b5f8236	0.0034104711
20	0x3a20e49e	0.0006137582
21	0x3b698b95	0.0035636176
22	0xbb84da5d	-0.0040543512
23	0xba9e9aab	-0.0012100538
24	0xbbe1a02b	-0.0068855486
25	0xbb88a2ac	-0.0041697826
26	0xba6c81e2	-0.00090220396
27	0xbb4bd5c6	-0.003110276
28	0x3a791e51	0.00095031137
29	0xb94b3993	-0.00019381037
30	0xbb016846	-0.001974599
31	0x3b126232	0.002233636
32	0x3ad6eaae	0.0016396844
33	0xba3a5eaa	-0.0007109443
34	0xbaff651c	-0.0019485089
35	0xbba5c537	-0.00505891
36	0x3bb1b4e4	0.005423175
37	0xbc101fbd	-0.0087966295
38	0x3bcee084	0.0063133854
39	0x3a83fba9	0.0010069507
40	0xbd2e9983	-0.04262687
41	0x3d68a397	0.056796636
42	0x3c1a3216	0.0094113555
43	0x3c61b5ad	0.013776225
44	0x3d96aff1	0.07357777
45	0x3bd84e50	0.0066011325
46	0x3c674a2b	0.014116804
47	0xbcbd2381	-0.023088219
48	0x3a368f5b	0.00069641107
49	0xbb92a66e	-0.0044754064
50	0xb982088b	-0.00024801897
51	0x3b193fb0	0.0023383908
52	0xbbb480a4	-0.005508499
53	0xba51ff80	-0.000801079
54	0x3ad10fab	0.0015950104
55	0xba37f184	-0.00070168846
56	0x3ad794be	0.0016447527
57	0xbc494d12	-0.012286441
58	0x3ae03ba5	0.0017107619
59	0xbc582e76	-0.013194671
60	0x3634c378	2.6935868e-06
61	0x39b162f5	0.000338338
62	0xbae1fedf	-0.0017242095
63	0x3bd86642	0.006603987
64	0xbb66800e	-0.0035171541
65	0x393ba5d8	0.00017895491
66	0xbb61ddb0	-0.0034464411
67	0xbc0d67c6	-0.008630699
68	0xbc67d9be	-0.014151035
69	0xbb9b19b5	-0.004733289
70	0xbbb413af	-0.0054955105
71	0xbc12ebb8	-0.008967333
72	0xbbfcf303	-0.007719399
73	0x3c0fb3a3	0.008770856
74	0xb93ceb61	-0.00018016763
75	0x3c314d5b	0.010821666
76	0x3a5b414a	0.0008363916
77	0x3be095e3	0.0068538054
78	0x39b556fd	0.00034587822
79	0xbbd37c5b	-0.0064540333
80	0xbb3b26ab	-0.0028556983
81	0xbc73a8d1	-0.014871792
82	0x3b622aa4	0.003451028
83	0xbc1cbfef	-0.009567245
84	0x3aad7f84	0.0013236855
85	0xbb942439	-0.0045209196
86	0x3a8578fb	0.001018315
87	0x3c1a36e7	0.009412504
88	0x3b986118	0.0046502464
89	0xbc13ab9f	-0.009013086
90	0x3b3ae5be	0.0028518285
91	0xbb25c217	-0.0025292689
92	0xbcbc94df	-0.023020206
93	0x3b192082	0.0023365323
94	0x3a580bcb	0.00082415034
95	0xba4b2c3e	-0.0007750428
96	0x3bca5ef3	0.0061758696
97	0xbbf3d08a	-0.0074406313
98	0x3c739f84	0.014869574
99	0xbc56c563	-0.013108584
100	0xbc7cd052	-0.015430527
101	0xbb0954dd	-0.0020955123
102	0x3acca31f	0.0015612579
103	0x3c9194a0	0.017771065
104	0xbc19f12f	-0.009395882
105	0x3b608230	0.0034257285
106	0xbba0488a	-0.00489146
107	0xbb569feb	-0.0032749127
108	0x3cb3671b	0.02189975
109	0xbb56af75	-0.003275839
110	0x3c056e32	0.008143948
111	0xb9a73270	-0.000318903
112	0xba79c721	-0.0009528269
113	0x396aa1ae	0.0002237621
114	0x3b44471f	0.0029949618
115	0xbc311325	-0.010807787
116	0x3bfed349	0.007776652
117	0x3900d4c3	0.00012286291
118	0x3ade7a48	0.0016973699
119	0x3bb94a3d	0.005654602
120	0x3c368443	0.011139932
121	0xbc8c6200	-0.017136574
122	0x3a1e60b8	0.0006041634
123	0xbc31779a	-0.010831738
124	0xbd002fff	-0.031295773
125	0xbb7c94f0	-0.0038540922
126	0xbb8675a3	-0.004103379
127	0x3ba02f00	0.0048884153

exp_avg_sq f4 [16, 8, 1, 1]
0	0x3afd3ae7	0.0019319922
1	0x3b9cae83	0.0047815456
2	0x39bdf27e	0.0003622956
3	0x3aa2efd4	0.0012431093
4	0x3b8ef161	0.0043622707
5	0x393f0ee2	0.00018220724
6	0x398a5aaf	0.00026388976
7	0x3a916c77	0.0011094947
8	0x3b1c8001	0.0023880007
9	0x3ac4a82e	0.0015003735
10	0x3a3607a0	0.0006943885
11	0x3a18a48e	0.00058228604
12	0x3b078e1d	0.0020684071
13	0x3952f35a	0.00020117816
14	0x38eabf90	0.00011193671
15	0x3acc18c9	0.0015571351
16	0x3985b8a3	0.00025505302
17	0x3a1d76db	0.00060067856
18	0x39546326	0.00020254831
19	0x39f1526a	0.00046028505
20	0x3935f328	0.00017352088
21	0x39c369e0	0.0003727218
22	0x394712df	0.00018985149
23	0x3a4f28e7	0.0007902518
24	0x3a372a07	0.00069871586
25	0x39d9315c	0.0004142624
26	0x39b30be5	0.00034150403
27	0x3a3f5149	0.0007298184
28	0x3a3b55ab	0.00071462494
29	0x3899c534	7.3323405e-05
30	0x38f538ff	0.00011693127
31	0x39146724	0.00014152803
32	0x38994750	7.3088915e-05
33	0x3a72a0c9	0.0009255526
34	0x38a33cd8	7.783779e-05
35	0x3a125aaf	0.0005582971
36	0x39bf998c	0.0003654476
37	0x3a0f8866	0.0005475342
38	0x3a036823	0.0005012771
39	0x3962c77a	0.0002162735
40	0x3c550eaf	0.013003989
41	0x3d0900ea	0.033448137
42	0x3a7e0678	0.0009690295
43	0x3ba49951	0.0050231596
44	0x3d24af93	0.040206503
45	0x3a743dc4	0.0009317065
46	0x3ad6f2a6	0.0016399219
47	0x3be2ddfe	0.006923436
48	0x3977ab45	0.00023619558
49	0x398ab659	0.0002645727
50	0x386ffac0	5.721557e-05
51	0x3a0b4ff9	0.0005314346
52	0x3a03865d	0.0005017275
53	0x38cf8274	9.894828e-05
54	0x38b1e97c	8.4835076e-05
55	0x3829bb30	4.046707e-05
56	0x398f7bf0	0.00027367426
57	0x3b4c83d3	0.0031206503
58	0x397dd02a	0.00024205507
59	0x3b089070	0.0020838045
60	0x39f218a3	0.00046176193
61	0x3978b33c	0.00023717893
62	0x396cf809	0.00022599114
63	0x3a95cd07	0.0011428901
64	0x3acbd123	0.0015549998
65	0x3bc4aaad	0.0060017915
66	0x3a006bae	0.0004898858
67	0x3a2fbdf3	0.0006704025
68	0x3b5571c7	0.0032569037
69	0x39b15955	0.00033826628
70	0x399d0038	0.00029945537
71	0x3b1d6e5d	0.002402208
72	0x39323145	0.00016993757
73	0x3aa73e51	0.0012759661
74	0x39a09faa	0.00030636537
75	0x3a65d756	0.00087677443
76	0x3a4fb532	0.00079234235
77	0x3956df06	0.00020491713
78	0x3975f06c	0.00023454585
79	0x399b3f57	0.00029611096
80	0x39d0f72c	0.0003985701
81	0x3ab9ae88	0.0014166394
82	0x39d21dac	0.0004007643
83	0x3a2d1fcb	0.0006604164
84	0x39e1c45f	0.00043061652
85	0x39f174a5	0.0004605401
86	0x38e939a9	0.00011121046
87	0x3a462c61	0.00075597136
88	0x39688652	0.00022175282
89	0x3a74c11f	0.00093366386
90	0x399a7ad2	0.00029464677
91	0x3a3c5083	0.0007183628
92	0x3b0a2ede	0.0021085064
93	0x399001af	0.00027467075
94	0x3918a90e	0.00014558827
95	0x39d6d2f0	0.0004097442
96	0x39c6bad5	0.00037904704
97	0x3b345ec0	0.0027522296
98	0x39e17af6	0.00043006957
99	0x3aed44f2	0.0018102212
100	0x3a95db35	0.0011433127
101	0x3993f43f	0.00028220002
102	0x391c0a53	0.00014881165
103	0x3ab8b6a5	0.0014092518
104	0x3a2d36b8	0.000660758
105	0x3ae375ea	0.0017353867
106	0x3a96ec48	0.0011514509
107	0x3a71fa2a	0.0009230698
108	0x3b3d3803	0.0028872497
109	0x3a2b247c	0.0006528569
110	0x39af4c6a	0.00033435534
111	0x3a152648	0.0005689603
112	0x3a036ee8	0.000501378
113	0x3908100e	0.00012975952
114	0x389ec241	7.57021e-05
115	0x3aa8558d	0.0012842879
116	0x39f1dbdc	0.0004613091
117	0x38d054d1	9.934011e-05
118	0x384e30d8	4.9159717e-05
119	0x393b51cf	0.00017864186
120	0x3ab322e9	0.001366702
121	0x3bcc374d	0.0062321783
122	0x3a3b204b	0.0007138296
123	0x3a33bce9	0.0006856458
124	0x3bc6f9e8	0.0060722716
125	0x39c79b31	0.00038071864
126	0x38e97402	0.00011131914
127	0x3aa24639	0.0012380547

exp_avg f4 [16]
0	0x3046155d	7.206234e-10
1	0x31962fe3	4.3710187e-09
2	0x308454cf	9.628368e-10
3	0x310be037	2.0354614e-09
4	0x2fc3a033	3.5584122e-10
5	0x31c7b6a5	5.8124265e-09
6	0xb0fe1d69	-1.8489291e-09
7	0xb0d7f7f6	-1.5713784e-09
8	0x2f8619f0	2.4392888e-10
9	0x3194d99b	4.332106e-09
10	0x31857324	3.8838994e-09
11	0xb199c26c	-4.4749893e-09
12	0xb010f2f8	-5.2732174e-10
13	0x318d6b04	4.1158064e-09
14	0x2f48e6e3	1.8271921e-10
15	0x3176a360	3.589058e-09

exp_avg_sq f4 [16]
0	0x25a2855a	2.8192883e-16
1	0x255355e1	1.833043e-16
2	0x25a9d89a	2.9463602e-16
3	0x26472b9b	6.910109e-16
4	0x245cfc4e	4.7918606e-17
5	0x2649b229	6.9977336e-16
6	0x24eeb7ab	1.0352719e-16
7	0x23d0c61e	2.2635311e-17
8	0x24b3f2d9	7.8040275e-17
9	0x25670711	2.003845e-16
10	0x258439d9	2.293755e-16
11	0x251865ca	1.3218386e-16
12	0x2493302c	6.3832694e-17
13	0x250dedaa	1.2310324e-16
14	0x24be3253	8.248462e-17
15	0x24a486c2	7.135195e-17

exp_avg f4 [16]
0	0x3b0dde6b	0.0021647464
1	0x3bbd46b8	0.0057762526
2	0x3c15455a	0.009110773
3	0xbbf0e4bd	-0.0073514865
4	0x3b6ed113	0.0036440536
5	0x3b97715d	0.0046216683
6	0xb994551f	-0.0002829218
7	0x38a6f71c	7.9615245e-05
8	0x39e9c2d9	0.00044586396
9	0x3a6d304b	0.0009048029
10	0xb7cff5e2	-2.4790821e-05
11	0xbb853d37	-0.0040661353
12	0xb9c345ff	-0.0003724545
13	0x3aa7ef13	0.0012812339
14	0x3a19546a	0.00058490655
15	0xba04657b	-0.0005050522

exp_avg_sq f4 [16]
0	0x3825c1a7	3.951942e-05
1	0x398cc0b2	0.0002684645
2	0x3c0b7433	0.008511591
3	0x3acd453f	0.0015660896
4	0x38ed7e4e	0.00011324567
5	0x38957982	7.127506e-05
6	0x3855e250	5.0993927e-05
7	0x34553117	1.985503e-07
8	0x37bd0af7	2.2535662e-05
9	0x36995f2b	4.5708343e-06
10	0x38cf2061	9.87656e-05
11	0x39b4668d	0.00034408682
12	0x3642d883	2.903428e-06
13	0x3796a30f	1.7957324e-05
14	0x382dfe54	4.1483276e-05
15	0x35855ef9	9.936913e-07

exp_avg f4 [16]
0	0xbc40c77a	-0.011766309
1	0xbb9cada2	-0.004781441
2	0xbaad4c06	-0.0013221509
3	0xbc09b2f1	-0.008404479
4	0x3bf177e9	0.0073690307
5	0xbc4b0311	-0.012390868
6	0x39200bf3	0.0001526324
7	0x3a338cd9	0.0006849296
8	0xb98993d8	-0.00026240828
9	0xbbe2e5bf	-0.0069243605
10	0xb782b316	-1.5580601e-05
11	0x3b45e7c4	0.0030197958
12	0xbb10352e	-0.0022004354
13	0xbad9e60c	-0.0016624345
14	0xba8a639b	-0.0010558249
15	0x3bd466a6	0.006481963

exp_avg_sq f4 [16]
0	0x3a8b11ce	0.0010610165
1	0x39413413	0.00018425313
2	0x393a36f7	0.00017758818
3	0x3b06e456	0.0020582876
4	0x39eb0a15	0.00044830205
5	0x3a052ad4	0.0005079929
6	0x379a8d25	1.8423956e-05
7	0x378326ea	1.5634538e-05
8	0x36fdbe8e	7.562171e-06
9	0x398f8510	0.00027374225
10	0x38309983	4.210464e-05
11	0x39408cdd	0.00018363023
12	0x38c73313	9.498573e-05
13	0x37fe85ff	3.0341556e-05
14	0x39007cdf	0.0001225355
15	0x3946d84f	0.00018963333

exp_avg f4 [16, 1, 3, 3]
0	0x3bf92ec5	0.0076044523
1	0x3b89c94f	0.004204906
2	0x3a3ac86d	0.00071252027
3	0x3c191e40	0.009345591
4	0x3b967425	0.004591482
5	0x3a0d2829	0.00053847075
6	0x3c3842cc	0.011246394
7	0x3bc8f132	0.0061322683
8	0x3a501ed0	0.0007939162
9	0x3b5ad19b	0.0033389095
10	0xba1d63db	-0.00060039543
11	0xbb8c7e98	-0.004287552
12	0x3af2dec7	0.0018529528
13	0x3a55582c	0.0008138444
14	0xbaf53403	-0.0018707517
15	0xb9fcf9fa	-0.00048251433
16	0xba811b03	-0.0009849969
17	0xbaca11e0	-0.0015416704
18	0x3b67339e	0.003527857
19	0xba935206	-0.0011239655
20	0x3b7349b4	0.0037122788
21	0x3cbf97bd	0.023387784
22	0x3c72c3b9	0.014817172
23	0x3cad85c0	0.021181941
24	0x3d024a4f	0.031809147
25	0x3cafc0c9	0.021454232
26	0x3ce72864	0.028217502
27	0xbae0d06f	-0.0017151962
28	0xba325cb9	-0.0006803978
29	0xba77b7bf	-0.00094496825
30	0xb9c5479a	-0.00037628115
31	0x39ffb175	0.00048769606
32	0x392f614f	0.00016725551
33	0xb9972f74	-0.0002883632
34	0x39e17ab1	0.00043006756
35	0xb8b4bdde	-8.6184344e-05
36	0xba30715e	-0.000673076
37	0x3be36ab3	0.00694021
38	0x3b4a5636	0.003087414
39	0xbad1f297	-0.0016017732
40	0x3b8e14dd	0.004335983
41	0x3a0ac5d6	0.0005293762
42	0x3b0afe51	0.0021208713
43	0x3b883b8f	0.0041574906
44	0xba76802b	-0.0009403254
45	0xb9c03ce3	-0.00036666458
46	0x3b82776a	0.0039815204
47	0x39d608db	0.0004082386
48	0xba8b1e8d	-0.0010613963
49	0x3b505aad	0.0031792328
50	0xbaa9cc7b	-0.0012954617
51	0x3b25673f	0.0025238541
52	0x3bf47471	0.00746017
53	0x3b08b992	0.0020862562
54	0x3b34154b	0.0027478512
55	0x3b23792b	0.0024944048
56	0x3be95052	0.0071201706
57	0x3be1cda3	0.006890969
58	0x3be4fc2a	0.006988068
59	0x3c5b9abf	0.013403594
60	0x3c165d98	0.009177588
61	0x3bd76e33	0.006574416
62	0x3c489834	0.012243319
63	0xba8c867c	-0.0010721232
64	0x37977a4c	1.8057552e-05
65	0x394c9c77	0.00019513244
66	0xba9dd4bb	-0.0012041548
67	0xb74851aa	-1.1939943e-05
68	0x39f4bbf4	0.00046679343
69	0xbaad4043	-0.0013218004
70	0x39d0488c	0.00039726903
71	0x39e49587	0.00043598955
72	0x3b4b6a0c	0.003103855
73	0x3ac95ac5	0.0015362134
74	0x3ace1cfc	0.0015725191
75	0x3b1f5bba	0.0024316148
76	0x391a8421	0.00014735806
77	0x3a1b0b55	0.00059144694
78	0x3a99f2aa	0.0011745293
79	0xbabecf8c	-0.0014557703
80	0xba16da1c	-0.0005754547
81	0xbb1ee3e6	-0.0024244725
82	0x3b067607	0.0020517127
83	0xbaa1d309	-0.0012346219
84	0xbb830972	-0.0039989287
85	0x395ef205	0.00021261729
86	0xba2a7ed7	-0.0006503886
87	0xbb352d5a	-0.002764544
88	0x3afe543e	0.0019403768
89	0x3ae0faf9	0.001716464
90	0xbc0bbbfc	-0.008528706
91	0xbb0a7736	-0.0021128184
92	0xbbd3c99a	-0.0064632418
93	0xbc36bf0d	-0.0111539485
94	0xbbc79fb0	-0.0060920343
95	0xbbc1e799	-0.005917501
96	0xbc1e0091	-0.00964369
97	0xbbd4df77	-0.0064963656
98	0xbb480c68	-0.0030524973
99	0x3b974efc	0.00461757
100	0x3bd2697f	0.0064212675
101	0x3c024700	0.007951498
102	0x3be81acd	0.007083273
103	0x3bf62064	0.0075111855
104	0x3c3cbf0d	0.011520159
105	0x3c193b75	0.009352555
106	0x3ba5136a	0.0050377147
107	0x3c55294e	0.013010336
108	0x3a696ce8	0.0008904473
109	0x3a1bde12	0.0005945872
110	0xba95155b	-0.0011374162
111	0xb8dc0f42	-0.000104932595
112	0x399f08ad	0.00030333307
113	0xbb257029	-0.0025243855
114	0x3995bbaa	0.00028559315
115	0x38d6331b	0.00010213834
116	0xbb00f6ea	-0.0019678422
117	0xbb25b0da	-0.0025282414
118	0xbb9e2331	-0.0048259725
119	0xbb8f958a	-0.00438184
120	0xbb5073dd	-0.003180734
121	0xbb3e35b8	-0.0029023718
122	0xbb5c84c5	-0.0033648473
123	0xb9eae425	-0.0004480194
124	0x3a59ae72	0.00083038874
125	0xba464796	-0.0007563768
126	0xbbaf9879	-0.0053587523
127	0xbb520d25	-0.0032051292
128	0xbaf8b8d1	-0.0018975978
129	0xbb765a87	-0.003759058
130	0xbb3a48ec	-0.0028424812
131	0xbab90a2a	-0.0014117409
132	0xbb341033	-0.0027475476
133	0xbb241eae	-0.00250427
134	0xba196878	-0.0005852054
135	0xba517e01	-0.00079914933
136	0xbb3dec66	-0.0028980016
137	0xb94f1fc8	-0.00019752898
138	0xba8a16cf	-0.0010535362
139	0xbb0a5d72	-0.0021112827
140	0x3b1e6a43	0.0024172224
141	0x3adc0194	0.0016785138
142	0xba227945	-0.000619788
143	0x3bbb60fd	0.005718349
