gtcrn_micro/ckpts/best_model_dns3.tar (torch, 673737 bytes, 720 tensors)

exp_avg f4 [3, 1, 1, 3]
000000 53 58 83 ba 0e 3f 3a 3d 21 46 8c 3d 57 b4 99 bb
       -0.001002083 0.04547029 0.068493135 -0.0046906876
000010 77 0c a0 3b 24 64 16 bc 9b 5c 28 3c 28 2b 90 bb
       0.0048842984 -0.009179149 0.010275985 -0.004399676
000020 09 f4 ea 36
       7.002153e-06

exp_avg_sq f4 [3, 1, 1, 3]
000000 54 10 a1 38 72 21 b7 3c 14 06 d7 3c a0 51 44 3a
       7.6801196e-05 0.022354815 0.026248015 0.000748897
000010 f6 52 f8 39 04 53 ce 39 87 f5 12 3a 63 7c 18 3a
       0.00047364057 0.00039353233 0.00056060444 0.0005816875
000020 ae 8c 5e 3a
       0.0008489591

exp_avg f4 [16, 3, 1, 5]
000000 a2 1b 32 ba d1 7f db 39 35 c7 6e bb 1f e9 f2 bb
       -0.0006794279 0.00041866166 -0.0036434655 -0.007413044
000010 55 97 75 bb 84 60 8b b9 05 71 b4 39 f6 26 db 38
       -0.0037474234 -0.00026584056 0.00034416482 0.00010449991
000020 d0 e6 a7 b9 74 a6 41 37 7a 27 ad 38 9d b8 61 b8
       -0.0003202469 1.1542452e-05 8.256636e-05 -5.3816115e-05
000030 e2 e5 db 38 81 c1 20 38 39 de a7 38 95 ad 06 38
       0.00010485553 3.8327187e-05 8.004573e-05 3.210975e-05
000040 f6 a0 c4 b8 3a 06 f7 38 7e 9a 75 3b f1 31 35 3b
       -9.3759896e-05 0.000117790376 0.0037476118 0.0027648176
000050 aa 83 fc b7 78 1e cd 38 78 6a 94 37 b5 95 36 b8
       -3.0102052e-05 9.780837e-05 1.7692553e-05 -4.3531607e-05
000060 b8 88 34 38 8e b4 c2 b5 7a 28 75 b7 25 10 23 37
       4.3042673e-05 -1.4506675e-06 -1.4612562e-05 9.719316e-06
000070 a9 63 5b b8 a0 2e 13 b7 5d 52 03 bb 1c a4 2e ba
       -5.2306485e-05 -8.7727385e-06 -0.0020038106 -0.00066620274
000080 8f c1 41 3a c8 9f 57 ba 5a 7c 46 3a f2 d7 4e b9
       0.0007391208 -0.00082254084 0.00075716304 -0.00019726137
000090 5f 00 59 39 19 e4 17 b8 92 51 40 39 a2 8c 70 37
       0.00020694871 -3.6213638e-05 0.00018340934 1.4337858e-05
0000a0 0a 16 18 38 67 79 0a b9 e8 e6 48 39 cc 05 3d 38
       3.626015e-05 -0.00013205931 0.00019159506 4.506651e-05
0000b0 e2 21 32 b8 27 f2 21 3c b5 f8 88 3c a5 d2 6e 3c
       -4.2470063e-05 0.009884394 0.016720155 0.014576589
0000c0 f9 1a 98 3c e7 67 6e 3c 04 45 02 39 f8 df 7c b8
       0.018567549 0.014551139 0.00012423476 -6.029007e-05
0000d0 b4 32 1b ba 2a db ad 39 c7 97 9f 39 71 e8 c0 b9
       -0.0005920336 0.0003316042 0.00030439926 -0.00036794276
0000e0 e0 ab 73 39 4a 51 24 39 4e 38 2a ba 7a b0 1e 39
       0.00023238314 0.00015670541 -0.00064933754 0.00015133797
0000f0 e7 9a 12 bc f8 61 b3 bb c7 8f 7b 3a b1 6f 87 ba
       -0.008948064 -0.0054743253 0.00095963146 -0.0010332969
000100 1b ca c1 ba fe d3 90 b9 70 21 80 37 bc c9 85 b9
       -0.0014784964 -0.00027623767 1.527436e-05 -0.0002551804
000110 17 e3 1b 39 cf bb e0 b7 5f e1 91 38 81 f2 d8 b9
       0.0001486655 -2.6790336e-05 6.9561174e-05 -0.0004137941
000120 21 fc c2 b8 58 18 a8 b8 3b 38 24 39 ed 3f 80 3c
       -9.2976035e-05 -8.0153986e-05 0.00015661206 0.015655482
000130 a7 6a 11 3c b3 32 bd ba 7c 95 ca 3b 44 b3 07 3b
       0.008875526 -0.0014434665 0.0061823707 0.0020706216
000140 67 48 8c 39 4f 3c 84 b8 d2 37 1d 37 d4 4f 88 39
       0.00026756825 -6.305484e-05 9.370926e-06 0.00025999418
000150 2d 3b fd b8 b2 f2 a4 b9 87 72 8a 39 d7 22 ad b9
       -0.000120750025 -0.0003146134 0.0002640674 -0.0003302309
000160 31 36 1b b9 99 a0 1d b9 58 12 82 3c d3 c3 8f 3c
       -0.0001480214 -0.00015032514 0.015877888 0.017549431
000170 8f 96 df 3b 53 a7 49 bb 40 56 eb 3b 1a ad d9 39
       0.006823368 -0.00307699 0.0071819127 0.00041518436
000180 50 3b 57 ba 84 8c 11 3a f2 61 03 ba 92 46 12 b9
       -0.00082104374 0.00055522495 -0.00050118484 -0.00013949935
000190 a6 32 3f 39 3d a8 1f b9 4f c0 e3 b8 c1 b9 f5 37
       0.00018234047 -0.00015226095 -0.00010860024 2.9292774e-05
0001a0 48 3c 6e 38 75 ce 7f bc 23 56 84 bb 49 05 d5 ba
       5.6799763e-05 -0.015613188 -0.0040385886 -0.0016252185
0001b0 4d 2a 93 bc 8f c7 97 bc 48 bb 35 b8 ee 17 e1 b7
       -0.017964507 -0.018527774 -4.3328182e-05 -2.6833233e-05
0001c0 fd 6d 45 b9 6d 01 be b7 c4 2a a8 38 d5 e3 86 b8
       -0.00018828358 -2.2650429e-05 8.01883e-05 -6.432055e-05
0001d0 ed eb 0b 38 1f 5f 53 3a 6d 7f d7 39 bb e3 21 ba
       3.3359906e-05 0.00080631854 0.00041102935 -0.0006175597
0001e0 9f 13 de bb 1e 80 07 3a f1 9c 85 ba 60 4a 1a bc
       -0.0067772414 0.0005168932 -0.0010193867 -0.009417146
0001f0 e8 b2 b5 bb 32 1d 19 ba 2c 4f 23 b8 ee c9 f4 39
       -0.005545009 -0.0005840837 -3.8935963e-05 0.00046689756
000200 17 9b 1a bb 55 02 fa 39 4b f0 35 39 2d 17 36 39
       -0.0023590976 0.00047685453 0.00017351021 0.00017365506
000210 31 06 5a 39 01 20 33 39 7f e5 08 3a df 0b 14 bc
       0.00020792407 0.00017082693 0.0005222186 -0.009036033
000220 7e 65 0d bc 2e 78 9f bc ec 92 78 bc 3e bc 92 bc
       -0.008630155 -0.019466486 -0.015171748 -0.017912026
000230 69 35 8b ba b2 aa 1a 3a 81 cd 5d ba 5d 9b 90 b9
       -0.0010620776 0.00059000694 -0.00084611034 -0.00027581575
000240 03 0e e8 3a 41 19 ea 39 dc 34 11 b9 98 83 74 b9
       0.0017704371 0.00044650774 -0.00013847969 -0.00023318676
000250 f7 27 a6 3a 42 24 04 3a d3 c4 9a 3b dd 73 40 3b
       0.0012676705 0.0005040803 0.0047231703 0.0029365935
000260 3e e1 ba 3a 42 a8 1e 39 89 a6 02 ba 2d bf 29 b8
       0.0014257801 0.00015130735 -0.0004983922 -4.0470786e-05
000270 73 d1 52 39 3f 47 93 38 b8 3b 6f b8 23 fe 14 b9
       0.00020105187 7.022777e-05 -5.7037658e-05 -0.00014209053
000280 78 be 97 b8 7c 9b b4 38 2f b5 bd 39 44 0f 86 b7
       -7.235719e-05 8.61203e-05 0.00036183881 -1.5981153e-05
000290 e1 f2 87 b9 fe c6 98 ba c0 b2 49 38 9b 36 51 ba
       -0.00025930165 -0.0011655984 4.808861e-05 -0.0007980854
0002a0 10 16 0e ba a9 45 29 3b 00 d6 ec b9 6a 0f f0 39
       -0.00054201577 0.0025828874 -0.0004517287 0.00045787852
0002b0 73 92 fe b8 82 87 a1 39 0d e3 78 b9 60 2d 57 38
       -0.00012138942 0.00030809274 -0.00023735706 5.1302253e-05
0002c0 8c 6a 31 39 0b 6b ad b9 ae c1 ed b9 a6 46 8b 39
       0.00016919727 -0.00033076885 -0.00045348465 0.00026564783
0002d0 cb 6c 03 bc bc 46 c7 ba b3 19 3d ba fe 52 e1 39
       -0.008021544 -0.0015203576 -0.00072136073 0.00042977178
0002e0 4b 68 69 ba 71 10 33 3a 90 fd 43 38 32 d8 8a 38
       -0.00089037855 0.0006830758 4.672777e-05 6.620622e-05
0002f0 6b d3 9a b8 ad a1 f2 b8 46 a9 ad 39 3b 5c c9 b7
       -7.382672e-05 -0.00011569574 0.0003312325 -2.4004015e-05
000300 65 a8 06 39 c1 a0 47 39 21 61 dc 38 4a 5d 6e 3b
       0.00012841968 0.00019038004 0.00010508509 0.0036371523
000310 33 91 1e 3b 96 6f ac 3a 46 35 76 b9 16 87 16 b9
       0.0024195432 0.0013155814 -0.00023480234 -0.00014355438
000320 5a af 23 b8 a7 bb 17 37 e7 30 c5 37 1a 8e 3b b8
       -3.9025537e-05 9.043993e-06 2.3507002e-05 -4.4716617e-05
000330 05 a8 d9 b8 5a 52 c7 b5 11 df a4 b7 b8 5d 71 b7
       -0.000103786624 -1.4850623e-06 -1.9654197e-05 -1.438654e-05
000340 ae 03 af 34 4a 6c df 38 d6 07 0a bb cf cb 86 3a
       3.2598967e-07 0.00010653639 -0.00210618 0.0010284128
000350 d3 bd 24 ba c1 98 8d bb 2a 26 85 bb 24 87 bb b8
       -0.00062843895 -0.004321188 -0.0040633874 -8.942027e-05
000360 a6 a8 c4 38 d7 87 57 37 87 0c b7 38 43 d1 ed 37
       9.3774215e-05 1.2846626e-05 8.7284534e-05 2.8350047e-05
000370 88 ed d5 b8 7d 65 76 38 a0 d7 3d 39 3c 28 f9 b8
       -0.00010200875 5.874549e-05 0.00018104771 -0.000118807395
000380 ca c4 32 38 b1 86 29 bd f0 27 5f bd 01 08 5a bd
       4.262178e-05 -0.041388217 -0.054481447 -0.05323029
000390 e8 c1 68 bd 0f af 8d bd 85 e8 84 39 1e 62 6d ba
       -0.05682555 -0.069181554 0.00025350243 -0.0009055453
0003a0 b6 39 ec 39 d2 7a 00 b8 c9 aa f5 ba 05 92 16 ba
       0.00045056426 -3.0631963e-05 -0.0018742915 -0.00057438045
0003b0 67 56 d9 b7 10 f5 2f 3a 9c 79 1c 3a 70 d8 3c 3a
       -2.590865e-05 0.00067122374 0.0005969049 0.00072038826

exp_avg_sq f4 [16, 3, 1, 5]
000000 fe 1a 63 37 11 9e fd 35 77 f4 21 38 ea 13 f9 39
       1.3536539e-05 1.8895972e-06 3.8613067e-05 0.00047507818
000010 12 81 f3 39 35 36 a7 34 af b1 20 35 43 ea 38 35
       0.00046444737 3.1145615e-07 5.986321e-07 6.888624e-07
000020 91 53 01 36 7b ad bb 35 a6 f8 98 34 31 05 cd 34
       1.927114e-06 1.3983075e-06 2.8493122e-07 3.8188003e-07
000030 7e 63 5d 35 07 74 81 35 09 fe b0 35 e4 80 08 38
       8.2473696e-07 9.645017e-07 1.3186956e-06 3.2544966e-05
000040 a8 0b b3 37 17 9c 98 34 b5 cf ca 38 ab 32 ca 38
       2.134389e-05 2.8425777e-07 9.670799e-05 9.641548e-05
000050 d6 1a 4a 34 41 30 94 34 6e 71 47 34 c6 75 a0 34
       1.8822479e-07 2.7602258e-07 1.8574585e-07 2.9888014e-07
000060 93 f5 17 34 ff 75 44 34 95 d2 5f 34 69 13 6b 34
       1.415231e-07 1.8296849e-07 2.0845103e-07 2.1893142e-07
000070 bd 94 52 34 4e d5 1a 34 88 96 d1 38 50 57 fb 38
       1.9611885e-07 1.4419967e-07 9.993935e-05 0.00011984876
000080 4d 41 f8 38 7c be 3b 37 db ca 21 38 cb 93 f5 34
       0.00011837725 1.1190419e-05 3.8574315e-05 4.574234e-07
000090 72 fe 1b 35 13 6b e9 34 ed ad 44 35 fa df ad 34
       5.8112266e-07 4.347754e-07 7.3268785e-07 3.2386725e-07
0000a0 de 64 e3 34 a7 b8 b1 34 ba 7d 35 35 26 84 cd 34
       4.2355435e-07 3.310317e-07 6.761071e-07 3.8280376e-07
0000b0 9d 73 98 34 be af 1a 3c 38 42 1c 3c 9d 0b 14 3c
       2.8396326e-07 0.009441314 0.009537272 0.009035972
0000c0 6d f1 1c 3c 5a 59 1d 3c a1 23 e2 36 00 66 0b 37
       0.009579045 0.009603823 6.7394726e-06 8.308794e-06
0000d0 ae 00 a6 36 c8 d5 e0 36 75 55 07 37 8e 4b ee 36
       4.9472646e-06 6.7006076e-06 8.066524e-06 7.1017485e-06
0000e0 aa e8 cd 36 ec c2 d7 36 10 83 c9 36 ee cd 1e 37
       6.1365618e-06 6.430191e-06 6.0055245e-06 9.465481e-06
0000f0 57 f0 e8 3a 72 0f 2f 3a 05 8b 25 39 57 42 9f 38
       0.0017771822 0.0006678022 0.00015787415 7.5940676e-05
000100 7e 07 41 3a 10 61 30 36 51 b8 4b 36 78 0e 1a 36
       0.0007363482 2.6282542e-06 3.0356643e-06 2.295621e-06
000110 5c 57 93 36 82 3a 19 36 35 a5 14 36 07 10 c1 35
       4.3911114e-06 2.2832833e-06 2.2149882e-06 1.4384285e-06
000120 5b d6 5d 36 1f 64 44 36 2e a8 0e 36 ff 40 c6 3a
       3.3056338e-06 2.9264554e-06 2.1257542e-06 0.0015125572
000130 9f db cc 39 f3 58 22 39 63 bc 21 3a df 07 43 3a
       0.00039073543 0.0001548266 0.00061697344 0.00074398326
000140 c1 d6 2e 36 2d 53 81 36 cd b4 3c 36 47 35 de 36
       2.6053024e-06 3.8541825e-06 2.8119423e-06 6.622318e-06
000150 09 22 02 36 3f 62 23 36 d7 04 0a 36 cc 6f 5e 36
       1.939132e-06 2.434608e-06 2.056642e-06 3.3145652e-06
000160 5f 2a 32 36 73 7e eb 35 0f 84 a4 3a dc d4 f6 3a
       2.654873e-06 1.7545666e-06 0.0012551564 0.0018831748
000170 52 f5 15 3a 33 21 8f 38 13 17 e4 39 a9 7d 0d 36
       0.00057204545 6.824955e-05 0.0004350474 2.108378e-06
000180 fb 02 6c 36 4c 16 fd 35 72 65 67 36 ee 1e 03 36
       3.5168475e-06 1.8856458e-06 3.4480731e-06 1.9538525e-06
000190 2b 8f 27 36 9f d2 f2 35 62 b2 20 36 eb 0c 0a 36
       2.4968274e-06 1.8091704e-06 2.394569e-06 2.0571122e-06
0001a0 f0 83 1b 36 22 c3 85 3a 02 df 18 39 42 07 75 37
       2.3173598e-06 0.0010205249 0.00014578926 1.4604828e-05
0001b0 50 59 8d 3b 79 4f 87 3b 1d 30 83 35 73 51 e3 34
       0.0043136254 0.004129347 9.774263e-07 4.2341307e-07
0001c0 1a a3 6e 36 5b 18 88 37 33 4e b8 36 75 3a 07 35
       3.5559701e-06 1.6223805e-05 5.492731e-06 5.0376485e-07
0001d0 18 f1 e0 34 a4 01 7d 36 97 48 68 36 e0 2d a5 36
       4.189867e-07 3.7700893e-06 3.4612947e-06 4.9227237e-06
0001e0 c0 7a a3 3a 05 d9 57 39 5b b5 13 39 57 a5 ba 3b
       0.0012472495 0.00020584844 0.00014086573 0.0056959796
0001f0 f4 7a 0c 3b 8a 28 17 36 e9 36 c8 35 53 ba 68 36
       0.002143559 2.252435e-06 1.4917142e-06 3.467915e-06
000200 45 f9 22 38 1f 9d 3a 37 cf 5a c7 35 62 0a 56 35
       3.885596e-05 1.11230465e-05 1.4853084e-06 7.973632e-07
000210 01 2f 48 36 f6 b8 81 36 94 4c d4 36 52 11 58 3c
       2.9829682e-06 3.866032e-06 6.327007e-06 0.013187723
000220 d0 f4 3b 3c 50 06 40 3c 0a a9 02 3c e4 60 2b 3c
       0.011471942 0.011720255 0.007974872 0.010460112
000230 8d b4 47 37 1c 39 90 37 21 4a 56 37 bd 66 87 37
       1.1903362e-05 1.7192731e-05 1.27726535e-05 1.6141095e-05
000240 47 34 89 37 d3 8e 65 37 0e 4a 54 37 b8 1e 3e 37
       1.6356016e-05 1.36827175e-05 1.2653427e-05 1.1332035e-05
000250 c1 1c 17 37 4f 86 99 37 2f b8 12 3a 47 c3 b6 39
       9.006996e-06 1.8301564e-05 0.00055969035 0.00034859238
000260 2b a2 d4 38 5d 80 32 37 fa e1 a7 37 0b 41 9c 35
       0.00010139154 1.0639514e-05 2.001318e-05 1.1641836e-06
000270 ed e8 a6 35 78 da 45 35 3a cf 98 35 f8 ec 9e 35
       1.2435754e-06 7.370613e-07 1.1385193e-06 1.1840884e-06
000280 67 79 a7 35 83 16 4f 35 27 c2 3d 35 3a 8a 65 35
       1.2477802e-06 7.714627e-07 7.0690515e-07 8.5510294e-07
000290 99 1c 86 35 61 80 6f 39 9e 6b bd 39 2c cb 4d 39
       9.992101e-07 0.00022840641 0.0003612907 0.00019626011
0002a0 74 39 9c 39 bb 65 87 39 15 bc 65 35 68 16 d0 35
       0.00029797445 0.00025825002 8.5582843e-07 1.5503729e-06
0002b0 7f 0b 85 35 ea 03 e1 35 24 80 5c 35 c3 04 a3 35
       9.912618e-07 1.6764945e-06 8.2142856e-07 1.2145832e-06
0002c0 89 6f 66 35 1a 13 79 35 a9 18 3d 35 94 b6 71 35
       8.584398e-07 9.2787525e-07 7.044387e-07 9.004518e-07
0002d0 26 5c 23 3b fb 53 2d 3a c5 21 83 38 48 0d 0f 37
       0.002492675 0.00066119403 6.252857e-05 8.5265565e-06
0002e0 ce d3 0f 38 41 37 0c 36 a4 b8 0e 35 20 d8 d7 34
       3.4291115e-05 2.0893788e-06 5.316781e-07 4.0204122e-07
0002f0 17 a1 c2 35 74 a8 91 36 31 3d ba 35 bf 12 af 34
       1.450101e-06 4.3409473e-06 1.3875889e-06 3.260993e-07
000300 8a cb c4 34 47 b8 a1 35 6d 6d 48 36 a3 0b 8c 39
       3.665594e-07 1.2049067e-06 2.9866017e-06 0.0002671155
000310 c4 94 1d 39 ed 43 5f 38 f1 43 00 36 b8 51 fc 35
       0.00015028106 5.3230604e-05 1.9113033e-06 1.8799246e-06
000320 7f 9e cc 33 85 30 1f 33 21 aa 91 32 10 1a 90 33
       9.5283205e-08 3.70642e-08 1.6957587e-08 6.710263e-08
000330 ee 63 eb 34 5e ea 97 33 49 7b db 32 4b 24 a1 32
       4.384487e-07 7.0741166e-08 2.5551019e-08 1.8759371e-08
000340 5b f8 5f 33 53 53 a8 34 c8 e8 d2 38 d4 20 dd 37
       5.214711e-08 3.1353065e-07 0.00010056939 2.636054e-05
000350 d1 37 10 38 dd f6 06 39 8f 3b c4 38 41 74 2d 35
       3.438426e-05 0.000128712 9.357102e-05 6.4616694e-07
000360 4a 84 85 35 fd ee ed 34 7c 22 e3 34 21 d4 66 34
       9.947773e-07 4.4318577e-07 4.2307136e-07 2.1497591e-07
000370 24 d0 39 35 ba c6 ff 34 55 72 1e 35 85 8f aa 34
       6.9220755e-07 4.7642044e-07 5.902596e-07 3.1769392e-07
000380 5d cd 5c 34 85 91 bc 3c 55 6e d9 3c 18 1a b1 3c
       2.0563807e-07 0.023018608 0.026541868 0.021618888
000390 ec c5 b6 3c 6f 58 c0 3c dc 2a c1 37 46 cd d2 37
       0.022311173 0.023479668 2.302735e-05 2.5129539e-05
0003a0 d4 04 f9 37 97 0a 3a 38 ae ef e9 37 1b ee d3 37
       2.9685361e-05 4.435572e-05 2.7887374e-05 2.5264037e-05
0003b0 b2 b9 87 37 50 51 d4 37 73 92 c1 37 d3 64 0b 38
       1.6179725e-05 2.5310233e-05 2.3075589e-05 3.3234082e-05

exp_avg f4 [16]
000000 30 b2 6b b1 a4 d7 04 2f f8 86 a5 ae a9 3e 6f 32
       -3.4298289e-09 1.2081941e-10 -7.5273066e-11 1.3925878e-08
000010 c6 97 e9 30 50 e6 32 30 81 c2 18 30 5e 44 ec b1
       1.6996118e-09 6.5083317e-10 5.5573685e-10 -6.8762764e-09
000020 73 1c 17 32 26 04 32 31 8f e8 d8 2f 61 a1 1c b1
       8.795825e-09 2.5904767e-09 3.9455414e-10 -2.279272e-09
000030 1c 43 3c 31 1d c5 8c 31 59 93 87 ae b8 ef 56 30
       2.7395748e-09 4.0969454e-09 -6.1652634e-11 7.819341e-10

exp_avg_sq f4 [16]
000000 ca 3b c7 24 8c cd 52 21 1f 47 4c 21 11 a8 b1 27
       8.640378e-17 7.1422807e-19 6.9212016e-19 4.9309587e-15
000010 0d d1 56 25 ad e7 91 23 a7 e3 5d 23 20 5f 74 26
       1.863237e-16 1.581905e-17 1.2028641e-17 8.4783424e-16
000020 70 61 db 26 5e 45 82 27 ac 7c 14 25 38 f9 d3 24
       1.5222588e-15 3.6157456e-15 1.2879194e-16 9.1928856e-17
000030 37 0a 52 27 a0 0b ea 25 03 ca e8 20 6b 0b 93 27
       2.9148892e-15 4.0600407e-16 3.943601e-19 4.0813076e-15

exp_avg f4 [16]
000000 c6 f9 8f bb 8f 68 2c bd 86 1c 46 3d 2e 60 85 bb
       -0.004393789 -0.042091902 0.048367046 -0.0040703034
000010 e2 44 d9 3d 6a 14 a1 bd c8 9c ad bd 59 e6 f8 bc
       0.106088415 -0.07865222 -0.08477169 -0.030383276
000020 80 d5 2b 3c cf 82 bb 3c f2 ca 78 3d 73 06 11 3e
       0.010487914 0.022889523 0.06074042 0.14162616
000030 af c1 4a bc 9d db 48 3c 8d e3 87 3c c5 f9 ec 3b
       -0.012375279 0.012259391 0.016587997 0.0072319233

exp_avg_sq f4 [16]
000000 2a b3 79 3a 9e 7b 45 3c ba 4f 25 3d aa a8 73 3c
       0.0009525294 0.012053398 0.040359236 0.014871756
000010 4f dd ec 3d 0c a4 be 3d f8 f1 83 3d cc d3 9f 3b
       0.11565649 0.09308633 0.06442636 0.004877543
000020 90 bb d9 3a e6 2d aa 3c 8d f0 89 3c d9 33 a3 3d
       0.0016611684 0.02077384 0.016838336 0.079688735
000030 da 5b 60 3b 3f a3 93 3b 75 4a 0e 3d da 7a c4 3b
       0.0034234435 0.0045055444 0.034738977 0.0059960904

exp_avg f4 [16]
000000 a1 1d f4 3b 16 79 cf 3b cf 9a 22 3b d3 a0 5a 3c
       0.007449821 0.0063315732 0.0024811511 0.013344008
000010 36 79 97 bb 62 6a da bc 23 46 27 bd 46 94 cd bd
       -0.0046226038 -0.026662055 -0.040838372 -0.100380465
000020 58 90 31 3b 9a db 8a 3d bc 42 38 3a 34 06 da bb
       0.0027094092 0.06780167 0.0007028987 -0.0066535715
000030 3c 4b 15 bd 2f e5 d3 3c 82 ab 0a bb 01 29 84 bc
       -0.036448702 0.02586612 -0.0021159356 -0.016132833

exp_avg_sq f4 [16]
000000 30 ca 56 3b b2 b3 09 3b 37 1a 8a 3a 06 fe f5 3d
       0.0032774322 0.0021011648 0.0010536377 0.12011342
000010 08 7e 48 3c fd 09 2b 3c 54 fb 12 3c 82 1d 17 3d
       0.012237079 0.010439393 0.008971054 0.036893375
000020 13 7d 2c 3b 5f ee 94 3e 38 db 7a 3b 0c 92 93 3a
       0.0026319667 0.29088113 0.0038277637 0.0011258735
000030 01 0c d0 3c 7c 04 cd 3c 93 15 71 3a c9 7e c7 3c
       0.025396349 0.025026552 0.0009196635 0.024352448

exp_avg f4 [16, 16, 1, 5]
000000 a1 48 c5 ba 5e 18 e7 ba b0 38 0c bb 56 b3 6a bb
       -0.0015051552 -0.0017631163 -0.0021396093 -0.003581246
000010 2c ca 91 bb f4 05 a8 b9 4c 0c b2 ba 74 0a 01 ba
       -0.0044491496 -0.00032047892 -0.0013583987 -0.0004922517
000020 3b 42 9e 3a 87 6e 0a 3b bb 14 62 bb 05 52 34 bb
       0.0012074182 0.0021123008 -0.003449722 -0.0027514708
000030 a6 d1 2a ba 22 2c a1 3a 72 75 94 3b d4 39 9a ba
       -0.00065162254 0.0012296478 0.004530602 -0.0011766502
000040 b4 a0 c2 b9 73 2e 74 3a 56 ca 28 3b e3 bb 28 3b
       -0.00037122297 0.0009314783 0.0025755367 0.0025746755
000050 f8 65 75 bb 02 c9 a5 bb 39 d2 5a 3a 69 1f ff 3b
       -0.0037444811 -0.0050593624 0.00083473657 0.007785727
000060 b7 ae 68 3c 43 ec 6e bb 02 0a d5 bb ed 16 f4 b9
       0.0142018115 -0.003645674 -0.006501437 -0.00046556388
000070 34 30 f5 3b 96 74 54 3c 4c 69 c6 bb 65 6b ac bb
       0.007482553 0.012967249 -0.006055033 -0.005261826
000080 06 78 88 3a cc d8 ec 3b 93 b3 70 3c b8 10 4d ba
       0.0010411746 0.0072279926 0.014691251 -0.00078226207
000090 27 bf 36 ba 2a 7b 54 ba f3 3e 7d ba 39 3a 89 ba
       -0.0006971233 -0.0008105511 -0.0009660564 -0.0010469622
0000a0 8c db a0 ba 6e f1 bc ba ce 4a 04 bb e4 1d 5a bb
       -0.0012272461 -0.0014415213 -0.0020186189 -0.0033281976
0000b0 b1 99 51 bb 9a a0 ef b7 50 aa d3 b9 28 13 bc b9
       -0.0031982476 -2.8565806e-05 -0.0004037195 -0.00035872427
0000c0 94 80 42 39 b1 af 05 39 16 be 22 ba c6 cb 76 ba
       0.00018549181 0.00012749319 -0.00062081346 -0.000941452
0000d0 59 8e 4e bb 40 34 c3 bb bf 8a ca bb 3a 18 98 b9
       -0.0031517951 -0.0059571564 -0.0061810906 -0.0002900975
0000e0 66 98 11 b9 bc 22 03 39 f9 ee 07 3a f5 8c bf 3a
       -0.0001388505 0.00012506073 0.0005185451 0.0014614152
0000f0 5e f9 dc ba c8 2d e1 ba cb 02 01 bb 1d 99 23 bb
       -0.0016858985 -0.0017179782 -0.0019685503 -0.0024963089
000100 54 3e 2d bb 6e 40 72 b9 0e eb 86 b9 f8 87 b0 b9
       -0.0026434856 -0.0002310292 -0.000257336 -0.0003367064
000110 2b d3 99 b9 72 22 fd b9 5b b2 a3 b9 d2 e9 50 bb
       -0.00029339766 -0.00048281584 -0.00031222668 -0.003187765
000120 6c da 19 bb 3e d6 b3 b9 2d e4 a1 3a 00 b1 15 ba
       -0.0023476137 -0.00034301163 0.0012351327 -0.0005710274
000130 d7 6a 20 ba ce 21 8c ba a1 79 5e ba f1 00 e6 3a
       -0.0006119436 -0.0010691227 -0.0008486752 0.0017547888
000140 b2 c3 db 3b d7 92 bf 3b 4e 77 80 3b 84 e5 40 3b
       0.0067066783 0.005846362 0.003920472 0.0029433677
000150 d6 b8 53 3b d7 f3 bc ba ad cd ad ba 33 99 eb ba
       0.0032306216 -0.0014415932 -0.0013260149 -0.0017974734
000160 78 09 b8 b8 83 9a 19 3a 73 b7 93 ba 24 b7 0c bb
       -8.7755674e-05 0.0005859511 -0.0011269882 -0.0021471465
000170 b7 60 45 ba fe 1e a7 3a bb 3c f3 3a 1b d1 7c ba
       -0.0007529365 0.0012750325 0.0018557528 -0.0009644196
000180 c0 76 36 ba 86 64 0d 3a f5 aa 94 3a a6 2c be 39
       -0.0006960444 0.00053937023 0.0011342453 0.0003627289
000190 1f e7 27 bc a8 45 0a bc e2 43 07 bc 85 a3 93 ba
       -0.010247975 -0.008439459 -0.008255931 -0.0011263943
0001a0 03 36 c4 3a 5a b4 03 bc 47 8e 02 bc 74 b7 f7 bb
       0.001496971 -0.008038605 -0.007968492 -0.007559711
0001b0 73 79 44 39 a8 8b 58 3b 2e 1f 08 bc 4b 83 eb bb
       0.0001873726 0.0033042226 -0.008308215 -0.007187282
0001c0 d5 dd bd bb 6f 16 aa 3a 2a fd 89 3b 72 6f 47 3b
       -0.0057942667 0.0012976656 0.0042110877 0.0030431417
0001d0 af c0 cd 3a 81 2d b9 3a a2 68 c5 3a 0f 8c 03 3b
       0.0015697683 0.0014127941 0.001506109 0.0020072495
0001e0 a5 27 9b 3b 6a 79 43 3b 6a b8 1b 3b c8 92 08 3b
       0.0047349506 0.0029827007 0.0023761042 0.0020839442
0001f0 c8 47 2d 3b 59 03 8c b9 ed 2e 27 ba 9b a2 86 b8
       0.002644049 -0.00026705375 -0.0006377537 -6.4199055e-05
000200 ae 28 76 39 e0 ab a1 39 08 fe 86 3b be 3a 11 3b
       0.00023475543 0.0003083637 0.0041196384 0.0022160257
000210 dc ba 51 3b 89 4c d2 39 5c 00 b2 39 69 79 1b bb
       0.0032002246 0.00040111344 0.00033951073 -0.002372349
000220 83 91 21 bb 6e 41 ac ba 12 8b a9 ba c0 ee 84 ba
       -0.0024653382 -0.0013142058 -0.0012935123 -0.0010141954
000230 d8 09 8b 3b bd b9 39 3b ee 4a 45 3b 27 2a 5c 3b
       0.004243117 0.0028339468 0.0030104476 0.003359446
000240 9c e6 95 3b 66 ce a0 3a 88 f4 4f 3a 5d 19 24 3a
       0.00457461 0.0012268543 0.00079328613 0.0006259883
000250 96 71 95 3a 16 80 96 3a a6 db f2 39 51 1d 86 ba
       0.0011401649 0.0011482264 0.00046321488 -0.0010232126
000260 60 de 03 bb 07 82 d3 b9 6a c4 9a 3a 7b f3 3b b9
       -0.002012156 -0.00040341934 0.0011807804 -0.00017924413
000270 aa 54 09 bb 45 05 38 ba 85 2f f1 ba dc 25 4c 3a
       -0.0020955005 -0.0007019828 -0.0018401003 0.0007787624
000280 15 2b 18 3a 7d e9 46 39 8d 79 08 3a a7 7f 48 39
       0.00058047596 0.00018969733 0.0005206101 0.0001912104
000290 d0 7b 92 b5 0f dd b0 38 d9 8d b8 b8 c4 05 6c b9
       -1.0913882e-06 8.433509e-05 -8.800225e-05 -0.00022508862
0002a0 f3 4e fb b8 7a 33 94 3a c0 e7 a6 b9 26 96 14 ba
       -0.00011983318 0.0011306845 -0.00031834655 -0.0005668126
0002b0 59 b1 f6 b9 ff c4 11 3a cd 0b 18 3b 31 02 2a ba
       -0.0004705291 0.0005560666 0.0023200393 -0.0006485312
0002c0 7b 34 7c 38 f0 bd a3 36 9f 17 88 39 ec 72 83 39
       6.0130358e-05 4.87989e-06 0.0002595754 0.0002507189
0002d0 1c 39 75 b9 53 c9 ae ba f9 93 6c ba 72 95 1e 3a
       -0.00023386296 -0.0013335146 -0.0009024735 0.0006049491
0002e0 5d c3 bd 3b b4 51 37 39 e2 33 7d ba 85 dd 8b ba
       0.0057911114 0.00017482677 -0.0009658915 -0.0010670876
0002f0 da 0f 89 3a 23 22 c4 3b ae d9 a5 38 df 1e a9 ba
       0.0010456995 0.0059855147 7.908359e-05 -0.0012902877
000300 7d 9d 96 b9 70 4c dc 3a 3b 9a c2 3b de e0 76 39
       -0.00028727567 0.0016807448 0.005938796 0.00023544158
000310 50 2d 5c 39 8e b3 70 39 91 63 80 39 90 5f ea 38
       0.00020997715 0.00022955073 0.00024488245 0.000111757894
000320 3e 6a f3 39 30 51 71 39 6d 28 b4 39 32 91 bc b8
       0.00046427728 0.00023013796 0.00034362395 -8.991583e-05
000330 42 a6 b1 b9 35 5f 6d 37 8f 79 15 39 cf 8a 40 b8
       -0.00033883943 1.4148468e-05 0.00014255031 -4.5905643e-05
000340 2c 27 98 39 c6 6d 23 38 76 6e bd b9 ea ea 13 b7
       0.00029020885 3.8964463e-05 -0.0003613119 -8.816578e-06
000350 af 9b ef b8 c1 55 a4 ba 54 dc aa ba f2 80 82 38
       -0.000114254064 -0.0012537764 -0.0013035634 6.222901e-05
000360 ba 1c 70 b9 f2 d1 19 b9 dc 7f 5c 38 db 22 f8 39
       -0.00022898885 -0.00014669428 5.2571166e-05 0.00047328215
000370 05 7b 1c 3a db a6 83 39 5b d2 1b 3a f3 9d 88 39
       0.0005969259 0.00025110584 0.0005944126 0.00026057623
000380 63 06 9b b8 74 05 20 38 d3 46 0c 38 92 95 09 39
       -7.3921656e-05 3.815205e-05 3.344456e-05 0.00013121057
000390 ae d4 4c b8 2d d7 0c b9 f8 7f 58 39 c7 6c ba b9
       -4.8835464e-05 -0.000134316 0.00020647037 -0.0003555773
0003a0 11 58 13 ba d5 e5 ca b9 0c 8e 29 3a ca 35 61 b9
       -0.0005620728 -0.0003869968 0.0006468005 -0.0002147771
0003b0 39 11 5f 39 fe 8a 61 39 ff 2c 5f 3a 8d 87 0e ba
       0.00021273353 0.00021509451 0.000851348 -0.0005437069
0003c0 fe 1b 9b 3b f4 5e 75 3b 9f 2d d9 3a e3 cc 41 bb
       0.0047335615 0.003744063 0.0016569382 -0.0029571585
0003d0 98 21 27 bb 4f 04 71 b9 79 7c 32 3a 24 a0 a4 3a
       -0.0025502201 -0.00022985156 0.0006808709 0.0012559933
0003e0 15 01 91 3a 7c f9 0b 37 86 22 79 3a 34 89 cc 3a
       0.0011062945 8.343133e-06 0.00095037406 0.0015604855
0003f0 83 20 53 3b 08 34 92 3a fc c6 c9 ba 3d e9 b0 3a
       0.0032215423 0.0011154423 -0.0015394385 0.0013497245

exp_avg_sq f4 [16, 16, 1, 5]
000000 cd f7 66 37 cc e8 89 37 b4 8f 6b 37 97 16 0b 38
       1.3766764e-05 1.6440077e-05 1.404055e-05 3.316122e-05
000010 d3 ff 29 38 1e b3 86 36 23 bf af 36 30 b5 06 37
       4.0530995e-05 4.014363e-06 5.2376577e-06 8.029208e-06
000020 4e 04 34 37 e1 73 9f 37 11 60 c5 37 df ee c6 37
       1.0729838e-05 1.9008237e-05 2.3528964e-05 2.3714672e-05
000030 7e 60 96 37 7d 3c f1 37 97 d3 a3 38 0e 9e f4 36
       1.7926326e-05 2.8757606e-05 7.811857e-05 7.2901666e-06
000040 66 ea 0b 37 d6 83 39 37 96 6d a3 37 88 a1 09 38
       8.339621e-06 1.1057555e-05 1.9482144e-05 3.2813783e-05
000050 66 ce 9a 38 1a f8 ca 38 8f 3f 3a 39 0a af 95 39
       7.381737e-05 9.678323e-05 0.0001776202 0.0002854991
000060 8b 96 11 3a 61 23 a3 38 46 7a ef 38 0c 2f 57 39
       0.00055537437 7.7790355e-05 0.00011419183 0.00020521524
000070 5b 97 9e 39 2f 1a 15 3a af f6 df 38 2a 17 0e 39
       0.00030248877 0.00056878006 0.00010679417 0.00013550805
000080 25 b3 3e 39 97 e1 a3 39 4c 28 25 3a a6 91 74 36
       0.00018186549 0.0003125786 0.0006300255 3.6443612e-06
000090 91 ee 3e 36 5b 36 3d 36 50 63 60 36 1b 54 65 36
       2.845107e-06 2.8194834e-06 3.3436409e-06 3.4172615e-06
0000a0 4c c3 c8 36 89 38 0f 37 d9 44 47 37 a3 47 9f 37
       5.9832e-06 8.536627e-06 1.1877354e-05 1.8987635e-05
0000b0 f1 d6 ae 37 bb 19 92 35 72 85 fb 35 d9 e8 f3 35
       2.0842506e-05 1.0885336e-06 1.8739795e-06 1.8172678e-06
0000c0 9f 37 16 36 a0 17 34 36 90 be c2 37 2a d4 01 38
       2.2384118e-06 2.6835842e-06 2.321534e-05 3.095359e-05
0000d0 88 bf 31 38 c5 46 a3 38 cb 81 c1 38 81 ed ce 36
       4.2378466e-05 7.7856275e-05 9.227133e-05 6.1669275e-06
0000e0 59 93 e5 36 b8 c5 3b 36 e2 b6 72 37 3e 3c a2 37
       6.8418854e-06 2.798026e-06 1.4466905e-05 1.9339957e-05
0000f0 8f d8 47 37 35 31 3c 37 88 b1 4f 37 3e 14 73 37
       1.1911746e-05 1.121713e-05 1.2379496e-05 1.4488642e-05
000100 8b 76 90 37 40 56 a2 35 65 b4 97 35 3d 9b 97 35
       1.7221339e-05 1.2095043e-06 1.1302878e-06 1.1295557e-06
000110 ae e5 b8 35 23 da f1 35 84 a7 25 37 18 52 a4 37
       1.3775914e-06 1.8019385e-06 9.873769e-06 1.9588551e-05
000120 84 f1 9e 37 24 e7 75 37 d2 ec d0 37 e0 e0 05 38
       1.8947532e-05 1.4656955e-05 2.490581e-05 3.1919102e-05
000130 d4 75 8f 37 7c 2b 9b 37 fa db f2 37 7d f4 20 38
       1.7101796e-05 1.8497689e-05 2.8951083e-05 3.837467e-05
000140 a3 b8 e5 38 19 96 d5 38 39 66 a3 38 32 6f 0b 39
       0.00010953962 0.00010184589 7.791486e-05 0.00013297496
000150 66 af 0c 39 aa 1e 42 37 11 80 4b 37 9b cd ea 37
       0.00013416781 1.1570441e-05 1.2129561e-05 2.7990716e-05
000160 b0 07 c8 36 d6 e8 72 36 38 8f 7a 37 ef 56 88 38
       5.9613594e-06 3.6196338e-06 1.4934507e-05 6.501178e-05
000170 6a cb 07 38 91 b6 17 37 97 6d 0c 37 c5 82 9f 37
       3.2375952e-05 9.042808e-06 8.370166e-06 1.9015171e-05
000180 6f 92 c8 37 63 f0 97 37 81 90 1f 37 b5 52 36 37
       2.3910046e-05 1.8112542e-05 9.5107835e-06 1.0867302e-05
000190 83 a2 7c 39 a3 54 d7 39 b4 05 f9 39 b8 75 e2 38
       0.00024093133 0.00041071055 0.0004749723 0.000107984466
0001a0 3c ef f8 38 6d cc 75 39 36 65 c7 39 3a f0 0d 3a
       0.000118701224 0.00023441175 0.00038031646 0.00054145197
0001b0 36 e0 09 39 21 12 de 38 bd 24 6c 39 bb 59 f5 39
       0.00013148863 0.00010589162 0.000225204 0.00046796896
0001c0 2f 5b c4 39 d9 fa cf 38 26 9d 12 39 6b b9 7b 37
       0.0003745197 9.917253e-05 0.00013982187 1.5003937e-05
0001d0 b7 4e 36 37 cd 71 0c 37 9e 45 4b 37 07 e1 68 37
       1.0866373e-05 8.371147e-06 1.2115952e-05 1.3880671e-05
0001e0 e6 46 4b 38 e3 e6 1f 38 54 44 ee 37 9d fe 81 38
       4.8465e-05 3.8123584e-05 2.8403629e-05 6.198625e-05
0001f0 37 f5 98 38 ec c2 22 36 ee 3a 47 36 6b 56 a0 36
       7.2935996e-05 2.425334e-06 2.9687612e-06 4.778432e-06
000200 90 70 6d 36 ef ad a7 35 2f 66 b8 38 d1 37 9d 38
       3.5381272e-06 1.2493091e-06 8.792837e-05 7.49674e-05
000210 e5 7e 6e 38 39 64 8c 39 f9 de a1 39 cd f3 2e 37
       5.68618e-05 0.00026777553 0.0003087444 1.04279725e-05
000220 79 c9 2d 37 a6 20 f9 36 27 3f 9a 38 0e a7 98 38
       1.0358513e-05 7.424579e-06 7.355055e-05 7.279041e-05
000230 70 94 61 38 6e d4 29 38 4b 5f 16 38 ef ef 70 38
       5.3782423e-05 4.049058e-05 3.5851535e-05 5.7443915e-05
000240 92 f0 91 38 7b 0f a3 36 73 06 82 36 1f 23 86 36
       6.9589485e-05 4.8595807e-06 3.8750527e-06 3.9976e-06
000250 95 7d b5 36 c5 f5 cc 36 bc 89 24 37 84 58 53 37
       5.40884e-06 6.108285e-06 9.8072305e-06 1.2597189e-05
000260 2b 74 70 38 1c d3 b0 37 7e 3e e6 36 ea 8a 3f 38
       5.732865e-05 2.107914e-05 6.861809e-06 4.5667322e-05
000270 f1 f8 3c 38 ae e2 15 38 2b 0b 8f 38 ad cc b5 37
       4.5054538e-05 3.573548e-05 6.8208516e-05 2.1672191e-05
000280 77 43 4f 37 cf 79 db 36 86 c0 f5 36 9f 20 f1 36
       1.2353869e-05 6.540889e-06 7.3239817e-06 7.1861573e-06
000290 14 f8 2e 37 bb 6c c9 36 5a 03 12 37 5c 36 33 37
       1.0428968e-05 6.0029247e-06 8.7030585e-06 1.0681888e-05
0002a0 0a 57 bc 36 8b 59 ce 36 53 6c d3 37 26 9b 73 38
       5.6129693e-06 6.1497026e-06 2.5203602e-05 5.8080208e-05
0002b0 d1 d1 bd 37 d8 64 6b 37 37 ce a4 37 d8 00 4e 37
       2.262826e-05 1.4030571e-05 1.964635e-05 1.2278753e-05
0002c0 84 46 52 37 67 e2 1d 37 36 ec ea 36 cf 45 ff 36
       1.2533394e-05 9.410643e-06 7.001242e-06 7.607719e-06
0002d0 60 3d d2 38 66 20 6b 39 03 b0 23 39 cc 43 e0 38
       0.00010025012 0.00022423416 0.00015610461 0.000106937805
0002e0 a2 68 18 39 fe 2f fb 38 81 92 61 39 04 d8 56 39
       0.00014534828 0.00011977552 0.00021512249 0.00020489102
0002f0 58 ff 05 39 bf 76 1a 39 51 b6 04 39 fa 7a 99 39
       0.00012778991 0.00014730821 0.00012656419 0.0002927406
000300 1a 40 1b 39 b0 9a e5 38 db 8c 24 39 4a 5e 15 36
       0.00014805832 0.00010948384 0.00015692732 2.2257614e-06
000310 bc 28 9a 35 0d c4 cd 35 2f c7 a7 35 4e 12 bd 35
       1.1485749e-06 1.5330749e-06 1.250044e-06 1.4086925e-06
000320 a0 96 8c 36 05 7b 14 36 52 51 81 36 5c 1a 8f 36
       4.18986e-06 2.2125325e-06 3.8539665e-06 4.2648007e-06
000330 84 a7 af 36 21 2e e0 35 99 ba 0e 36 47 33 53 36
       5.234908e-06 1.6702726e-06 2.1268263e-06 3.1471297e-06
000340 1a c8 e2 35 5a 4c 9b 35 88 fe 5e 37 45 77 8f 37
       1.6896549e-06 1.1570621e-06 1.3291494e-05 1.7102468e-05
000350 6d 9a 2a 37 1c d8 e3 37 7b de ea 37 9c 7c ab 36
       1.0168745e-05 2.7161142e-05 2.7998574e-05 5.1107036e-06
000360 26 03 d4 36 bf 5e 1a 36 00 58 42 37 e6 c7 3f 37
       6.318459e-06 2.3002938e-06 1.158379e-05 1.143103e-05
000370 d3 67 c2 36 b1 b4 aa 36 2d 6a d1 36 06 ed b4 36
       5.7937373e-06 5.08743e-06 6.241046e-06 5.392011e-06
000380 f7 00 c7 36 7a db b6 34 75 a5 c0 34 33 fe f7 34
       5.9307745e-06 3.4059832e-07 3.5883173e-07 4.619229e-07
000390 98 3e bc 34 63 b9 c4 34 9a 56 6a 37 66 d7 b7 37
       3.5063272e-07 3.6642732e-07 1.396765e-05 2.1915603e-05
0003a0 b2 b5 3c 38 06 ea 90 37 0d 47 40 37 b1 dd 04 38
       4.499191e-05 1.7275113e-05 1.1460635e-05 3.167772e-05
0003b0 e6 75 fb 37 d2 b2 05 38 96 6d e8 37 55 21 ab 37
       2.9976432e-05 3.187621e-05 2.7707585e-05 2.040031e-05
0003c0 13 03 58 39 e1 62 3a 39 73 84 7e 38 36 8f 5e 3b
       0.0002060051 0.00017775178 6.0681672e-05 0.0033959872
0003d0 80 ef 5b 3b f7 3f 36 37 bb 76 3d 37 21 7b 22 37
       0.0033559501 1.0862938e-05 1.1292922e-05 9.684621e-06
0003e0 c8 13 55 37 78 68 07 37 bb 9f b8 37 3e 61 d1 37
       1.2700395e-05 8.070951e-06 2.200889e-05 2.4960023e-05
0003f0 58 80 4d 38 61 e4 df 37 36 76 d8 37 14 11 1b 37
       4.8995338e-05 2.6690019e-05 2.5804253e-05 9.242696e-06

exp_avg f4 [16]
000000 25 34 d8 b1 a3 72 f9 30 45 1d b0 ae 57 01 6f b2
       -6.2923555e-09 1.8149716e-09 -8.008753e-11 -1.3911936e-08
000010 91 d7 d1 ae e1 39 b4 30 6a bb 83 b0 27 18 6f b1
       -9.542512e-11 1.3113174e-09 -9.584771e-10 -3.4792806e-09
000020 00 d9 7a 31 9b f8 93 af 16 88 37 b2 bd 84 3f b1
       3.6503138e-09 -2.691579e-10 -1.0682944e-08 -2.786961e-09
000030 e9 49 aa 31 53 c7 7b 30 a9 70 db 30 42 1f d9 30
       4.956054e-09 9.1596525e-10 1.5966367e-09 1.5797712e-09

exp_avg_sq f4 [16]
000000 53 cd 57 25 e1 47 86 26 7d 3c 81 24 58 9c 8f 27
       1.8717844e-16 9.317601e-16 5.60473e-17 3.985998e-15
000010 f1 58 05 26 a3 0d fd 25 0b 3b 0f 25 c3 41 c1 26
       4.626418e-16 4.3897745e-16 1.2423277e-16 1.340989e-15
000020 63 44 e9 24 ff 83 b4 25 53 eb d5 26 40 39 1d 25
       1.01163494e-16 3.1314467e-16 1.4843629e-15 1.3636976e-16
000030 bd a2 38 25 70 92 c8 24 8f 90 3a 25 90 f2 e9 25
       1.6014594e-16 8.698425e-17 1.6181907e-16 4.0583424e-16

exp_avg f4 [16]
000000 92 67 85 3c a6 d9 05 3c 2d 0e 6f bc 6d 9c 90 3c
       0.016284738 0.008169567 -0.014590782 0.017652715
000010 8e 8f 8f 3b e2 d0 2b 3b 02 91 23 bc ea ab f0 bc
       0.0043811267 0.0026217033 -0.009983303 -0.02937885
000020 f7 54 ef bd f2 02 4d bc b8 56 f9 3c 8c 67 b4 ba
       -0.11686128 -0.012512909 0.030436859 -0.001376377
000030 ea 8c 99 bc 45 fb 82 ba c7 40 3f 3d 1b 46 ca bc
       -0.01874395 -0.0009993097 0.046692636 -0.024691632

exp_avg_sq f4 [16]
000000 3e a1 a9 3b c8 cc 99 39 d0 83 90 3b 83 81 2d 3b
       0.0051766923 0.00029335008 0.0044102445 0.00264749
000010 36 a1 c0 3a ea bf 09 3b eb b8 42 3b 4f d6 56 3b
       0.0014696482 0.002101893 0.002971227 0.0032781546
000020 bb e2 b8 3c 56 c5 3e 3a d5 6e a8 3b 34 bb 38 3a
       0.022569051 0.000727733 0.0051401653 0.00070469384
000030 e5 25 fd 3b 00 9f 8b 3b af a2 1c 3c 0c bf d0 3a
       0.0077254646 0.0042608976 0.009560271 0.0015926077

exp_avg f4 [16]
000000 17 54 23 bb 00 ae 05 bb 31 d8 85 bc c4 20 2f 3c
       -0.0024921948 -0.0020397902 -0.01633844 0.010688964
000010 57 82 84 3b b6 20 04 3b 8a a3 66 bc 43 d0 1e bc
       0.004043858 0.0020161099 -0.014077077 -0.009693208
000020 bd 28 ef bb 3e 1b e0 bb 89 e6 54 3d 01 32 3f bb
       -0.0072985576 -0.006839185 0.051977668 -0.0029174092
000030 61 52 ef bb 36 04 96 b9 fc 8a 10 bb df f3 62 bc
       -0.0073035215 -0.00028613367 -0.0022055497 -0.013852089

exp_avg_sq f4 [16]
000000 49 a5 1e 39 d4 dc 1c 39 71 53 ca 3a fa e6 4f 3b
       0.00015129628 0.00014959584 0.0015436244 0.0031723366
000010 4a 0f 2c 39 d0 81 f9 37 d6 a2 be 3a 99 fd 4a 3b
       0.00016408894 2.9743562e-05 0.0014544379 0.003097391
000020 e7 68 04 3a e6 4d c1 39 76 e6 65 3c f0 b0 09 3a
       0.0005051032 0.00036869867 0.014031997 0.0005252501
000030 9b 08 36 3a ff c0 96 38 47 95 90 39 ff 70 eb 3a
       0.00069440313 7.188506e-05 0.0002757704 0.0017962753

exp_avg f4 [16, 8, 1, 1]
000000 54 91 a3 3a 51 ec ed 3a 0d 5e 5f 3a f0 07 e3 bb
       0.0012479224 0.0018152093 0.00085207896 -0.0069284365
000010 b7 11 12 3c 28 e4 32 b9 72 e4 5b 3a e1 3e 5f bb
       0.008915356 -0.00017060398 0.0008388228 -0.0034064578
000020 95 61 86 bb c9 0f bc 3b f1 e7 02 bc 7f 90 09 3b
       -0.004100988 0.0057391864 -0.007989869 0.0020990667
000030 c8 a6 71 bb c6 c0 0e bc ce ba 7f bc e6 40 0b 3b
       -0.003687309 -0.008712953 -0.015608503 0.00212484
000040 10 13 8c ba a8 72 a4 3b 18 61 5f bb fc 7d dc 3a
       -0.0010686833 0.005018551 -0.0034084972 0.0016822214
000050 84 f9 07 b9 27 46 84 bb 28 c4 ac bb d4 98 e3 bb
       -0.00012967555 -0.004036683 -0.005272407 -0.0069457088
000060 2c 8c 30 bb 3f 77 43 3b ba e1 82 3a 2b eb 64 b8
       -0.0026939018 0.0029825715 0.0009985485 -5.4578453e-05
000070 e6 8b 82 3b 77 ac ad ba a2 49 8b 3b 19 41 63 3b
       0.0039839623 -0.0013250251 0.004250721 0.0034676252
000080 75 c6 4c bb 75 26 ad 3a 73 11 e4 b9 88 d1 7e bb
       -0.003124622 0.0013210314 -0.0004350055 -0.0038882215
000090 56 a7 cf ba f2 6c f4 39 b4 3a 14 3b ab ca df 3b
       -0.0015842717 0.00046620477 0.0022617998 0.00682958
0000a0 f9 c3 63 3b 40 65 71 bb d5 b2 d5 3b 35 b6 31 3c
       0.003475426 -0.0036834031 0.0065215626 0.010846664
0000b0 d3 63 41 3b 3b 53 a8 3b e6 0d 3d 3c 0a 28 01 3c
       0.0029508963 0.005136875 0.011538958 0.007883081
0000c0 c3 5a 05 bb c2 7c 0f 3b 0d 15 71 bb 40 41 98 ba
       -0.0020348288 0.002189443 -0.003678623 -0.0011616126
0000d0 de fe 82 ba c6 77 b2 b9 6d 3c 4c bb 20 dd d6 bb
       -0.0009994169 -0.00034040044 -0.0031163946 -0.006557122
0000e0 09 ae 99 39 4d df 06 b9 61 3d 20 39 0c c4 88 bb
       0.000293121 -0.00012862422 0.00015281654 -0.0041737612
0000f0 d3 3d d2 ba 96 de 53 b9 35 f5 e3 ba 7e 92 0e bb
       -0.0016040154 -0.00020205448 -0.0017391803 -0.0021754797
000100 c7 73 fe 3b 04 42 ab 39 c2 c4 04 3c 01 5f 38 bb
       0.0077652666 0.00032664847 0.008103551 -0.0028132799
000110 86 59 a4 3c bd 89 0d 3b 7a c0 55 3c b4 64 4c bc
       0.02006222 0.002159699 0.013046378 -0.012475181
000120 c5 0b 47 3a 5f 3c 27 ba f7 62 fb 38 4f a5 19 3a
       0.00075930014 -0.00063795404 0.00011987046 0.000586112
000130 7b e7 18 ba 83 0e 3a ba 01 aa 6d ba 6f 36 9e 3a
       -0.0005832833 -0.00070974993 -0.0009066165 0.0012070666
000140 26 e0 bc ba 1f c5 0f ba c1 03 bc 3b eb a7 49 bc
       -0.0014410063 -0.00054843904 0.005737752 -0.012308101
000150 b1 0c 5b 3c 85 f0 cd ba fd e5 ea 3b c1 7c f7 bb
       0.013369725 -0.0015711939 0.00716853 -0.0075527136
000160 c5 61 59 ba 51 46 9c 3b e9 dd 8a ba e4 c3 b3 bb
       -0.0008292462 0.0047691246 -0.0010594699 -0.0054859985
000170 df 42 92 39 af c0 b8 ba 62 d7 33 bb 0e d5 7b bb
       0.00027897113 -0.001409551 -0.002744161 -0.003842655
000180 db 17 94 3a 6e e4 02 bb 1d 65 9b 3a 69 e5 c1 3a
       0.0011298613 -0.001997258 0.0011855696 0.0014793101
000190 7b 68 a7 3a 94 59 3a 3a a8 cd a9 3b d2 24 70 ba
       0.0012772226 0.0007108685 0.005181987 -0.000916076
0001a0 cd a8 93 3b 00 07 2d bb ce 97 8f 3b 0f c1 9d bb
       0.0045062066 -0.0026401877 0.00438211 -0.004814274
0001b0 a4 58 17 b9 78 89 a2 39 0d bc 9c b9 a9 3f a4 bb
       -0.00014433503 0.0003100147 -0.00029894747 -0.0050124717
0001c0 e4 5c 0a bc 25 64 ef 39 95 65 0b bc cd a9 e7 3b
       -0.008444998 0.00045660246 -0.008508106 0.0070698024
0001d0 82 7e 4e bb b1 93 82 39 11 d8 52 bb a2 16 67 3c
       -0.003150851 0.0002490557 -0.0032172243 0.014104517
0001e0 5e e3 0a bb 05 f5 49 3b a5 64 c0 bb 5b 04 4a 39
       -0.002119265 0.003081621 -0.0058713728 0.00019265844
0001f0 f5 93 30 bb fc aa dd bb 8d 81 45 bc 90 07 36 bb
       -0.0026943658 -0.0067647677 -0.012054813 -0.0027775504

exp_avg_sq f4 [16, 8, 1, 1]
000000 42 04 89 38 b8 56 62 39 fe 08 70 38 59 bd 19 3a
       6.533462e-05 0.00021585345 5.7228834e-05 0.0005864702
000010 d9 cf 77 39 db 7c 74 38 15 f3 7a 38 d4 cd 52 3a
       0.00023633185 5.8290414e-05 5.9831033e-05 0.0008041535
000020 79 e2 1a 39 4f 48 59 39 3d 8d a2 39 ea d6 4f 39
       0.00014770952 0.0002072167 0.0003100428 0.0001982112
000030 1f 8e e1 39 29 0a b0 39 44 e6 82 3a 43 51 8c 38
       0.00043021233 0.00033576906 0.0009986837 6.6908564e-05
000040 9c 03 88 38 7f c5 10 39 28 11 68 39 c0 c1 4c 37
       6.485658e-05 0.00013806483 0.00022131635 1.22044585e-05
000050 fc 91 2a 39 0e cc 02 39 88 03 fb 39 cb a9 58 39
       0.00016266847 0.00012473782 0.00047877082 0.00020662618
000060 01 ff 01 39 23 01 6c 39 48 73 3d 3a b7 48 75 37
       0.00012397395 0.00022507137 0.0007226956 1.4620068e-05
000070 0a 8d ac 39 3b 98 5f 39 ce 54 94 3a e4 e4 ed 39
       0.0003291148 0.00021323648 0.0011316778 0.000453747
000080 7f 72 6b 38 a3 1d 69 39 91 ae 37 38 d2 39 b9 38
       5.6135e-05 0.00022231652 4.3793178e-05 8.832257e-05
000090 e8 b2 1b 39 f5 a2 65 39 2c fd 40 39 24 06 b0 39
       0.000148486 0.00021899848 0.00018404861 0.0003357391
0000a0 4f ee a6 3a 00 5b e5 3a 50 3b 3a 3b 57 fd 9b 3b
       0.0012735816 0.0017498434 0.00284167 0.004760425
0000b0 6b b3 af 3b 46 14 17 3b a3 30 a0 3b 2f 88 3b 3b
       0.0053619645 0.0023052855 0.0048886104 0.0028615107
0000c0 9f 79 5d 38 01 e3 42 39 14 21 5d 38 ca ff 8d 38
       5.2803774e-05 0.00018585847 5.2721312e-05 6.771048e-05
0000d0 68 03 e8 38 c2 f4 a7 37 7c 1e 87 38 ff 39 92 38
       0.000110632565 2.0021926e-05 6.44298e-05 6.972625e-05
0000e0 13 76 38 38 d4 f7 1b 39 19 73 02 38 63 2a 01 39
       4.3978984e-05 0.00014874275 3.110161e-05 0.00012318189
0000f0 fe ab 46 38 62 9f b8 37 e4 77 e7 37 c7 d9 0f 39
       4.736706e-05 2.2008728e-05 2.7593174e-05 0.00013718671
000100 63 fd 35 3a b6 38 43 3a 5d 47 81 3a 75 b7 9c 39
       0.00069423596 0.000744711 0.0009863187 0.00029891325
000110 5c aa 3f 3b 7e fa 61 3a 4f ce 31 3b 66 cb 62 3a
       0.002924583 0.0008620395 0.0027131026 0.00086515245
000120 2f 8f 2c 36 c3 dd 6c 37 d1 46 c2 36 e7 07 f9 36
       2.571334e-06 1.4118329e-05 5.7898947e-06 7.4216982e-06
000130 fc d3 0e 38 75 14 c7 36 93 0a e2 37 a5 b8 72 37
       3.4052864e-05 5.9330437e-06 2.6946223e-05 1.4467315e-05
000140 b1 44 bb 38 d8 72 e4 39 2e b5 58 39 81 51 4d 39
       8.9296496e-05 0.00043573114 0.0002066686 0.00019580686
000150 8b 82 08 3a 2f ae 13 39 65 8c 0a 3a 42 cf 80 3a
       0.00052074407 0.00014083901 0.00052852026 0.0009827393
000160 7c ac 6d 37 f1 e9 b1 38 a1 8c 3a 37 5e 00 b0 38
       1.41664605e-05 8.483593e-05 1.1119207e-05 8.3924024e-05
000170 0c 24 ca 38 60 31 c4 37 f0 90 23 38 88 23 49 38
       9.638825e-05 2.3388013e-05 3.8997212e-05 4.7955225e-05
000180 42 3b 10 39 00 40 c9 38 4d 68 30 39 4a ee 2d 38
       0.00013754985 9.596348e-05 0.00016823523 4.1468338e-05
000190 1e b0 9b 39 2e c8 db 38 12 62 00 3a 58 26 6d 38
       0.0002969512 0.0001048002 0.0004897426 5.6540914e-05
0001a0 5f cc 78 39 b8 49 9a 39 39 2f b7 39 88 78 3a 39
       0.00023727257 0.00029428094 0.00034939664 0.00017783244
0001b0 d5 07 3a 39 8e de 17 39 6f f8 c7 39 26 3a 17 39
       0.0001774126 0.0001448339 0.00038141335 0.00014422144
0001c0 bf 59 82 39 1b e9 82 39 a7 d2 a8 39 f9 22 5c 39
       0.00024862398 0.0002496921 0.00032200405 0.00020993863
0001d0 20 25 18 3a 2e 4d ad 38 d6 e5 b3 39 33 ba 0e 3a
       0.0005803872 8.263659e-05 0.00034312782 0.0005444616
0001e0 a1 40 66 38 8b fc 27 39 bf 9b 1f 39 92 a3 47 39
       5.4896464e-05 0.0001602044 0.00015221442 0.00019039054
0001f0 53 62 ad 39 90 48 42 39 b9 6b f8 39 0f de 54 39
       0.0003307039 0.00018528313 0.00047382506 0.00020300619

exp_avg f4 [16]
000000 0c ea 42 30 3c 10 44 b0 44 fd 9b b1 a9 56 17 32
       7.090939e-10 -7.1327455e-10 -4.5398867e-09 8.809061e-09
000010 ec 72 c3 b0 71 6a 4c 32 ed af f8 af ce 5b 99 31
       -1.422078e-09 1.1898565e-08 -4.523594e-10 4.463323e-09
000020 c8 d1 7f 30 ff 80 57 30 3f 2b 46 b1 dd ae 4e 31
       9.3066577e-10 7.839986e-10 -2.8837375e-09 3.0076344e-09
000030 24 64 b1 2e bb 97 3f 31 32 03 ca 31 e4 9e c4 30
       8.066817e-11 2.7880407e-09 5.879337e-09 1.4306036e-09

exp_avg_sq f4 [16]
000000 42 f7 99 25 47 ed 80 24 c7 c9 a0 25 d0 66 0b 26
       2.6708818e-16 5.5913115e-17 2.7892305e-16 4.836465e-16
000010 01 3d ff 24 61 4c 90 26 86 e9 09 25 e8 8b 33 25
       1.10691966e-16 1.001271e-15 1.1961977e-16 1.5573177e-16
000020 d8 08 2a 25 ca a9 81 23 74 2c bb 25 63 74 9f 24
       1.4748146e-16 1.4058116e-17 3.2469452e-16 6.9152425e-17
000030 83 3b 1c 24 c3 4b 4c 25 c5 3e b2 25 7f a4 3a 25
       3.3877516e-17 1.7719849e-16 3.0920612e-16 1.6188662e-16

exp_avg f4 [16]
000000 0e 50 b6 bb 4d c0 08 3a 03 05 be ba a6 77 0e 3b
       -0.0055637425 0.00052166433 -0.0014497343 0.0021738796
000010 ab 1f 88 3d 64 af e7 39 84 ac 30 bc 95 ff 89 b8
       0.06646665 0.0004419043 -0.010783318 -6.580275e-05
000020 19 b3 6b 38 79 55 32 3a 4f 86 41 ba f5 2b c3 bb
       5.6195164e-05 0.00068028976 -0.0007382379 -0.005956168
000030 4b ef 3a 3a b8 1e 88 bb 1b 5f d8 3c f4 86 9c ba
       0.00071309943 -0.0041540526 0.026412537 -0.0011942075

exp_avg_sq f4 [16]
000000 6f 70 40 3a 22 26 9f 36 a3 26 9e 38 2b b0 4c 3b
       0.00073409727 4.7430085e-06 7.541224e-05 0.0031232934
000010 ec 51 0c 3d 41 60 45 36 64 9d 0b 3c 21 58 0b 34
       0.034257814 2.9411315e-06 0.008521412 1.2977445e-07
000020 c6 a4 11 32 90 f6 1d 36 71 b8 e5 38 50 15 61 3b
       8.477576e-09 2.3538341e-06 0.00010953926 0.0034344979
000030 cd e1 35 36 a3 88 0f 39 85 4e 5e 3b 50 9e a9 37
       2.7102535e-06 0.00013688444 0.0033921313 2.022009e-05

exp_avg f4 [16]
000000 34 f5 03 3b d7 42 e4 ba 2f 91 e8 ba c1 5a d0 3a
       0.0020135166 -0.0017414939 -0.0017743463 0.0015896187
000010 92 f7 0f bc 47 82 51 bb 82 d6 11 3b 1c 16 93 3a
       -0.008787053 -0.003196852 0.00222531 0.0011221799
000020 54 92 a6 3a 32 ff 92 ba 2b 3e 23 3a 2c 9e d0 3a
       0.0012708404 -0.001121497 0.00062272203 0.001591628
000030 9c ff a0 ba 09 62 1f 3b 9d fb 35 bc e3 7f b9 3a
       -0.0012283209 0.0024319908 -0.011107353 0.0014152493

exp_avg_sq f4 [16]
000000 e9 ab c9 38 79 b0 5d 38 9a 95 ec 38 b3 90 da 3a
       9.616448e-05 5.285486e-05 0.000112812224 0.0016675204
000010 ac c7 1c 3a 13 65 21 39 8d 2d be 39 5a 50 1e 38
       0.0005980681 0.0001539181 0.00036273562 3.774497e-05
000020 54 7e 91 36 eb a6 d6 36 b0 00 a3 38 55 1e 80 39
       4.3360433e-06 6.397129e-06 7.772574e-05 0.00024436662
000030 75 e4 06 37 59 d8 44 38 4c 3a 1d 3a 95 29 ee 37
       8.040214e-06 4.693153e-05 0.00059977616 2.8391174e-05

exp_avg f4 [16, 1, 3, 3]
000000 04 a8 04 bc 82 5b a1 bb 18 21 9c bb 42 a9 24 bc
       -0.008096699 -0.0049242387 -0.0047646873 -0.01005012
000010 b5 9b b8 bb 1f 9a a0 bb fb 87 4a bc c1 e7 b0 bb
       -0.005633796 -0.004901185 -0.012361522 -0.005398721
000020 5e 37 b5 bb 46 44 ea b9 7d 0f 69 b9 08 f9 cb b7
       -0.005530282 -0.00044682826 -0.00022226381 -2.431545e-05
000030 e8 a0 71 39 f5 f3 9b b9 b2 25 30 3a 9d 37 b3 3a
       0.00023043493 -0.00029745666 0.0006719484 0.001367319
000040 f4 50 1f 3a 78 5a 0f 39 9f 9f b6 b8 43 9e 10 3b
       0.00060774316 0.00013671245 -8.708168e-05 0.0022066988
000050 e4 08 2a ba 96 6d e8 b7 c0 64 28 3b 76 e3 37 ba
       -0.000648631 -2.7707585e-05 0.0025694817 -0.00070147903
000060 78 4b 09 bb c1 1d e0 3a 8d bf 00 bb 6f 67 36 bb
       -0.0020949524 0.0017098711 -0.0019645423 -0.0027832647
000070 18 0b 82 bb d9 42 02 3a 6c 35 d4 ba c8 b1 46 bb
       -0.0039686076 0.00049690675 -0.0016190237 -0.0030318368
000080 fc 7a 91 b9 ea e8 9b 3a 03 4f c7 39 5c 9b a6 3a
       -0.00027748186 0.0011894975 0.00038015106 0.0012711096
000090 93 fa a1 bb 6f c1 eb bb f6 a0 98 bb bb 7b 2f bb
       -0.004943201 -0.00719469 -0.00465786 -0.002677663
0000a0 90 a0 b6 bb 31 b7 8c bb 38 d0 de ba ac 65 38 bb
       -0.0055733398 -0.004294299 -0.001699931 -0.0028136773
0000b0 59 7d f0 ba 9a e0 c1 ba 29 fa 53 ba dd a5 3e 3a
       -0.0018347903 -0.0014791668 -0.0008086288 0.00072726404
0000c0 f6 34 05 bb 00 b7 a4 ba 53 85 a0 b9 55 7f 14 3a
       -0.0020325757 -0.0012566745 -0.00030616912 0.0005664726
0000d0 82 b8 82 ba 1e 5f c3 3a 5b 1d 1e 3c ce 93 c4 3b
       -0.00099732 0.0014905666 0.009650554 0.005999065
0000e0 81 df 4a 3b 3a 8a 3a 3c 64 b4 13 3c 28 72 57 3b
       0.0030955973 0.011385495 0.009015176 0.003287444
0000f0 3a af 8c 3c 08 08 8d 3c 9f d3 1b 3c 15 3c 19 3a
       0.017173398 0.017215744 0.009510904 0.000584544
000100 8b 19 73 3b fe a2 c9 3a 93 50 c7 3a 56 c8 b6 3b
       0.0037094082 0.0015383658 0.0015206508 0.005578081
000110 72 c8 72 3b ce 50 aa b9 d6 2f 89 3b 00 9e cc 3a
       0.0037045744 -0.0003248513 0.0041866107 0.0015611053
000120 3a 98 83 bb f2 b9 63 bc fb 09 0f bb e9 9d 9b bb
       -0.0040159496 -0.013899313 -0.0021826017 -0.004749049
000130 9f 50 40 bc 60 09 88 bb 42 60 53 bb f8 81 d0 bb
       -0.011737972 -0.004151508 -0.003225342 -0.0063631497
000140 5d 0a 8c bb 5d 89 aa 3a fb 88 8c 3a 70 ae d0 3a
       -0.0042736963 0.0013010908 0.0010721976 0.0015921127
000150 bd 38 53 b8 1d a3 72 b9 20 2f 2c b9 94 7d f1 39
       -5.0359162e-05 -0.00023139683 -0.00016420754 0.00046060665
000160 30 3d b4 39 91 7a 44 3a f0 a0 eb bc 40 9e e7 bc
       0.00034377864 0.00074950705 -0.028763264 -0.028273702
000170 a1 3a 1b bd ce 2e e3 bc 81 7e 06 bd 5f 19 2e bd
       -0.03789771 -0.02773228 -0.032835487 -0.042504665
000180 0a b4 ab bc a7 da e1 bc b7 39 49 bd d7 b9 6a 3b
       -0.020959873 -0.027570082 -0.049127307 0.0035816336
000190 7e 6b e8 3b 36 19 ca 3b 4d f4 8e ba 5c 41 34 3a
       0.007092892 0.006167556 -0.0010906548 0.00068761944
0001a0 79 aa 3c ba 2c 5f e5 ba eb 5f d1 3a f5 e0 f5 b8
       -0.0007197033 -0.0017499677 0.001597402 -0.00011724412
0001b0 d5 5f 10 b9 26 07 c6 ba 03 30 96 b8 4f 8c 74 38
       -0.0001376861 -0.0015108332 -7.1615e-05 5.8304806e-05
0001c0 45 c4 27 ba 03 d6 dd 39 0a 41 34 37 a9 aa 61 ba
       -0.0006399791 0.00042311856 1.0743979e-05 -0.0008608499
0001d0 c0 f7 b2 39 e6 c8 cf ba 14 d6 a6 bb b2 1c d1 ba
       0.00034135394 -0.0015852719 -0.005091438 -0.0015953986
0001e0 38 39 c8 ba b7 57 a3 bb f4 2d 4d ba 11 e8 96 ba
       -0.0015275842 -0.0049848217 -0.0007826977 -0.0011513253
0001f0 75 88 85 bb de 5b 32 3a 5d d5 35 bb 5a 4d ee ba
       -0.004075105 0.00068038504 -0.0027745583 -0.0018181012
000200 97 a5 42 bc 84 a4 0a bb f0 25 b1 ba 31 3e 42 bc
       -0.0118803 -0.0021155188 -0.0013515335 -0.011855648
000210 2b e1 a2 ba 88 f4 0d bb 8d be 7b bc 8f 31 55 b8
       -0.0012426724 -0.0021660645 -0.015365255 -5.0829312e-05
000220 b0 1c ac bb d3 d2 74 bb f7 a7 67 3a d3 2c a1 bb
       -0.0052524433 -0.0037357106 0.00088369794 -0.0049186735
000230 9e f9 27 bb a1 c5 82 39 fd d5 9c bb b2 d3 3f bb
       -0.0025630961 0.00024942777 -0.0047862516 -0.0029270467
