gtcrn_micro/models/onnx/gtcrn_micro.onnx (onnx, 221884 bytes, 138 tensors)

onnx::MatMul_1478 f4 [192, 64]
1.0 1e-12 0.0 0.0 0.0 0.0 0.0 0.0
0.0 0.0 0.0 0.0 0.0 0.0 0.0 0.0
0.0 0.0 0.0 0.0 0.0 0.0 0.0 0.0
0.0 0.0 0.0 0.0 0.0 0.0 0.0 0.0
0.0 0.0 0.0 0.0 0.0 0.0 0.0 0.0
0.0 0.0 0.0 0.0 0.0 0.0 0.0 0.0
0.0 0.0 0.0 0.0 0.0 0.0 0.0 0.0
0.0 0.0 0.0 0.0 0.0 0.0 0.0 0.0
0.0 1.0 5e-13 0.0 0.0 0.0 0.0 0.0
0.0 0.0 0.0 0.0 0.0 0.0 0.0 0.0
0.0 0.0 0.0 0.0 0.0 0.0 0.0 0.0
0.0 0.0 0.0 0.0 0.0 0.0 0.0 0.0
0.0 0.0 0.0 0.0 0.0 0.0 0.0 0.0
0.0 0.0 0.0 0.0 0.0 0.0 0.0 0.0
0.0 0.0 0.0 0.0 0.0 0.0 0.0 0.0
0.0 0.0 0.0 0.0 0.0 0.0 0.0 0.0
0.0 0.5 0.5 0.0 0.0 0.0 0.0 0.0
0.0 0.0 0.0 0.0 0.0 0.0 0.0 0.0
0.0 0.0 0.0 0.0 0.0 0.0 0.0 0.0
0.0 0.0 0.0 0.0 0.0 0.0 0.0 0.0
0.0 0.0 0.0 0.0 0.0 0.0 0.0 0.0
0.0 0.0 0.0 0.0 0.0 0.0 0.0 0.0
0.0 0.0 0.0 0.0 0.0 0.0 0.0 0.0
0.0 0.0 0.0 0.0 0.0 0.0 0.0 0.0
0.0 0.0 1.0 5e-13 0.0 0.0 0.0 0.0
0.0 0.0 0.0 0.0 0.0 0.0 0.0 0.0
0.0 0.0 0.0 0.0 0.0 0.0 0.0 0.0
0.0 0.0 0.0 0.0 0.0 0.0 0.0 0.0
0.0 0.0 0.0 0.0 0.0 0.0 0.0 0.0
0.0 0.0 0.0 0.0 0.0 0.0 0.0 0.0
0.0 0.0 0.0 0.0 0.0 0.0 0.0 0.0
0.0 0.0 0.0 0.0 0.0 0.0 0.0 0.0
00000000: 0000 803f ccbc 8c2b 0000 0000 0000 0000
00000010: 0000 0000 0000 0000 0000 0000 0000 0000
00000020: 0000 0000 0000 0000 0000 0000 0000 0000
00000030: 0000 0000 0000 0000 0000 0000 0000 0000
00000040: 0000 0000 0000 0000 0000 0000 0000 0000
00000050: 0000 0000 0000 0000 0000 0000 0000 0000
00000060: 0000 0000 0000 0000 0000 0000 0000 0000
00000070: 0000 0000 0000 0000 0000 0000 0000 0000
00000080: 0000 0000 0000 0000 0000 0000 0000 0000
00000090: 0000 0000 0000 0000 0000 0000 0000 0000
000000a0: 0000 0000 0000 0000 0000 0000 0000 0000
000000b0: 0000 0000 0000 0000 0000 0000 0000 0000
000000c0: 0000 0000 0000 0000 0000 0000 0000 0000
000000d0: 0000 0000 0000 0000 0000 0000 0000 0000
000000e0: 0000 0000 0000 0000 0000 0000 0000 0000
000000f0: 0000 0000 0000 0000 0000 0000 0000 0000
00000100: 0000 0000 0000 803f ccbc 0c2b 0000 0000
00000110: 0000 0000 0000 0000 0000 0000 0000 0000
00000120: 0000 0000 0000 0000 0000 0000 0000 0000
00000130: 0000 0000 0000 0000 0000 0000 0000 0000
00000140: 0000 0000 0000 0000 0000 0000 0000 0000
00000150: 0000 0000 0000 0000 0000 0000 0000 0000
00000160: 0000 0000 0000 0000 0000 0000 0000 0000
00000170: 0000 0000 0000 0000 0000 0000 0000 0000
00000180: 0000 0000 0000 0000 0000 0000 0000 0000
00000190: 0000 0000 0000 0000 0000 0000 0000 0000
000001a0: 0000 0000 0000 0000 0000 0000 0000 0000
000001b0: 0000 0000 0000 0000 0000 0000 0000 0000
000001c0: 0000 0000 0000 0000 0000 0000 0000 0000
000001d0: 0000 0000 0000 0000 0000 0000 0000 0000
000001e0: 0000 0000 0000 0000 0000 0000 0000 0000
000001f0: 0000 0000 0000 0000 0000 0000 0000 0000
00000200: 0000 0000 0000 003f 0000 003f 0000 0000
00000210: 0000 0000 0000 0000 0000 0000 0000 0000
00000220: 0000 0000 0000 0000 0000 0000 0000 0000
00000230: 0000 0000 0000 0000 0000 0000 0000 0000
00000240: 0000 0000 0000 0000 0000 0000 0000 0000
00000250: 0000 0000 0000 0000 0000 0000 0000 0000
00000260: 0000 0000 0000 0000 0000 0000 0000 0000
00000270: 0000 0000 0000 0000 0000 0000 0000 0000
00000280: 0000 0000 0000 0000 0000 0000 0000 0000
00000290: 0000 0000 0000 0000 0000 0000 0000 0000
000002a0: 0000 0000 0000 0000 0000 0000 0000 0000
000002b0: 0000 0000 0000 0000 0000 0000 0000 0000
000002c0: 0000 0000 0000 0000 0000 0000 0000 0000
000002d0: 0000 0000 0000 0000 0000 0000 0000 0000
000002e0: 0000 0000 0000 0000 0000 0000 0000 0000
000002f0: 0000 0000 0000 0000 0000 0000 0000 0000
00000300: 0000 0000 0000 0000 0000 803f ccbc 0c2b
00000310: 0000 0000 0000 0000 0000 0000 0000 0000
00000320: 0000 0000 0000 0000 0000 0000 0000 0000
00000330: 0000 0000 0000 0000 0000 0000 0000 0000
00000340: 0000 0000 0000 0000 0000 0000 0000 0000
00000350: 0000 0000 0000 0000 0000 0000 0000 0000
00000360: 0000 0000 0000 0000 0000 0000 0000 0000
00000370: 0000 0000 0000 0000 0000 0000 0000 0000
00000380: 0000 0000 0000 0000 0000 0000 0000 0000
00000390: 0000 0000 0000 0000 0000 0000 0000 0000
000003a0: 0000 0000 0000 0000 0000 0000 0000 0000
000003b0: 0000 0000 0000 0000 0000 0000 0000 0000
000003c0: 0000 0000 0000 0000 0000 0000 0000 0000
000003d0: 0000 0000 0000 0000 0000 0000 0000 0000
000003e0: 0000 0000 0000 0000 0000 0000 0000 0000
000003f0: 0000 0000 0000 0000 0000 0000 0000 0000

onnx::Conv_1366 f4 [16, 3, 1, 5]
-0.00340478 -0.0007531566 -0.0023836961 -0.0010737699 0.00029071307 -0.015492254 -0.080267 0.023928577
0.07249421 0.028712193 -0.0024708668 -0.075368345 -0.19516338 -0.09869657 -0.03183076 -0.004038683
0.00093180017 -0.00074487104 -0.001576509 6.0527804e-05 0.03773224 0.0051255715 -0.17644013 -0.15886553
-0.049605437 0.04622375 0.19160263 0.17089309 0.029016335 0.0014040086 0.0012880424 -0.24623704
-0.15613528 -0.2189657 -0.15006569 0.010055765 0.015260334 0.004082857 0.029363547 0.0011378705
0.013871014 0.027345642 0.01832105 -0.006134908 0.003997439 0.0024318225 0.18968828 -0.26501095
-0.13517636 0.15824851 0.00057304313 -0.0039633103 0.0044820243 0.00972232 0.007894722 -0.005972401
0.0017474729 -0.001355987 0.004994382 0.0024992414 -0.12751369 -0.118797064 -0.013982956 -0.005986869
0.004449237 0.0024320271 9.5990974e-05 0.004116466 0.0032176902 0.0019619365 0.0037001749 0.000347716
0.007716362 0.0044843717 0.0021943005 0.0044859815 -0.03924551 -0.0032023103 0.0013210184 -0.001279492
-0.07220018 -0.0065235454 -0.09274112 0.0033575655 -0.002490583 -0.012420458 -0.0018532914 -0.050055195
-0.042799998 -0.008469943 -0.011814768 -0.029918125 0.003330451 -0.0012199349 0.0010438057 0.0040518567
-0.018199548 -0.00019272308 0.005703046 0.0016688586 -0.025721876 0.014623474 -0.025565082 0.0020148584
-0.00019868568 -0.018509265 -0.06881193 -0.098763786 -0.28115276 -0.20320036 0.024810284 -0.009050896
-0.08729879 -0.027210085 -0.0011087045 0.027465845 0.12339743 -0.040568057 -0.011027436 0.006088881
-0.005473354 -0.0055184076 -0.0075985887 0.001314515 0.0030546265 -0.007745544 0.013229443 -0.016529974
0.001989838 -0.0016071833 -0.0035693774 0.005075437 -0.0004125265 -0.0003279201 0.0029247021 0.20399642
-0.26659805 -0.12739965 0.17276199 -0.030528756 0.008424682 -0.009282609 0.0030627458 0.0015402803
0.0033095048 0.0031969524 -0.0027146954 0.0026842104 0.0019844973 0.0024972542 -0.0152044585 -0.0105426
-0.14076035 -0.1613195 -0.05481147 0.002608572 0.0064556487 0.0045861616 0.002187916 -0.00013565246
0.0004341318 -0.0023559853 -0.0011399843 -0.0039208033 0.0023070718 -0.04340683 -0.37257406 -0.012308509
0.009085199 -0.034220375 0.044006187 -0.06148141 0.16496874 0.057053983 0.04698855 0.06380648
-0.21611859 0.079811126 0.049397275 0.0062870802 0.07696492 0.089850016 0.0052543147 -0.025040558
-0.0108133545 -0.0038532694 0.008424405 -0.0015139504 0.00041739145 -0.0038215984 -0.010704833 -0.0030076837
0.0004910593 0.004457622 -0.00023333472 -0.0016595338 -0.0017375333 0.0003234649 -0.0019478817 0.0008960398
0.016723942 0.096998215 0.13503143 0.047161918 0.01069117 -0.015526774 -0.052015696 0.07654652
0.09119095 0.03486575 0.104930125 -0.2616351 -0.37282017 0.045856982 0.035341587 0.002584736
-0.007374046 -0.010748482 -0.025684247 -0.009315625 0.018843133 -0.022597007 0.060949277 -0.002232593
-0.0031748582 0.0029478022 -0.018454153 -0.028494379 -0.057676725 -0.03579093 0.003013824 0.0012391083
0.003382961 0.0042376537 0.0036290807 0.0026105023 0.0027011165 5.796753e-06 0.0019467322 0.0010429157
00000000: bb22 5fbb 7c6f 45ba c937 1cbb bdbd 8cba
00000010: d96a 9839 39d3 7dbc 0663 a4bd dd05 c43c
00000020: d877 943d d535 eb3c 44ee 21bb b85a 9abd
00000030: e9d8 47be 6d21 cabd f960 02bd ee56 84bb
00000040: 0d44 743a 7343 43ba dda2 ceba 3cdf 7d38
00000050: 1f8d 1a3d 69f4 a73b b9ac 34be a5ad 22be
00000060: 122f 4bbd 1d55 3d3d 7b33 443e 99fe 2e3e
00000070: aab3 ed3c b606 b83a 88d3 a83a 9025 7cbe
00000080: ede1 1fbe 8b38 60be d2aa 19be efc0 243c
00000090: 7b06 7a3c 7dc9 853b d28b f03c 9924 953a
000000a0: 4043 633c f803 e03c 0716 963c 5707 c9bb
000000b0: f3fc 823b 365f 1f3b a53d 423e 84af 87be
000000c0: ac6b 0abe e60b 223e 4638 163a a8de 81bb
000000d0: f2dd 923b 5e4a 1f3c dd58 013c 21b4 c3bb
000000e0: 760b e53a 60bb b1ba eaa7 a33b 50ca 233b
000000f0: f392 02be e04b f3bd c518 65bc 7f2d c4bb
00000100: e8ca 913b a562 1f3b c34e c938 6be3 863b
00000110: e2df 523b d593 003b a27e 723b a74d b639
00000120: 89d9 fc3b a3f1 923b 41ce 0f3b 24ff 923b
00000130: e6bf 20bd dadd 51bb 0626 ad3a a1b4 a7ba
00000140: b0dd 93bd 77c3 d5bb 0eef bdbd 9a0a 5c3b
00000150: 0d39 23bb 2d7f 4bbc 24ea f2ba ad06 4dbd
00000160: 0d4f 2fbd 84c5 0abc bb92 41bc db16 f5bc
00000170: b243 5a3b 39e6 9fba 4fd0 883a 70c5 843b
00000180: 3817 95bc b515 4ab9 9ee0 ba3b 9abd da3a
00000190: afb6 d2bc 4c97 6f3c dd6d d1bc b70b 043b
000001a0: 4856 50b9 bea0 97bc 45ed 8cbd ab44 cabd
000001b0: 41f3 8fbe c113 50be f03e cb3c 364a 14bc
000001c0: b5c9 b2bd afe7 debc f351 91ba 0d00 e13c
000001d0: cbb7 fc3d b12a 26bd 6bac 34bc 3c85 c73b
000001e0: d259 b3bb c2d3 b4bb 95fd f8bb ce4b ac3a
000001f0: 2130 483b 55ce fdbb 4ec0 583c de69 87bc
00000200: f167 023b 1fa8 d2ba 37ec 69bb da4f a63b
00000210: 5f48 d8b9 b1ec abb9 5cac 3f3b 70e4 503e
00000220: 8a7f 88be 0e75 02be 85e8 303e 7117 fabc
00000230: ad07 0a3c 1616 18bc 59b8 483b 3be3 c93a
00000240: 47e4 583b f683 513b 08e9 31bb 94e9 2f3b
00000250: 570e 023b f9a8 233b 1f1c 79bc dfba 2cbc
00000260: 7b23 10be f030 25be fe81 60bd 93f4 2a3b
00000270: e889 d33b 8347 963b 2463 0f3b ee3d 0eb9
00000280: 2f9c e339 e066 1abb 876b 95ba 157a 80bb
00000290: 3e32 173b 5ccb 31bd 07c2 bebe a1a9 49bc
000002a0: 16da 143c aa2a 0cbd d53f 343d eed3 7bbd
000002b0: 91ed 283e 70b1 693d 1177 403d f9ac 823d
000002c0: 314e 5dbe 0474 a33d cc54 4a3d da03 ce3b
000002d0: c99f 9d3d 4903 b83d 632c ac3b db21 cdbc
000002e0: 7f2a 31bc 2287 7cbb 8406 0a3c bf6f c6ba
000002f0: 55d5 da39 c873 7abb 5363 2fbc 8f1c 45bb
00000300: 6fba 003a 3e11 923b 50ab 74b9 b784 d9ba
00000310: f1bd e3ba b996 a939 1050 ffba 37e4 6a3a
00000320: a600 893c 00a7 c63d ae45 0a3e db2c 413d
00000330: 042a 2f3c 0364 7ebc 690e 55bd 6cc4 9c3d
00000340: 52c2 ba3d 64cf 0e3d 9be5 d63d 09f5 85be
00000350: 49e2 bebe 88d4 3b3d 57c2 103d ad64 293b
00000360: fba1 f1bb 671a 30bc c567 d2bc 90a0 18bc
00000370: ea5c 9a3c 5c1d b9bc f3a5 793d b250 12bb
00000380: 4811 50bb ea2f 413b 2a2d 97bc 0b6d e9bc
00000390: 6e3e 6cbd 8399 12bd 9483 453b 9369 a23a
000003a0: abb4 5d3b 04dc 8a3b dfd5 6d3b f614 2b3b
000003b0: 3705 313b bb81 c236 7e29 ff3a 72b2 883a

onnx::Conv_1367 f4 [16]
0.006544169 0.0008426856 0.15564224 0.00972835 0.31472814 0.0057923635 0.0130414255 0.030447096
0.009456068 0.008537374 0.1822299 -0.009119898 0.1799337 0.0005147952 0.11013983 0.48951292
00000000: 7870 d63b ace7 5c3a ae60 1f3e a863 1f3c
00000010: 0c24 a13e decd bd3b b4ab 553c 306c f93c
00000020: a0ed 1a3c 58e0 0b3c 7a9a 3a3e a06b 15bc
00000030: 8a40 383e 52f3 063a fe90 e13d 70a1 fa3e

onnx::Conv_1369 f4 [16, 16, 1, 5]
-0.43395132 -0.33268705 -0.76651293 0.7200562 0.50118935 -0.32871073 -0.49167103 -0.5216473
0.21044482 0.043524154 -0.08282702 1.4310586 -0.73364466 -0.5617613 0.6124852 0.8611912
-0.5870699 0.35993764 0.56985474 0.18260428 1.7947938 1.8299384 -0.1535205 -1.0408424
-0.5752296 0.36517847 0.079610206 -0.3081416 -0.044513 0.2665838 1.9885366 0.5974611
-1.9361007 -1.4266082 -0.57739383 0.45047203 0.2647763 0.6579471 1.5501814 1.1006658
1.5253539 0.643376 -0.860579 0.43600258 1.1385249 0.26674274 0.24082133 -0.38400468
0.26262334 -0.02337524 2.0744026 0.47274375 -0.57210165 -0.39089528 0.87950087 0.46678656
0.46127015 -0.8065749 -0.7153517 0.43214095 -1.5679454 0.32673994 -0.88329566 -0.28618
-0.13277163 0.16926175 -0.74094695 -0.6046879 0.76876545 0.5880838 0.9641566 0.38495117
-1.9746274 -0.3334894 0.9755057 1.7412689 0.71784264 -0.32636887 -0.07326966 1.0771265
-0.30427906 -0.5695939 0.3780186 0.5789804 1.852217 -0.14728546 -0.2925145 0.26820374
0.2882222 1.3637239 0.94839174 0.060903348 -0.93485093 -1.7124243 -0.49064016 -0.050881732
0.01083824 0.057380203 -0.21660468 -0.083470255 -0.05784177 0.6563101 -0.04645434 -0.5988361
-0.2881821 -0.19758849 -0.25007528 0.11588619 -0.109097585 0.74833417 -0.562856 0.32680407
0.46697205 -0.32604137 0.90608466 0.43660673 -0.39623448 -0.121134385 -1.1883305 -0.19554216
-0.7089769 -0.27982545 0.3354273 -0.10200764 1.5995481 -0.11109088 0.011448097 -0.010798651
-0.08184215 -0.3924796 0.48813543 -0.15169759 -0.49744377 -0.8623047 -1.3476837 0.20687741
0.27046442 0.6204823 -0.5251825 0.056816228 0.42298672 0.5516977 0.5745371 1.0269195
-0.48023754 -0.41428438 -0.6680326 0.28528082 0.44555923 2.308773 0.31602964 0.37063256
0.66503525 0.67407084 1.6463444 0.21248856 -0.19532757 -0.6574913 -0.25932053 -0.6674598
-0.45818827 0.07029119 -0.16267423 0.04761884 0.09566296 -0.035704646 0.08832117 0.0055257613
0.20676711 0.15401584 0.21189703 0.42379764 0.5895253 -0.5109587 -0.16155213 -0.70398855
-1.2504781 -0.83193785 -0.2865288 0.029022327 0.45394924 -0.28812185 0.3704566 0.072851025
-0.1478214 0.35031274 0.13504204 -0.2111236 -0.2658183 -0.2189181 1.2628806 -0.725878
-0.13494462 -0.5079945 -0.4618116 -0.22769254 0.7073723 0.58049846 -0.29698643 -0.50716823
-0.67959005 -0.69423115 -0.6020288 -0.23945734 0.27231488 -0.3401078 -0.8550731 -1.0334721
-0.46520504 -0.3189838 -0.06632015 0.12807031 0.22154447 -0.44542247 -0.59521365 0.6264958
-0.78358114 0.14699407 -0.56372344 -0.842834 -0.6133557 -0.58459496 -1.016741 0.30895668
0.13481416 -0.22665085 0.05083229 -0.1738846 0.23711695 0.28922963 -0.056893095 -0.7510263
-0.40450457 -0.33694503 -0.04205471 -1.0451301 -0.48970675 0.054994296 -0.23902406 -0.5596252
0.21571866 -0.5396108 0.8676075 1.3831766 0.5846115 0.13392168 -0.33457226 0.51097435
0.76820284 0.48750675 -1.047203 0.106175095 0.20896615 -0.5776164 -0.30587456 0.74582344
00000000: de2e debe f555 aabe 313a 44bf 9a55 383f
00000010: f24d 003f c64c a8be 4ebc fbbe ad8a 05bf
00000020: d97e 573e 6246 323d 36a1 a9bd ee2c b73f
00000030: 23d0 3bbf 97cf 0fbf d4cb 1c3f 0777 5c3f
00000040: 374a 16bf bf49 b83e 00e2 113f 9efc 3a3e
00000050: cebb e53f 6c3b ea3f 7a34 1dbe 533a 85bf
00000060: 3f42 13bf acf8 ba3e ad0a a33d bcc4 9dbe
00000070: 4353 36bd ac7d 883e 5e88 fe3f 36f3 183f
00000080: 26d2 f7bf 199b b6bf 15d0 13bf 45a4 e63e
00000090: c290 873e 396f 283f 586c c63f 9ee2 8c3f
000000a0: cc3e c33f 4ab4 243f e84e 5cbf bb3b df3e
000000b0: 2fbb 913f 8192 883e de99 763e 439c c4be
000000c0: 9176 863e 6e7d bfbc 03c3 0440 780b f23e
000000d0: 4175 12bf 6d23 c8be f826 613f a6fe ee3e
000000e0: 9a2b ec3e b17b 4ebf 4a21 37bf 9441 dd3e
000000f0: 6fb2 c8bf 754a a73e aa1f 62bf 2f86 92be
00000100: 49f5 07be f452 2d3e b3ae 3dbf d4cc 1abf
00000110: d0cd 443f a98c 163f f8d2 763f 5218 c53e
00000120: 97c0 fcbf 1fbf aabe beba 793f e6e1 de3f
00000130: 89c4 373f d219 a7be 670e 96bd 48df 893f
00000140: 77ca 9bbe e8d0 11bf a78b c13e 0f38 143f
00000150: 7215 ed3f 00d2 16be 76c4 95be 0052 893e
00000160: dc91 933e 818e ae3f cdc9 723f ca75 793d
00000170: 6452 6fbf b830 dbbf 3035 fbbe 5d69 50bd
00000180: e092 313c 8107 6b3d 9ecd 5dbe 74f2 aabd
00000190: 7eeb 6cbd f003 283f e846 3ebd 534d 19bf
000001a0: 9b8c 93be a354 4abe de09 80be bd55 ed3d
000001b0: 8e6e dfbd d492 3f3f 5517 10bf dd52 a73e
000001c0: f616 ef3e e5ee a6be 2af5 673f eb8a df3e
000001d0: 3fdf cabe 4e15 f8bd 371b 98bf 343c 48be
000001e0: 837f 35bf 4845 8fbe 21bd ab3e 62e9 d0bd
000001f0: febd cc3f 9e83 e3bd cd90 3b3c d3ec 30bc
00000200: db9c a7bd 16f3 c8be e3ec f93e 9d56 1bbe
00000210: f3b0 febe 00c0 5cbf e680 acbf acd7 533e
00000220: 507a 8a3e eed7 1e3f 5c72 06bf 22b8 683d
00000230: b791 d83e 0f3c 0d3f dd14 133f 1972 833f
00000240: b2e1 f5be 151d d4be 2f04 2bbf 5410 923e
00000250: 5720 e43e f0c2 1340 a3ce a13e 8dc3 bd3e
00000260: c03f 2a3f e88f 2c3f 6abb d23f 9a96 593e
00000270: f303 48be 5a51 28bf a9c5 84be a5de 2abf
00000280: a797 eabe d4f4 8f3d 1394 26be f90b 433d
00000290: f1ea c33d 093f 12bd bbe1 b43d 7211 b53b
000002a0: c2ba 533e 54b6 1d3e 89fb 583e 01fc d83e
000002b0: 21eb 163f 30ce 02bf ec6d 25be 9838 34bf
000002c0: ab0f a0bf e1f9 54bf e7b3 92be 3bc0 ed3c
000002d0: 096c e83e b584 93be 7dac bd3e eb32 953d
000002e0: 7e5e 17be 315c b33e 7648 0a3e c930 58be
000002f0: 5619 88be 112c 60be 12a6 a13f 24d3 39bf
00000300: ec2e 0abe ed0b 02bf 9272 ecbe 3c28 69be
00000310: 5a16 353f 8c9b 143f 9b0e 98be c7d5 01bf
00000320: 9df9 2dbf 22b9 31bf 8f1e 1abf 4e34 75be
00000330: db6c 8b3e 9c22 aebe 12e6 5abf d048 84bf
00000340: 5b2f eebe d851 a3be dcd2 87bd dd24 033e
00000350: 8edc 623e 6a0e e4be ec5f 18bf 0762 203f
00000360: c698 48bf 9d85 163e 2e50 10bf f8c3 57bf
00000370: e104 1dbf 04a8 15bf 9224 82bf 922f 9e3e
00000380: b90c 0a3e 2917 68be 8535 503d ce0e 32be
00000390: c9ce 723e e815 943e bc08 69bd 4243 40bf
000003a0: 391b cfbe 0f84 acbe 8f41 2cbd d3c6 85bf
000003b0: d8ba fabe b341 613d b9c2 74be 9943 0fbf
000003c0: 5ae5 5c3e ef23 0abf 861b 5e3f ee0b b13f
000003d0: 19a9 153f c422 093e 0e4d abbe 37cf 023f
000003e0: f1a8 443f 7c9a f93e bf0a 86bf 5472 d93d
000003f0: 39fb 553e abde 13bf 979b 9cbe 49ee 3e3f

onnx::Conv_1370 f4 [16]
-1.9946876 0.38742703 2.5071433 2.058709 1.4582794 2.0897686 1.1166272 -0.4058249
0.085896045 2.3608422 2.2832966 3.0660224 -1.8353305 1.0865797 -2.9893446 0.5103736
00000000: ec51 ffbf d65c c63e 0975 2040 e3c1 0340
00000010: e6a8 ba3f c5be 0540 a4ed 8e3f 48c8 cfbe
00000020: 44ea af3d 0a18 1740 8821 1240 b639 4440
00000030: 1cec eabf 0b15 8b3f 6c51 3fc0 d8a7 023f

onnx::Conv_1372 f4 [16, 8, 1, 1]
0.482863 0.09261492 -0.8689361 0.17581825 -1.0119586 0.06075731 -0.33400765 -2.1068895
-0.27276123 -0.4385608 -0.4163995 -0.22496879 -0.14060777 -0.014137766 -0.2744086 0.012000204
-0.10118435 0.023242498 0.028703643 -0.117564894 0.16512842 0.05545911 -0.10965139 -0.033896737
0.4805981 -0.1287279 -0.36232647 -0.057440598 -0.23244438 0.27979824 -0.88199365 0.32968432
0.6500058 -0.07397811 0.9113788 0.3604394 -0.18978961 -0.017607613 0.45259005 0.4189729
-1.5710021 0.302069 1.0429791 -0.5203488 -1.110564 -0.10311828 -0.44014913 -0.05215239
-0.08671962 0.047861245 -0.25978574 0.17131819 0.06896113 0.14949329 0.04551862 -0.31743672
-2.75224 -0.18752904 1.748204 0.83994013 -0.9778775 0.31488243 -0.7588475 1.3119497
-0.08751658 -0.2861546 -0.6210573 0.49600646 -0.10950391 0.18978243 0.41287744 -0.38310036
0.791494 0.15827815 1.0612808 -0.9321157 0.022822684 1.5393127 0.031765427 -0.65885323
-0.4914628 0.39600497 -0.2894258 -0.3492007 0.14475423 0.47158572 0.8061734 0.33891508
-0.5075395 -0.0048773554 -0.16394931 -0.4794646 0.00049531646 0.26972938 0.5424007 -0.47475645
1.0100024 -0.87185323 1.376519 0.38470256 -0.052782148 0.82852685 -0.68022466 -1.4986837
0.5269239 -0.5357763 -0.6522503 0.8128237 0.21987528 0.46778202 0.34842232 -0.13791317
0.32313952 0.4470683 0.11381608 -0.0556314 0.39954817 -0.37539375 0.19058211 -0.7361363
0.6767326 -1.2654387 0.6157068 1.2961671 0.5429136 -0.96757776 -2.057284 -2.2334878
00000000: d239 f73e e4ac bd3d 9972 5ebf b309 343e
00000010: dc87 81bf a8dc 783d 0d03 abbe 47d7 06c0
00000020: 5ca7 8bbe 0b8b e0be 5132 d5be 385e 66be
00000030: 7cfb 0fbe 17a2 67bc 497f 8cbe 819c 443c
00000040: be39 cfbd 0d67 be3c e723 eb3c ddc5 f0bd
00000050: 6d17 293e 1729 633d e890 e0bd 4ed7 0abd
00000060: f410 f63e 3fd1 03be db82 b9be d546 6bbd
00000070: e605 6ebe b741 8f3e 56ca 61bf 62cc a83e
00000080: c866 263f d681 97bd 1f50 693f 838b b83e
00000090: 3558 42be d73d 90bc e2b9 e73e 9e83 d63e
000000a0: 9916 c9bf caa8 9a3e 5780 853f 9435 05bf
000000b0: f626 8ebf ad2f d3bd 3a5b e1be bf9d 55bd
000000c0: 0e9a b1bd 270a 443d a302 85be 096e 2f3e
000000d0: 7e3b 8d3d c514 193e bc71 3a3d 1187 a2be
000000e0: b324 30c0 9d07 40be 26c5 df3f 5106 573f
000000f0: 2e56 7abf 4538 a13e d443 42bf f8ed a73f
00000100: e53b b3bd db82 92be 9cfd 1ebf 8ff4 fd3e
00000110: 9643 e0bd 5356 423e ac64 d33e bb25 c4be
00000120: 5a9f 4a3f ab13 223e 0dd8 873f 229f 6ebf
00000130: a3f6 ba3c 3308 c53f 771c 023d 9baa 28bf
00000140: 03a1 fbbe 2ac1 ca3e 9e2f 94be 6fca b2be
00000150: 743a 143e af73 f13e 6161 4e3f 4786 ad3e
00000160: 1cee 01bf 39d2 9fbb 54e2 27be 627c f5be
00000170: 20d8 013a f819 8a3e c6da 0a3f 4713 f3be
00000180: c247 813f c631 5fbf c631 b03f bcf7 c43e
00000190: 1832 58bd 561a 543f 3423 2ebf ded4 bfbf
000001a0: 7ce4 063f a328 09bf e0f9 26bf 3715 503f
000001b0: fc26 613e 2081 ef3e 6964 b23e 1c39 0dbe
000001c0: 8b72 a53e 23e6 e43e 6818 e93d c0dd 63bd
000001d0: 9491 cc3e 9c33 c0be f527 433e 6e73 3cbf
000001e0: 593e 2d3f e5f9 a1bf f69e 1d3f cee8 a53f
000001f0: 63fc 0a3f 2db3 77bf 8baa 03c0 77f1 0ec0

onnx::Conv_1373 f4 [16]
1.9937915 1.3996043 0.8350793 0.30018485 -1.3389933 0.5659542 0.64439666 -1.9204111
0.9728118 -1.3315755 0.16615143 0.59080726 -1.5587864 0.09984642 0.1963102 0.28176707
00000000: 8f34 ff3f 3c26 b33f c2c7 553f d4b1 993e
00000010: 2264 abbf 60e2 103f 2ef7 243f 08d0 f5bf
00000020: 320a 793f 1171 aabf 9a23 2a3e 253f 173f
00000030: 5086 c7bf 487c cc3d 8b05 493e c643 903e

onnx::Conv_1375 f4 [16, 1, 3, 3]
-0.024822893 0.075002864 -0.31579548 -0.017391486 -0.12686239 -0.63637143 0.16079646 -0.0042194496
-0.8473068 0.6080903 -0.5957241 -1.0610064 -0.63441306 0.81343687 0.10256249 -0.55000883
0.79707456 3.886194 1.3711216 0.10220087 0.79204184 -2.514879 -7.618014 1.151108
4.085973 0.87536603 -0.40745544 -0.46980584 1.2760555 -0.9562285 -0.674251 -0.21930067
-0.122730836 5.44041 1.7528251 2.4708023 -1.641061 -2.5530298 0.34139404 0.18691579
-1.3911952 3.1744776 4.212001 1.737234 -3.691693 -0.091448955 0.12881684 -0.10324033
-0.586771 0.2260712 -0.1562018 -1.0081087 0.13006762 -0.24341062 -0.1918353 -0.21613188
0.11913147 0.7055366 -0.2374986 0.17395951 1.1399349 -3.2603629 0.44329196 -0.007512917
-0.0107134525 0.008367825 0.15559359 0.24768472 0.25095287 0.1713128 0.9133794 -0.19183646
-0.16548158 0.12526193 -0.09809337 0.29790562 0.6368516 0.101337664 0.47741476 0.71662384
-0.10682508 0.035221722 0.088560514 -0.36948192 0.052828614 0.32003096 -0.5647475 0.11421586
0.6773442 -1.0515918 -0.49281195 -0.66027886 1.2257918 0.55426335 -1.8840253 0.4839101
-0.10702297 1.3911874 -2.5443234 0.25663397 0.30543274 -0.21167704 0.2776656 -0.54065907
-0.16693778 0.28045532 -2.8834083 1.0537049 0.44166887 -0.19139425 -0.32459185 0.47834912
-0.37521565 0.1186287 0.8347279 -0.30199438 0.2173854 0.044040337 0.08043944 0.12098705
-0.12860346 0.71842945 -0.19146854 -0.67953914 1.6404746 -0.43919966 0.08915663 0.010472062
-0.12512067 -0.112798095 -0.3199605 0.29519004 0.081104085 -0.06741061 1.0448763 -0.12611891
0.033906065 -0.034447156 -0.012411157 -0.09485258 0.06777719 -0.5620071 -0.10502964 0.08233795
00000000: 6159 cbbc 1a9b 993d f2af a1be 9778 8ebc
00000010: 37e8 01be 3de9 22bf d4a7 243e 4f43 8abb
00000020: 19e9 58bf ceab 1b3f 6081 18bf 0fcf 87bf
00000030: e568 22bf 663d 503f 480c d23d 61cd 0cbf
00000040: 140d 4c3f 67b7 7840 ea80 af3f b14e d13d
00000050: 41c3 4a3f c7f3 20c0 c5c6 f3c0 8257 933f
00000060: 4ac0 8240 fd17 603f 009e d0be 648a f0be
00000070: c955 a33f 64cb 74bf b79b 2cbf 5b90 60be
00000080: 4e5a fbbd d717 ae40 935c e03f a021 1e40
00000090: 490e d2bf d764 23c0 33cb ae3e da66 3f3e
000000a0: af12 b2bf a42a 4b40 b6c8 8640 af5d de3f
000000b0: b344 6cc0 9749 bbbd 90e8 033e ab6f d3bd
000000c0: a036 16bf 357f 673e 5df3 1fbe b509 81bf
000000d0: 7230 053e a240 79be 7970 44be ad51 5dbe
000000e0: 33fb f33d 0c9e 343f d532 73be 7122 323e
000000f0: 63e9 913f c9a9 50c0 2af7 e23e ea2e f6bb
00000100: 7a87 2fbc 3419 093c ed53 1f3e 10a1 7d3e
00000110: e57c 803e 9f6c 2f3e 3bd3 693f c770 44be
00000120: 0174 29be aa44 003e 2de5 c8bd 1687 983e
00000130: b508 233f 1f8a cf3d b56f f43e a974 373f
00000140: 1cc7 dabd a744 103d 375f b53d bc2c bdbe
00000150: d162 583d 19db a33e 4b93 10bf 01ea e93d
00000160: 6e66 2d3f 8f9a 86bf d951 fcbe 0908 29bf
00000170: bfe6 9c3f 34e4 0d3f be27 f1bf 11c3 f73e
00000180: dc2e dbbd 6e12 b23f 32d6 22c0 8765 833e
00000190: ae61 9c3e dec1 58be 2f2a 8e3e a268 0abf
000001a0: bdf1 2abe d797 8f3e c389 38c0 cddf 863f
000001b0: 6c22 e23e dbfc 43be e730 a6be 2dea f43e
000001c0: 441c c0be 9bf3 f23d bab0 553f 029f 9abe
000001d0: 479a 5e3e a463 343d 6fbd a43d 0fc8 f73d
000001e0: a0b0 03be feea 373f 5410 44be 47f6 2dbf
000001f0: 12fb d13f c7de e0be c097 b63d 0393 2b3c
00000200: a21f 00be b002 e7bd ddd1 a3be 2623 973e
00000210: e619 a63d 930e 8abd 82be 853f 5125 01be
00000220: 16e1 0a3d 7618 0dbd 2a58 4bbc 1242 c2bd
00000230: c4ce 8a3d b3df 0fbf c819 d7bd cda0 a83d

onnx::Conv_1376 f4 [16]
0.9592701 -2.4426255 2.056415 0.30838296 -0.29469904 1.1000662 1.7781599 -1.3143986
-1.529877 0.23203748 0.7989078 0.58977354 -0.15521526 -0.41746333 0.48837912 1.1102684
00000000: ba92 753f fa53 1cc0 4e9c 0340 5fe4 9d3e
00000010: cbe2 96be f8ce 8c3f be9a e33f 373e a8bf
00000020: 02d3 c3bf 3c9b 6d3e 3985 4c3f 66fb 163f
00000030: c0f0 1ebe c1bd d5be d40c fa3e 461d 8e3f

onnx::Conv_1378 f4 [8, 16, 1, 1]
0.58654016 -0.014688386 0.03426654 0.87909955 -0.28504267 -0.15012532 -0.11050233 0.037817113
0.09741658 -0.03984871 -0.7237308 -0.5218713 0.056596637 0.19687559 -0.005628754 -0.14848761
-0.100822665 0.15878274 0.34914905 0.020903086 0.14181024 -0.16606595 -0.11327811 0.34405446
-0.22769822 -0.1486803 -0.3052417 0.055651754 0.50878394 0.16508096 0.28510806 0.24161476
-0.24974875 0.087985985 -0.28813294 0.06588305 0.109031945 0.3374899 -0.2877751 0.19631755
0.155888 0.27647942 0.26488087 0.10154787 0.23378745 -0.10052106 0.024816098 -0.44257206
-0.093201 -0.5067551 -0.17422004 -0.070540786 -0.14165726 0.41220275 -0.43447974 0.060216002
0.3933283 0.4003458 0.36018497 -0.64410007 0.22448109 -0.25918832 0.46096542 -0.50447947
-0.076671906 -0.44730103 -0.23916881 -0.20388153 -0.2723667 0.2810278 -0.35775873 0.70067424
0.08768928 0.038193606 -0.11912037 0.16669014 0.17304276 0.111177154 -0.07140618 0.12703417
0.6094641 0.49740773 -0.21588019 0.16761358 -0.21242836 0.1558619 0.07289186 0.047867294
0.28829142 0.19357984 0.05423075 -0.36779326 -0.45940617 -0.17818998 -0.23349671 -0.002817839
-0.2795016 -0.033748765 -0.2636694 0.14171723 -0.0934657 0.13146201 -0.38121966 0.4643658
0.011236213 0.12601098 0.003507816 0.18210624 0.110274106 0.40557313 -0.24380738 0.1581525
-0.020500313 -0.027785758 -0.21986493 -0.22929628 0.030931715 0.0028597934 -0.56646794 -0.18038195
0.25135627 0.012634816 0.028894098 0.03787509 -0.051249154 0.2922016 0.27923778 -0.3695935
00000000: 7f27 163f 8ea7 70bc 125b 0c3d ab0c 613f
00000010: 1df1 91be 74ba 19be 0c4f e2bd 1ee6 1a3d
00000020: 5882 c73d 6738 23bd 6c46 39bf 5c99 05bf
00000030: e0d1 673d c199 493e 6971 b8bb 230d 18be
00000040: 1d7c cebd f197 223e aac3 b23e f33c ab3c
00000050: b436 113e 310d 2abe 5bfe e7bd e827 b03e
00000060: b929 69be a63f 18be a448 9cbe 18f3 633d
00000070: aa3f 023f fc0a 293e aff9 913e dc69 773e
00000080: 23be 7fbe ff31 b43d 2986 93be b1ed 863d
00000090: 244c df3d 7acb ac3e 4257 93be 7807 493e
000000a0: 1ba1 1f3e b68e 8d3e 779e 873e 54f8 cf3d
000000b0: fa65 6f3e fcdd cdbd 214b cb3c ce98 e2be
000000c0: 2ae0 bebd b4ba 01bf bd66 32be b077 90bd
000000d0: 9a0e 11be 3d0c d33e 2174 debe 0ea5 763d
000000e0: 5462 c93e 20fa cc3e 2a6a b83e bee3 24bf
000000f0: 5fde 653e 55b4 84be a903 ec3e 9125 01bf
00000100: 2906 9dbd a404 e5be abe8 74be 52c6 50be
00000110: a673 8bbe e0e2 8f3e 272c b7be 635f 333f
00000120: 7096 b33d e670 1c3d 61f5 f3bd d2b0 2a3e
00000130: 1f32 313e d9b0 e33d 673d 92bd 3f15 023e
00000140: d705 1c3f 3aac fe3e b20f 5dbe e5a2 2b3e
00000150: d286 59be 439a 1f3e 5448 953d 7f10 443d
00000160: ef9a 933e cb39 463e 1021 5e3d 664f bcbe
00000170: 4937 ebbe 6f77 36be c319 6fbe 7eab 38bb
00000180: d51a 8fbe 253c 0abd adff 86be 521e 113e
00000190: f26a bfbd fa9d 063e 392f c3be 5bc1 ed3e
000001a0: 1818 383c 0609 013e 63e3 653b 0f7a 3a3e
000001b0: 64d7 e13d 48a7 cf3e a4a8 79be bbf2 213e
000001c0: 46f0 a7bc f59e e3bc 4624 61be a5cc 6abe
000001d0: 8264 fd3c 5f6b 3b3b 0b04 11bf 0cb6 38be
000001e0: c5b1 803e 4202 4f3c 51b3 ec3c e922 1b3d
000001f0: a2ea 51bd 739b 953e 41f8 8e3e 5c3b bdbe

onnx::Conv_1379 f4 [8]
-0.38920626 -0.61619663 0.4271267 0.27431116 0.024203941 -0.7903644 -0.016173214 0.82421494
00000000: 0b46 c7be 10bf 1dbf 5ab0 da3e 8372 8c3e
00000010: 5847 c63c 5255 4abf b07d 84bc c0ff 523f

onnx::Conv_1381 f4 [16, 8, 1, 1]
-0.20645311 -0.56001586 0.41218522 1.5233747 0.0016884245 0.07480979 -0.33867508 -0.17474727
0.24610682 0.37128437 -0.67790526 -0.30486336 0.19557549 -0.2897976 -0.21580887 0.068679914
0.6122285 -0.20938937 0.036416356 -0.1976068 0.17710705 0.0033573147 0.38508558 0.43723035
0.41244465 -0.14611259 0.69101655 0.5420394 1.0423768 0.32192805 -0.06927887 0.44839102
-0.32871908 1.00214 0.42927435 0.18937716 0.7879741 0.328205 -0.2484717 0.41807857
0.28075933 -0.340527 0.16377647 0.3441501 -0.045236662 -0.08385189 -0.24722508 0.12597069
-0.15652542 -0.06654788 -0.28846708 -0.42182556 0.7006143 -0.1872577 0.29682612 0.12177479
0.09232524 -0.09533899 -0.032743763 -0.45660612 -0.15576738 0.01339499 -0.16182618 0.1726662
0.20354395 -0.6836012 0.10977652 -0.23162122 -1.1983147 0.1366456 -0.61310846 0.19042799
-0.175429 -0.5736669 0.28843954 -0.2152798 -0.30640814 0.06419204 0.13475253 0.5849608
-0.1941356 -0.68972164 -0.08157665 0.06439983 -0.782435 0.8167441 0.2241727 0.032389387
0.14305748 0.019875314 -0.27215263 0.35235268 0.09980746 -0.49991423 -0.11834773 0.15825167
0.09486242 0.31085464 -0.4530633 0.19023508 0.326661 -0.6986754 -0.48964587 -0.0685484
-0.01069071 -0.05197341 0.43688273 0.31296006 0.56405 0.050617542 -0.05333991 0.17942926
-0.012842316 0.008342627 -0.16443971 -0.01963403 -0.22786337 -0.0063925465 0.066943936 7.563906e-05
-0.06568942 0.6967974 0.4152237 0.0319776 -0.8125929 0.009261717 0.1217496 -0.27522954
00000000: 7268 53be 335d 0fbf f109 d33e f1fd c23f
00000010: 204e dd3a e035 993d d266 adbe f3f0 32be
00000020: 6d03 7c3e fc18 be3e 338b 2dbf 0d17 9cbe
00000030: f144 483e 5a60 94be 00fd 5cbe 0ea8 8c3d
00000040: 02bb 1c3f 2b6a 56be 5129 153d 7059 4abe
00000050: 8d5b 353e 6506 5c3b f029 c53e a8dc df3e
00000060: f22b d33e 8a9e 15be 76e6 303f 18c3 0a3f
00000070: 9a6c 853f c1d3 a43e 15e2 8dbd 8293 e53e
00000080: de4d a8be 2046 803f d9c9 db3e 16ec 413e
00000090: acb8 493f 7c0a a83e 5e6f 7ebe 650e d63e
000000a0: b0bf 8f3e 8e59 aebe 05b5 273e 7134 b03e
000000b0: 144a 39bd 8aba abbd 9228 7dbe 76fe 003e
000000c0: 3348 20be 414a 88bd f5b1 93be 85f9 d7be
000000d0: 755b 333f 7cc0 3fbe 98f9 973e 1065 f93d
000000e0: 0415 bd3d 1741 c3bd 531e 06bd 47c8 e9be
000000f0: 7c81 1fbe a976 5b3c c3b5 25be 69cf 303e
00000100: d36d 503e 7d00 2fbf 83d2 e03d 1d2e 6dbe
00000110: 6062 99bf d3ec 0b3e adf4 1cbf 8eff 423e
00000120: a9a3 33be d5db 12bf 59ae 933e 4f72 5cbe
00000130: 87e1 9cbe 1e77 833d 91fc 093e febf 153f
00000140: 7ccb 46be 9991 30bf a911 a7bd 0fe4 833d
00000150: a94d 48bf 2416 513f 878d 653e bcaa 043d
00000160: a97d 123e 8ed1 a23c 9757 8bbe 9267 b43e
00000170: db67 cc3d c2f4 ffbe 4b60 f2bd ba0c 223e
00000180: 3a47 c23d 5728 9f3e eaf7 e7be fccc 423e
00000190: 1c40 a73e 64dc 32bf ddb2 fabe 1b63 8cbd
000001a0: 1628 2fbc 12e2 54bd 18af df3e 4d3c a03e
000001b0: 9565 103f 5754 4f3d f37a 5abd 4ebc 373e
000001c0: 9468 52bc 84af 083c e262 28be 8cd7 a0bc
000001d0: 0455 69be 9178 d1bb e719 893d 69a0 9e38
000001e0: 2d88 86bd 5061 323f 3398 d43e f2fa 023d
000001f0: 1706 50bf 75be 173c db57 f93d e3ea 8cbe

onnx::Conv_1382 f4 [16]
-1.4481899 0.5715404 -0.5275931 -1.516861 -1.1890088 -0.8051311 0.93187726 0.93358004
0.0073094815 0.34642088 -0.06255895 0.28003868 0.47417104 -0.031908512 0.85782164 0.5891767
00000000: 495e b9bf 7950 123f 5710 07bf 8028 c2bf
00000010: 7131 98bf 121d 4ebf 828f 6e3f 1aff 6e3f
00000020: 6084 ef3b 145e b13e e81e 80bd 3b61 8f3e
00000030: 8cc6 f23e 80b2 02bd 339a 5b3f 49d4 163f

onnx::Conv_1384 f4 [16, 1, 3, 3]
-0.021062827 0.10088848 0.17355442 -1.2209496 0.12496407 0.49566004 1.5015833 0.2589885
-0.24593031 -0.36379722 -0.19332464 0.6498023 -0.32597184 0.73921615 0.38598815 -0.9100047
-0.4170412 -1.1862816 -0.28592208 -0.33150595 0.30129534 0.07986011 -0.008672231 0.006637174
0.48888743 1.37063 0.90215945 0.10941939 -0.43477333 0.19210127 0.1587638 0.5427621
0.091665454 0.17587681 0.4868629 -0.1018464 -0.22887418 0.11656606 -0.07472565 -0.1038339
-0.21143718 -0.13144821 0.67837656 0.4717508 1.0162894 1.3556377 1.0601085 -0.33506486
0.12392423 -0.25398603 -0.4388579 0.81891054 1.4676142 0.12993987 -0.2707577 -0.13169268
0.14223997 0.047453243 0.1109106 -0.10390931 0.8519187 0.7410623 0.12721741 1.067237
0.09464254 0.8355305 -0.7538508 0.099749185 -0.17278796 -2.914373 -0.7969426 -1.5347816
0.17251694 0.041247632 -0.09698374 0.32472545 -0.109878175 -0.24420041 0.091410905 0.3462248
1.037548 0.2341012 -0.10975206 -0.3026564 0.71346766 -0.28575858 0.02877036 0.6619935
-0.5041987 -0.28524157 -0.070760995 -0.08224412 -0.005032995 0.047364533 0.38987654 0.18676148
0.05060149 0.75707257 0.07387661 -0.5623884 -0.31120366 -1.0807663 -0.46816984 -0.7662407
-1.0047492 0.6815414 0.7321488 1.6004263 0.6154329 0.24062116 1.485628 -0.37897515
-0.63437027 -3.466986 -0.9530024 1.6230971 1.7305423 0.41977277 -0.006287495 0.050258968
0.5073692 -0.20057665 0.52511054 1.334608 -0.03579427 -0.08239101 0.33030665 -0.09584318
-0.1948464 0.24174938 -2.083227 -0.9046989 1.5924283 -0.369896 -3.6545296 0.068303466
0.44221735 -0.11035102 0.18196106 0.13751446 -0.4789841 0.018165158 0.4763785 -1.3242475
00000000: f38b acbc 9f9e ce3d 40b8 313e 1448 9cbf
00000010: 2aed ff3d 27c7 fd3e e233 c03f 249a 843e
00000020: 28d5 7bbe a143 babe e5f6 45be 7259 263f
00000030: c8e5 a6be 453d 3d3f 3da0 c53e 11f6 68bf
00000040: 6d86 d5be 13d8 97bf 6164 92be 26bb a9be
00000050: 6243 9a3e b38d a33d f915 0ebc a77c d93b
00000060: 744f fa3e ce70 af3f ecf3 663f 4617 e03d
00000070: 9c9a debe 32b6 443e fa92 223e 75f2 0a3f
00000080: 19bb bb3d 0d19 343e 1846 f93e d894 d0bd
00000090: fe5d 6abe 30ba ee3d c309 99bd dea6 d4bd
000000a0: fd82 58be 5c9a 06be 16aa 2d3f 5289 f13e
000000b0: c515 823f 8985 ad3f a3b1 873f 9f8d abbe
000000c0: fdcb fd3d 750a 82be fcb1 e0be 1fa4 513f
000000d0: c8da bb3f f50e 053e c1a0 8abe 72da 06be
000000e0: 5ba7 113e 555e 423d 1925 e33d 68ce d4bd
000000f0: 5817 5a3f 42b6 3d3f 4845 023e 399b 883f
00000100: f3d3 c13d 54e5 553f 5efc 40bf 4d49 cc3d
00000110: 54ef 30be 1685 3ac0 6e04 4cbf b973 c4bf
00000120: 48a8 303e 47f3 283d 699f c6bd 6a42 a63e
00000130: cf07 e1bd ac0f 7abe a435 bb3d 6144 b13e
00000140: 5fce 843f 3ab8 6f3e b0c5 e0bd c8f5 9abe
00000150: d1a5 363f f34e 92be d1af eb3c 6878 293f
00000160: 2a13 01bf 2f0b 92be 24eb 90bd 9b6f a8bd
00000170: d2eb a4bb 5001 423d e69d c73e 673e 3f3e
00000180: 8243 4f3d 82cf 413f 9f4c 973d b0f8 0fbf
00000190: 1656 9fbe 8d56 8abf f5b3 efbe 5a28 44bf
000001a0: 9f9b 80bf 7f79 2e3f 1b6e 3b3f c5da cc3f
000001b0: 038d 1d3f 6565 763e 0f29 be3f 0809 c2be
000001c0: 1766 22bf 19e3 5dc0 f7f7 73bf a5c1 cf3f
000001d0: 6982 dd3f 75ec d63e 5507 cebb 59dc 4d3d
000001e0: f3e2 013f f763 4dbe a56d 063f 6fd4 aa3f
000001f0: 039d 12bd 9ebc a8bd f41d a93e 6e49 c4bd
00000200: d185 47be 268d 773e 9753 05c0 599a 67bf
00000210: b1d4 cb3f 0263 bdbe d0e3 69c0 b0e2 8b3d
00000220: 506a e23e b7ff e1bd 0054 3a3e 97d0 0c3e
00000230: 673d f5be 19cf 943c e2e7 f33e f180 a9bf

onnx::Conv_1385 f4 [16]
-0.95679486 1.2813365 0.09605059 -0.5275491 -0.076979965 0.43613 -0.027997673 2.570232
-0.587236 0.003210619 0.21092063 1.531371 -0.49896702 -1.3582339 4.7733912 0.37254405
00000000: 82f0 74bf d602 a43f 2cb6 c43d 750d 07bf
00000010: aca7 9dbd 6e4c df3e 605b e5bc ae7e 2440
00000020: 1955 16bf 4069 523b 94fb 573e f703 c43f
00000030: 9b78 ffbe 9cda adbf 9fbf 9840 18be be3e

onnx::Conv_1387 f4 [8, 16, 1, 1]
-0.23851773 -0.3805299 -0.017803691 0.10344891 -0.16832162 0.28774625 -0.037081927 0.2692322
0.20342092 0.21166527 0.04309109 0.43363625 -0.18928897 -0.12419296 0.42040402 0.2976385
-0.16525455 0.15554255 0.036845934 0.025371937 -0.36366606 0.236184 -0.08178238 -0.24960624
-0.07632349 0.024051055 -0.0035180997 0.15603122 0.112921596 0.57673824 -0.370373 -0.12172379
0.11306042 0.070465125 -0.03472973 0.037703965 0.31844032 -0.18845886 0.1525505 -0.12088239
0.07534231 0.27753907 -0.18773803 0.2668202 0.034299918 0.10203372 0.02420974 0.22998692
0.31721488 0.0840299 0.26623133 -0.47538316 0.10718826 -0.083989695 -0.4760419 -0.28362703
0.17496827 -0.1451878 -0.09622032 0.041606415 0.19420454 -0.29679027 0.1427601 -0.19613685
0.3889012 0.10697385 0.09136592 0.2102406 0.18004726 -0.15069573 -0.013736021 0.35880354
-0.34190527 -0.2785294 0.009968587 0.00073035725 0.22602363 0.03323464 0.29066575 -0.01689989
0.24824475 -0.43205902 0.0418405 0.10277036 0.31331548 0.15972368 0.07311143 -0.07829748
0.4367425 0.05124409 -0.51364625 0.13181989 0.39831758 0.56207037 -0.2226787 -0.23316777
-0.2811592 0.09337612 0.083214544 -0.28522906 -0.18885697 0.20072432 -0.11994693 0.14203195
0.00231921 0.09136171 -0.3480217 -0.4274477 -0.33920494 0.02860349 -0.055395696 0.07987822
0.04340746 -0.088191465 -0.045260802 0.15769269 -0.011040288 0.3401405 0.10646394 -0.1347076
0.26177222 0.13241397 0.18969905 -0.3013581 0.009797268 0.013098214 0.013600607 -0.04432444
00000000: fe3d 74be d1d4 c2be 0cd9 91bc 06dd d33d
00000010: 815c 2cbe 7a53 933e 38e3 17bd ced8 893e
00000020: 934d 503e c8be 583e 4880 303d 9205 de3e
00000030: f8d4 41be e158 febd 323f d73e 1364 983e
00000040: 7d38 29be 8c46 1f3e c3eb 163d cfd8 cf3c
00000050: 7032 babe 38da 713e 857d a7bd c798 7fbe
00000060: 7d4f 9cbd b806 c53c eb8f 66bb a6c6 1f3e
00000070: 7043 e73d 1ea5 133f 88a1 bdbe 534a f9bd
00000080: 398c e73d 0550 903d c340 0ebd 796f 1a3d
00000090: 9c0a a33e 5cfb 40be 3336 1c3e 3091 f7bd
000000a0: 124d 9a3d 9a19 8e3e 663e 40be a89c 883e
000000b0: 127e 0c3d 0ef7 d03d 8153 c63c b181 6b3e
000000c0: fd69 a23e de17 ac3d 794f 883e 6c65 f3be
000000d0: 8585 db3d ca02 acbd c4bb f3be 9037 91be
000000e0: e22a 333e 1cac 14be 290f c5bd 7d6b 2a3d
000000f0: 8edd 463e e5f4 97be b42f 123e 19d8 48be
00000100: 0f1e c73e 1b15 db3d 0e1e bb3d 5049 573e
00000110: 4f5e 383e fb4f 1abe 0c0d 61bc 19b5 b73e
00000120: 350e afbe 689b 8ebe 4953 233c 7275 3f3a
00000130: bd72 673e 0c21 083d 24d2 943e a371 8abc
00000140: df33 7e3e d736 ddbe f260 2b3d 4479 d23d
00000150: e36a a03e 9b8e 233e 72bb 953d 6e5a a0bd
00000160: b79c df3e 53e5 513d 527e 03bf cbfb 063e
00000170: 48f0 cb3e d8e3 0f3f e305 64be 88c3 6ebe
00000180: 19f4 8fbe fb3b bf3d 636c aa3d 8b09 92be
00000190: b963 41be ad8a 4d3e bca6 f5bd d370 113e
000001a0: e3fd 173b d91b bb3d e62f b2be 6dda dabe
000001b0: 45ac adbe de51 ea3c 99e6 62bd 3197 a33d
000001c0: 05cc 313d ba9d b4bd 6463 39bd 317a 213e
000001d0: 53e2 34bc e526 ae3e c409 da3d caf0 09be
000001e0: 0207 863e 8797 073e 7840 423e 9c4b 9abe
000001f0: b884 203c e499 563c 15d5 5e3c 8b8d 35bd

onnx::Conv_1388 f4 [8]
-0.7118154 0.2445008 -0.5094928 0.66295266 -0.6338702 -0.7589944 1.4019265 0.06963801
00000000: 8939 36bf 6b5e 7a3e 1f6e 02bf 44b7 293f
00000010: 5145 22bf 754d 42bf 5472 b33f 5f9e 8e3d

onnx::Conv_1390 f4 [16, 8, 1, 1]
-0.102631375 0.012840934 -0.8665233 -0.23503871 0.26809844 0.6080479 0.14890465 -0.35564363
0.14388274 0.01193568 0.1800052 0.13833079 -0.0048623644 -0.15537195 0.29845995 0.21796459
0.17376977 0.23002084 0.26566914 0.04029998 0.41596103 -0.2637287 -0.18516931 0.9333541
-0.8963133 -0.86722606 -0.3667258 -0.8455492 0.8524095 -0.932857 0.20694569 0.48063925
-1.4504129 0.82901 0.924732 0.30100697 2.3019245 -0.73975676 0.5985499 -0.34042472
0.3158156 0.023917582 0.17505085 0.8020689 -0.27764952 -0.038963873 0.05566329 0.30677634
0.22097315 -0.7209038 -0.48285723 -0.33211648 -0.17318067 -0.267667 0.8814465 0.05998874
-0.1635654 0.3628203 -0.26353222 -0.106048666 -0.20657593 -0.15099789 0.2659045 -0.18972006
0.10763813 -0.701097 0.8925586 -0.32224953 -0.03141201 1.0402552 -0.3223231 -0.13715683
0.2127395 -0.21850975 0.22228445 0.6676095 -0.1373552 -0.19477634 0.35049948 0.53988564
-0.13637228 -0.42929798 -0.6071366 -0.031158257 0.24987976 -0.39738446 -0.5416627 0.1764879
0.7800589 0.17101713 0.46609524 -0.15061626 0.35632303 -0.08136557 0.2785965 -0.20617706
-0.60004544 0.5286941 -0.5310424 -0.1802221 -0.39935905 -0.17344812 -0.9606673 -0.17449845
-0.7527574 -0.30831265 0.17807612 0.05759502 -0.1272829 -0.2551603 0.13383953 0.034069885
0.2993493 0.47256702 0.6877251 -0.033875357 -1.4873097 1.4307659 0.36781916 0.79949373
-0.011191542 -0.4794027 0.23886497 -0.7173741 -0.037158597 -0.49882755 0.22411259 0.84269524
00000000: 6630 d2bd c862 523c 79d4 5dbf fdad 70be
00000010: 3344 893e 07a9 1b3f 767a 183e ec16 b6be
00000020: ff55 133e df8d 433c 4853 383e 96a6 0d3e
00000030: 7854 9fbb d319 1fbe becf 983e 1c32 5f3e
00000040: b4f0 313e 958a 6b3e c905 883e 9811 253d
00000050: d8f8 d43e 7307 87be 069d 3dbe 4bf0 6e3f
00000060: ca74 65bf 8702 5ebf 7cc3 bbbe ea75 58bf
00000070: 8237 5a3f b7cf 6ebf 92e9 533e 5916 f63e
00000080: 21a7 b9bf 003a 543f 3dbb 6c3f 961d 9a3e
00000090: bb52 1340 b360 3dbf 913a 193f 264c aebe
000000a0: 95b2 a13e ceee c33c 8840 333e 6354 4d3f
000000b0: 1428 8ebe 9598 1fbd 31ff 633d ca11 9d3e
000000c0: c946 623e 278d 38bf 1039 f7be 2c0b aabe
000000d0: 4656 31be a60b 89be 7aa6 613f c1b6 753d
000000e0: b07d 27be 95c3 b93e b2ed 86be 0b30 d9bd
000000f0: a488 53be 319f 1abe a224 883e fa45 42be
00000100: 6171 dc3d 187b 33bf b87e 643f e4fd a4be
00000110: e1a9 00bd 1527 853f 8907 a5be d772 0cbe
00000120: 62d8 593e 05c1 5fbe 899e 633e 75e8 2a3f
00000130: d7a6 0cbe 7373 47be ab74 b33e f235 0a3f
00000140: 2da5 0bbe f2cc dbbe 4e6d 1bbf 9a3f ffbc
00000150: 7be0 7f3e fa75 cbbe 68aa 0abf 3eb9 343e
00000160: f1b1 473f 1d1f 2f3e 09a4 ee3e 263b 1abe
00000170: f96f b63e fea2 a6bd 33a4 8e3e 1420 53be
00000180: 949c 19bf 7f58 073f 65f2 07bf 248c 38be
00000190: ca78 ccbe 629c 31be 4bee 75bf b9af 32be
000001a0: b5b4 40bf 28db 9dbe 9659 363e c1e8 6b3d
000001b0: 7356 02be 5fa4 82be 3b0d 093e dd8c 0b3d
000001c0: 5044 993e 4ef4 f13e c10e 303f e3c0 0abd
000001d0: 2a60 bebf 5623 b73f cb52 bc3e 9fab 4c3f
000001e0: bb5c 37bc 4574 f5be 0599 743e d4a5 37bf
000001f0: 9d33 18bd 5366 ffbe c57d 653e e0ba 573f

onnx::Conv_1391 f4 [16]
0.8271884 0.55165166 -0.9669924 -0.5108645 -0.47371092 -0.74126863 -0.5099143 0.7759892
0.4527471 -0.82222927 0.33610347 -0.38860118 0.510407 -0.5785351 0.13342696 -1.2214246
00000000: 9ec2 533f 0b39 0d3f d08c 77bf 04c8 02bf
00000010: 3d8a f2be c8c3 3dbf be89 02bf 3aa7 463f
00000020: 78ce e73e 9e7d 52bf c115 ac3e bcf6 c6be
00000030: 08aa 023f e01a 14bf 14a1 083e a457 9cbf

onnx::Conv_1393 f4 [16, 1, 3, 3]
-0.16626714 -0.13057728 -0.22994734 -0.0068142596 0.06729978 -0.37536332 -0.8368934 -0.71729076
-1.2118821 2.032387 1.4546405 1.2842149 0.46327338 0.30371487 -0.22938995 -2.7403028
-0.58587116 -0.7313635 -0.17541869 -1.1261599 0.25542215 -0.386188 -0.26904637 0.3405721
-0.08857886 -0.9745662 1.0205778 0.24008447 0.11099307 -0.07256349 0.17439304 0.020223722
-0.0027032949 0.5469061 -0.09962888 0.46863535 -0.052957986 -0.10987119 -0.057557303 -0.14802018
-0.09516203 -0.09232882 -0.180179 -0.17697763 -0.24762066 0.9272678 0.88985205 2.187371
-1.2168971 -0.20122075 0.048408028 2.9301002 2.2179592 4.110531 0.30935594 -0.04610828
0.17220007 0.6079802 0.07637348 0.1321938 1.2423583 0.17655823 1.168197 0.01656827
0.19732338 -0.2002183 0.060948636 0.07768097 -0.05944597 1.6752855 0.40651968 0.21001342
0.11847874 0.017615445 0.19252667 -0.17232172 0.17033465 0.111817375 0.33504817 0.258414
0.48053718 -2.0754588 -0.5194139 -0.45909467 2.1140714 1.7479535 3.3270025 -0.793988
-2.1259625 -0.59357184 0.020464197 -0.0863017 0.03428687 -0.7008531 -0.23418629 -0.035271183
-0.9532782 -0.24961959 0.18001974 -1.8501452 -0.39571443 -0.47432813 -0.03362158 -0.047719024
0.18387964 -0.43991047 0.23592374 0.45712453 0.14618134 0.22971171 0.10216342 0.15073928
0.1362211 0.094722986 0.39036754 0.13468547 0.18949036 0.32470927 -0.024817666 0.51668173
0.31046227 0.16439533 0.5961508 0.95014733 0.88143116 1.5743843 0.14500177 0.19756275
0.24208263 -0.3270488 -0.036893025 -0.14631638 0.58552176 0.4190602 0.5387676 -0.5616231
1.0115365 -0.7075142 0.42176315 1.2972482 0.05523392 -0.030038845 1.8280381 -2.2141628
00000000: ef41 2abe 0db6 05be 5177 6bbe 274a dfbb
00000010: 78d4 893d 9f2f c0be a53e 56bf 5ea0 37bf
00000020: f41e 9bbf a112 0240 a931 ba3f 2761 a43f
00000030: 2b32 ed3e 8480 9b3e 33e5 6abe 1f61 2fc0
00000040: a7fb 15bf a33a 3bbf f5a0 33be 0226 90bf
00000050: b1c6 823e 6fba c5be 72c0 89be 775f ae3e
00000060: d568 b5bd 2c7d 79bf 4ba2 823f b4d8 753e
00000070: 5650 e33d 2b9c 94bd 1794 323e 38ac a53c
00000080: c329 31bb 0a02 0c3f 3a0a ccbd f9f0 ef3e
00000090: 79ea 58bd 2504 e1bd 35c1 6bbd 9a92 17be
000000a0: 4fe4 c2bd e416 bdbd d880 38be a039 35be
000000b0: 4590 7dbe 6c61 6d3f 58cd 633f e3fd 0b40
000000c0: 49c3 9bbf d00c 4ebe 7f47 463d c386 3b40
000000d0: 0bf3 0d40 7889 8340 e763 9e3e 09dc 3cbd
000000e0: 3755 303e 97a4 1b3f b369 9c3d d05d 073e
000000f0: 9905 9f3f aecb 343e 7b87 953f 2eba 873c
00000100: 240f 4a3e 0706 4dbe 47a5 793d 3317 9f3d
00000110: 9e7d 73bd c16f d63f 5923 d03e c20d 573e
00000120: fba4 f23d 444e 903c b625 453e 1b75 30be
00000130: 356c 2e3e 8200 e53d 6f8b ab3e d74e 843e
00000140: f808 f63e 51d4 04c0 4ff8 04bf 750e ebbe
00000150: f24c 0740 f1bc df3f 9ced 5440 cc42 4bbf
00000160: c50f 08c0 53f4 17bf 88a4 a73c f2be b0bd
00000170: 6470 0c3d 1c6b 33bf 88ce 6fbe 8478 10bd
00000180: 0a0a 74bf 479c 7fbe 1857 383e 8fd1 ecbf
00000190: 159b cabe 23db f2be c8b6 09bd 0675 43bd
000001a0: f24a 3c3e f23b e1be fe95 713e 3a0c ea3e
000001b0: 90b0 153e 8c39 6b3e 0e3b d13d 665b 1a3e
000001c0: 8b7d 0b3e 20fe c13d 41de c73e fdea 093e
000001d0: c309 423e 4b40 a63e 6b4e cbbc 4145 043f
000001e0: e9f4 9e3e 4057 283e 579d 183f db3c 733f
000001f0: 79a5 613f 6d85 c93f 587b 143e e44d 4a3e
00000200: 82e4 773e f172 a7be 241d 17bd f6d3 15be
00000210: c1e4 153f 0f8f d63e acec 093f 88c6 0fbf
00000220: 077a 813f a71f 35bf 57f1 d73e 3b0c a63f
00000230: f73c 623d 0614 f6bc 27fd e93f d8b4 0dc0

onnx::Conv_1394 f4 [16]
1.9642811 -1.1121535 -0.016292024 -0.5745658 0.879951 0.8821637 -0.3544427 -1.1164638
-0.5719875 -1.714247 0.8389535 -0.047790434 -0.19470769 0.35241067 -1.057588 -0.4692186
00000000: 906d fb3f 0c5b 8ebf da76 85bc bf16 13bf
00000010: 7844 613f 7bd5 613f 8379 b5be 49e8 8ebf
00000020: c66d 12bf 726c dbbf a8c5 563f e7bf 43bd
00000030: 7461 47be 2c6f b43e 0b5f 87bf 6c3d f0be

onnx::Conv_1396 f4 [8, 16, 1, 1]
-0.14016265 0.49501866 0.10341233 0.0037559948 1.3768753 0.17382018 -0.71186674 -0.6239085
0.02181909 0.15024814 -0.26440755 0.5630608 0.921766 -0.25921208 0.027793728 0.23244019
0.7229668 0.057973452 -0.52787113 -0.27501652 -0.4637804 0.10240186 0.085749574 0.0779677
0.11248043 0.2533326 0.5717155 0.34948677 -0.44630924 0.5265909 0.23075089 -0.2260312
0.6286404 -0.31684548 -0.5895091 0.3745083 -0.3658135 -0.38233122 -0.13869084 -0.012899792
-0.18557127 -0.24930638 0.4251638 -0.22402133 0.2520515 0.23378849 -0.076949246 -0.060582113
-0.19350082 0.12146359 0.12947668 -0.030041266 0.3444323 -0.10825203 -0.54470056 -0.09089592
0.08247856 0.21837156 0.1823393 0.13258184 0.29469007 -0.09306104 -0.31846747 0.3108795
0.2690968 -0.17135365 -0.13839577 -0.3368361 0.07855272 0.47333005 -0.3118544 -0.4272249
-0.004862681 0.2803094 0.60470223 -0.20502765 0.078600004 -0.116852395 -0.40836367 0.14303517
0.26070127 -0.33771592 0.1326914 -0.49165133 0.09558587 0.55975294 0.17707214 0.0887827
0.30703354 -0.43080342 -0.32271394 -0.21115121 -0.4459024 -0.19244707 -0.3293621 0.50235134
-0.0019823753 -0.2809419 0.42541713 0.17301498 -0.3843891 0.3977642 -0.16180423 0.192371
0.24130636 -0.030905435 -0.34643432 -0.23876539 -0.3836433 -0.26313248 0.867134 -0.39694732
-0.16849776 -0.141347 0.039896354 0.062492628 -0.02728504 0.3157467 -0.044456527 -0.08150287
-0.5127204 0.15040462 0.11899366 0.12591106 -0.22030354 0.20063834 -0.006966884 0.013372024
00000000: cc86 0fbe 1673 fd3e d8c9 d33d 2327 763b
00000010: 733d b03f ebfd 313e e63c 36bf 78b8 1fbf
00000020: f3bd b23c a6da 193e 6d60 87be c124 103f
00000030: dbf8 6b3f 72b7 84be acaf e33c cd04 6e3e
00000040: 5a14 393f 9275 6d3d 9022 07bf f7ce 8cbe
00000050: a074 edbe 11b8 d13d 799d af3d 88ad 9f3d
00000060: 245c e63d d0b4 813e f25b 123f eeef b23e
00000070: a582 e4be a9ce 063f f649 6c3e b974 67be
00000080: 94ee 203f 9239 a2be 12ea 16bf 8dbf bf3e
00000090: e84b bbbe ebc0 c3be f904 0ebe a659 53bc
000000a0: 6506 3ebe 2c4a 7fbe 12af d93e d965 65be
000000b0: e50c 813e 4066 6f3e 9197 9dbd f324 78bd
000000c0: 1425 46be e7c1 f83d 8995 043e 1a19 f6bc
000000d0: 6e59 b03e 3eb3 ddbd 7f71 0bbf a427 babd
000000e0: 85ea a83d cb9c 5f3e 27b7 3a3e 89c3 073e
000000f0: 9ee1 963e c996 bebd 2b0e a3be 992b 9f3e
00000100: 0ec7 893e 5577 2fbe 9fb7 0dbe c875 acbe
00000110: 40e0 a03d 5158 f23e 61ab 9fbe 39bd dabe
00000120: 2057 9fbb b784 8f3e c4cd 1a3f c5f2 51be
00000130: 0af9 a03d 4f50 efbd 0b15 d1be d077 123e
00000140: a37a 853e 1ae9 acbe 41e0 073e b9b9 fbbe
00000150: 86c2 c33d f84b 0f3f 6652 353e b4d3 b53d
00000160: 8033 9d3e 4492 dcbe c33a a5be 0638 58be
00000170: 524d e4be d810 45be 26a2 a8be 199a 003f
00000180: bdea 01bb 9ed7 8fbe 46d0 d93e d72a 313e
00000190: a6ce c4be c0a7 cb3e 02b0 25be e7fc 443e
000001a0: 0419 773e 652d fdbc d75f b1be ea7e 74be
000001b0: e56c c4be 4db9 86be 7efc 5d3f ae3c cbbe
000001c0: ad8a 2cbe 45bd 10be 5c6a 233d 45f8 7f3d
000001d0: e084 dfbc 8da9 a13e 0c18 36bd faea a6bd
000001e0: a541 03bf ab03 1a3e f3b2 f33d d4ee 003e
000001f0: 4097 61be 2374 4d3e 754a e4bb 5516 5b3c

onnx::Conv_1397 f4 [8]
-0.49195832 -1.0680647 -1.2059364 0.0102263875 0.66463095 0.0055459887 0.1496566 0.28448808
00000000: f6e1 fbbe 58b6 88bf 205c 9abf 948c 273c
00000010: 4125 2a3f 20bb b53b 943f 193e 6ca8 913e
