gtcrn_micro/models/onnx/gtcrn_micro.onnx (onnx, 326412 bytes, 117 tensors)

onnx::MatMul_2642 f4 [192, 64]
000000 00 00 80 3f cc bc 8c 2b 00 00 00 00 00 00 00 00
       1.0 1e-12 0.0 0.0
000010 00 00 00 00 00 00 00 00 00 00 00 00 00 00 00 00
       0.0 0.0 0.0 0.0
000020 00 00 00 00 00 00 00 00 00 00 00 00 00 00 00 00
       0.0 0.0 0.0 0.0
000030 00 00 00 00 00 00 00 00 00 00 00 00 00 00 00 00
       0.0 0.0 0.0 0.0
000040 00 00 00 00 00 00 00 00 00 00 00 00 00 00 00 00
       0.0 0.0 0.0 0.0
000050 00 00 00 00 00 00 00 00 00 00 00 00 00 00 00 00
       0.0 0.0 0.0 0.0
000060 00 00 00 00 00 00 00 00 00 00 00 00 00 00 00 00
       0.0 0.0 0.0 0.0
000070 00 00 00 00 00 00 00 00 00 00 00 00 00 00 00 00
       0.0 0.0 0.0 0.0
000080 00 00 00 00 00 00 00 00 00 00 00 00 00 00 00 00
       0.0 0.0 0.0 0.0
000090 00 00 00 00 00 00 00 00 00 00 00 00 00 00 00 00
       0.0 0.0 0.0 0.0
0000a0 00 00 00 00 00 00 00 00 00 00 00 00 00 00 00 00
       0.0 0.0 0.0 0.0
0000b0 00 00 00 00 00 00 00 00 00 00 00 00 00 00 00 00
       0.0 0.0 0.0 0.0
0000c0 00 00 00 00 00 00 00 00 00 00 00 00 00 00 00 00
       0.0 0.0 0.0 0.0
0000d0 00 00 00 00 00 00 00 00 00 00 00 00 00 00 00 00
       0.0 0.0 0.0 0.0
0000e0 00 00 00 00 00 00 00 00 00 00 00 00 00 00 00 00
       0.0 0.0 0.0 0.0
0000f0 00 00 00 00 00 00 00 00 00 00 00 00 00 00 00 00
       0.0 0.0 0.0 0.0
000100 00 00 00 00 00 00 80 3f cc bc 0c 2b 00 00 00 00
       0.0 1.0 5e-13 0.0
000110 00 00 00 00 00 00 00 00 00 00 00 00 00 00 00 00
       0.0 0.0 0.0 0.0
000120 00 00 00 00 00 00 00 00 00 00 00 00 00 00 00 00
       0.0 0.0 0.0 0.0
000130 00 00 00 00 00 00 00 00 00 00 00 00 00 00 00 00
       0.0 0.0 0.0 0.0
000140 00 00 00 00 00 00 00 00 00 00 00 00 00 00 00 00
       0.0 0.0 0.0 0.0
000150 00 00 00 00 00 00 00 00 00 00 00 00 00 00 00 00
       0.0 0.0 0.0 0.0
000160 00 00 00 00 00 00 00 00 00 00 00 00 00 00 00 00
       0.0 0.0 0.0 0.0
000170 00 00 00 00 00 00 00 00 00 00 00 00 00 00 00 00
       0.0 0.0 0.0 0.0
000180 00 00 00 00 00 00 00 00 00 00 00 00 00 00 00 00
       0.0 0.0 0.0 0.0
000190 00 00 00 00 00 00 00 00 00 00 00 00 00 00 00 00
       0.0 0.0 0.0 0.0
0001a0 00 00 00 00 00 00 00 00 00 00 00 00 00 00 00 00
       0.0 0.0 0.0 0.0
0001b0 00 00 00 00 00 00 00 00 00 00 00 00 00 00 00 00
       0.0 0.0 0.0 0.0
0001c0 00 00 00 00 00 00 00 00 00 00 00 00 00 00 00 00
       0.0 0.0 0.0 0.0
0001d0 00 00 00 00 00 00 00 00 00 00 00 00 00 00 00 00
       0.0 0.0 0.0 0.0
0001e0 00 00 00 00 00 00 00 00 00 00 00 00 00 00 00 00
       0.0 0.0 0.0 0.0
0001f0 00 00 00 00 00 00 00 00 00 00 00 00 00 00 00 00
       0.0 0.0 0.0 0.0
000200 00 00 00 00 00 00 00 3f 00 00 00 3f 00 00 00 00
       0.0 0.5 0.5 0.0
000210 00 00 00 00 00 00 00 00 00 00 00 00 00 00 00 00
       0.0 0.0 0.0 0.0
000220 00 00 00 00 00 00 00 00 00 00 00 00 00 00 00 00
       0.0 0.0 0.0 0.0
000230 00 00 00 00 00 00 00 00 00 00 00 00 00 00 00 00
       0.0 0.0 0.0 0.0
000240 00 00 00 00 00 00 00 00 00 00 00 00 00 00 00 00
       0.0 0.0 0.0 0.0
000250 00 00 00 00 00 00 00 00 00 00 00 00 00 00 00 00
       0.0 0.0 0.0 0.0
000260 00 00 00 00 00 00 00 00 00 00 00 00 00 00 00 00
       0.0 0.0 0.0 0.0
000270 00 00 00 00 00 00 00 00 00 00 00 00 00 00 00 00
       0.0 0.0 0.0 0.0
000280 00 00 00 00 00 00 00 00 00 00 00 00 00 00 00 00
       0.0 0.0 0.0 0.0
000290 00 00 00 00 00 00 00 00 00 00 00 00 00 00 00 00
       0.0 0.0 0.0 0.0
0002a0 00 00 00 00 00 00 00 00 00 00 00 00 00 00 00 00
       0.0 0.0 0.0 0.0
0002b0 00 00 00 00 00 00 00 00 00 00 00 00 00 00 00 00
       0.0 0.0 0.0 0.0
0002c0 00 00 00 00 00 00 00 00 00 00 00 00 00 00 00 00
       0.0 0.0 0.0 0.0
0002d0 00 00 00 00 00 00 00 00 00 00 00 00 00 00 00 00
       0.0 0.0 0.0 0.0
0002e0 00 00 00 00 00 00 00 00 00 00 00 00 00 00 00 00
       0.0 0.0 0.0 0.0
0002f0 00 00 00 00 00 00 00 00 00 00 00 00 00 00 00 00
       0.0 0.0 0.0 0.0
000300 00 00 00 00 00 00 00 00 00 00 80 3f cc bc 0c 2b
       0.0 0.0 1.0 5e-13
000310 00 00 00 00 00 00 00 00 00 00 00 00 00 00 00 00
       0.0 0.0 0.0 0.0
000320 00 00 00 00 00 00 00 00 00 00 00 00 00 00 00 00
       0.0 0.0 0.0 0.0
000330 00 00 00 00 00 00 00 00 00 00 00 00 00 00 00 00
       0.0 0.0 0.0 0.0
000340 00 00 00 00 00 00 00 00 00 00 00 00 00 00 00 00
       0.0 0.0 0.0 0.0
000350 00 00 00 00 00 00 00 00 00 00 00 00 00 00 00 00
       0.0 0.0 0.0 0.0
000360 00 00 00 00 00 00 00 00 00 00 00 00 00 00 00 00
       0.0 0.0 0.0 0.0
000370 00 00 00 00 00 00 00 00 00 00 00 00 00 00 00 00
       0.0 0.0 0.0 0.0
000380 00 00 00 00 00 00 00 00 00 00 00 00 00 00 00 00
       0.0 0.0 0.0 0.0
000390 00 00 00 00 00 00 00 00 00 00 00 00 00 00 00 00
       0.0 0.0 0.0 0.0
0003a0 00 00 00 00 00 00 00 00 00 00 00 00 00 00 00 00
       0.0 0.0 0.0 0.0
0003b0 00 00 00 00 00 00 00 00 00 00 00 00 00 00 00 00
       0.0 0.0 0.0 0.0
0003c0 00 00 00 00 00 00 00 00 00 00 00 00 00 00 00 00
       0.0 0.0 0.0 0.0
0003d0 00 00 00 00 00 00 00 00 00 00 00 00 00 00 00 00
       0.0 0.0 0.0 0.0
0003e0 00 00 00 00 00 00 00 00 00 00 00 00 00 00 00 00
       0.0 0.0 0.0 0.0
0003f0 00 00 00 00 00 00 00 00 00 00 00 00 00 00 00 00
       0.0 0.0 0.0 0.0

onnx::Conv_2602 f4 [16, 3, 1, 5]
000000 f1 11 40 be 1c f5 d3 3d fd 27 b1 bd 48 bd fc 3c
       -0.18756844 0.10349485 -0.08650205 0.030851975
000010 7d 49 76 be f9 0c 72 3e cc 28 80 be c9 db d1 3d
       -0.24051471 0.23637761 -0.25031126 0.10246999
000020 94 8b 1d be 13 28 bf bd ae 7d ce 3d fc f7 64 3e
       -0.15385276 -0.093338154 0.10082565 0.22360224
000030 ae c4 cd bd 30 e4 60 be 5a 11 0f 3e c5 c9 c3 3c
       -0.10047279 -0.21962047 0.13971463 0.023899922
000040 45 dc 14 3e 05 b7 15 3e c9 62 11 3e de 0d 7b 3d
       0.14537151 0.14620598 0.1419784 0.06129252
000050 63 67 30 3e f0 09 5d be dd 2e ee bd 8d 29 d6 bd
       0.17226939 -0.21585822 -0.11630032 -0.10457144
000060 b0 76 95 3d 53 64 84 bd 09 30 10 3e 82 fb 25 3e
       0.072980285 -0.06464448 0.14080824 0.16209224
000070 95 e4 f3 bd 7a f0 07 3e f5 af 2a be a1 f9 0b 3e
       -0.11908833 0.13275328 -0.16668685 0.13669445
000080 22 23 31 3e f3 43 e7 bd d0 72 00 be 9c 87 ae 3c
       0.17298558 -0.11292257 -0.12543797 0.021304898
000090 14 ec 4a be e3 ca 31 3e bb 86 63 3e 14 06 ed bd
       -0.19816619 0.17362551 0.22219364 -0.11573425
0000a0 72 83 65 3e 11 ee b4 3c 24 e1 d0 3d b6 e2 5c be
       0.22413424 0.022086175 0.10199192 -0.21570858
0000b0 e5 59 ca bd c1 5c b0 3c 5b a9 4a be 79 af 27 be
       -0.09880427 0.021528604 -0.19791166 -0.16375531
0000c0 e6 e6 86 3d 34 3b 40 be 1f d2 77 bd 6c f3 60 be
       0.06587009 -0.18772584 -0.06050312 -0.21967858
0000d0 90 41 4c 3e ca 3b 3c be 84 87 72 be 1e 4b 02 3e
       0.19946885 -0.18382183 -0.23684508 0.12723967
0000e0 e6 38 cc 3d 50 dc 12 bd d0 4b 28 be 50 89 cc 3d
       0.0997179 -0.035854638 -0.1643517 0.09987128
0000f0 7c 40 6e 3e 5d 32 6c 3e 48 9a b5 3c f5 d8 6d be
       0.23266786 0.23066087 0.022168294 -0.23227294
000100 01 6e 13 3d a4 ab 74 3d 23 a2 01 3b f5 7b 4c be
       0.03599358 0.059734 0.001978048 -0.19969161
000110 3f 38 04 be 6f a5 3e be 38 5f 1e 3c 1c df 75 be
       -0.12912081 -0.18617795 0.009666257 -0.2401089
000120 06 06 e9 3d 90 e5 65 3c 55 e2 43 3d 78 e4 c1 bd
       0.11378102 0.014031783 0.04782327 -0.09467405
000130 db 0d eb 3d ce 2c 76 bd de 6f 75 bd 13 15 6e be
       0.11477252 -0.060101323 -0.059921138 -0.23250227
000140 c5 96 e3 3d 78 dc 5b 3e 0c 84 6a be 0a da af bc
       0.111127414 0.21470821 -0.22901934 -0.021466274
000150 44 8d 5b be 9c 45 d1 bc 5a 5a 83 be bf 29 1b 3e
       -0.21440607 -0.025545888 -0.2565487 0.15152644
000160 ad 16 64 be 98 4d 39 be c7 ee 28 be c0 ba 1b 3e
       -0.22274275 -0.18096006 -0.16497336 0.15207958
000170 c0 66 00 3d b6 b7 f4 3c af 85 f5 3c 9d c3 43 3e
       0.03134799 0.029872756 0.029970972 0.1911759
000180 1d 97 40 be f7 ab ca 3c 5c 9b 7b 3d 3f 5b 04 3e
       -0.18807645 0.024740202 0.06142746 0.12925433
000190 fd a1 3d 3e 4a 51 a2 3b 35 e5 88 bd f4 c8 41 3e
       0.18518825 0.004953538 -0.06684343 0.18924314
0001a0 e1 47 5e 3d 17 dd f6 bc 9e c8 7b be b0 0e d3 bc
       0.054267768 -0.03013472 -0.24588248 -0.02576384
0001b0 34 a8 50 3e 66 83 6c 3e 35 19 3d bd cf 9c 2d bd
       0.20376664 0.23097 -0.046166617 -0.042385872
0001c0 eb de c0 bd 78 6a 99 bd 86 5d c4 bd 6a 01 af bd
       -0.09417518 -0.074910104 -0.09588151 -0.085451916
0001d0 ed c9 26 be 9e 8b 1a 3b 42 b0 07 be a7 6a 15 3d
       -0.16287966 0.0023581753 -0.13250831 0.036478665
0001e0 c8 ce a6 ba 72 5e d0 3d 3a 36 04 be 86 55 06 3e
       -0.001272642 0.10174264 -0.12911311 0.13118562
0001f0 30 10 14 be 86 5f 7c be f4 66 dd 3c 8c 52 96 bc
       -0.144593 -0.24645814 0.027026631 -0.018349908
000200 9f 21 82 bd 74 ba 80 3d 9c 3b 7e 3d 8a 79 f2 3c
       -0.06354069 0.06285563 0.062068567 0.02959897
000210 13 69 97 bd 7f ca 4e be 79 0d 20 be f2 04 e5 3d
       -0.07393088 -0.20194434 -0.1563014 0.11182584
000220 6a 9f 0a 3e 92 e2 61 be 2a b0 eb bd 0f dd 56 be
       0.13537374 -0.22059086 -0.1150821 -0.20982765
000230 51 af 26 bd be de e8 3d 95 48 19 3d 4e 5a 05 3d
       -0.04069454 0.1137061 0.037422735 0.032556824
000240 48 31 66 be 7b 73 27 3e 6e d9 ba bb 1f 2c f4 bd
       -0.22479737 0.16352646 -0.005702189 -0.11922478
000250 60 ad 0c 3e 96 05 4e be 36 8b 50 3e 68 78 28 3e
       0.13738012 -0.20119318 0.20365605 0.16452181
000260 50 48 42 be 6f e0 41 3e 2b 09 c8 3c 39 d7 2f be
       -0.18972898 0.18933271 0.024418434 -0.17171945
000270 1b 5f 18 bd 03 7d 2a 3d ed 01 be 3d 89 b2 08 3e
       -0.037200075 0.041623127 0.09277711 0.13349356
000280 77 02 e6 3d 11 c3 0f 3d 0f 6f bd 3d 17 85 7e 3e
       0.11230939 0.03509814 0.09249698 0.24855457
000290 0e 1d 0d 3e df 62 3c be ec ab 53 3e c8 cc 7c 3e
       0.13780615 -0.18397091 0.20671052 0.24687493
0002a0 c7 9e 35 3e c9 07 44 3e 8a 48 16 3e e7 b5 77 3e
       0.1773635 0.19143595 0.14676109 0.24190484
0002b0 4d 83 63 3e b0 18 c6 3d f8 82 dc bd 0e 72 6d 3e
       0.22218056 0.096726775 -0.10767168 0.2318804
0002c0 e1 f9 21 3e 40 02 18 bd a8 91 29 3e 93 13 0d 3e
       0.15817977 -0.03711152 0.1655947 0.13776998
0002d0 26 61 74 3c 77 68 98 bd e1 3d 88 3d 90 eb 0f 3e
       0.01491574 -0.074418 0.066524275 0.14054704
0002e0 00 98 16 be cb 33 66 3e 88 65 13 3e 66 f0 34 be
       -0.14706421 0.22480695 0.143942 -0.1766983
0002f0 2b 65 72 be 5a bb 9a bd 2f 8d 79 3c 23 ce 95 3d
       -0.23671405 -0.07555266 0.015231415 0.07314708
000300 12 74 64 3e ca 0f 01 be 8a 06 e3 3d 1a 5c 82 bd
       0.22309902 -0.1260368 0.110852316 -0.06365223
000310 cd a3 66 3e 92 aa 68 bb 0f 25 81 3d 78 12 7c 3e
       0.22523423 -0.0035502058 0.063058965 0.2461642
000320 66 19 a6 3d 70 34 0e be 31 22 2a 3e 71 b0 7b 3e
       0.08110313 -0.13887191 0.16614605 0.24579026
000330 8e 5b 5b be ee e4 64 3e 33 90 dc bc f7 af 27 3d
       -0.21421644 0.22352955 -0.026924228 0.040939298
000340 73 0c 5b 3e 9c 20 32 3e dc 76 e5 bc 58 f7 da 3d
       0.21391468 0.17395252 -0.028010778 0.10691708
000350 85 9a 16 3e f1 08 27 be 62 72 1b 3d 81 dc 7b 3e
       0.14707382 -0.16312005 0.03795088 0.24595834
000360 16 47 ac bd cb 9b ce bd e6 03 42 3e 17 07 5a 3e
       -0.08411996 -0.10088309 0.189468 0.21291767
000370 b0 5b 83 be 7a 78 5e 3e c5 c4 2f be f2 51 ac bd
       -0.2565589 0.21725646 -0.17164905 -0.08414067
000380 b4 8e 4d 3d 1b dc 82 3e 40 54 bb bd 80 df 90 bb
       0.05018492 0.25558552 -0.09146929 -0.0044211745
000390 85 0f ba bc 44 d2 51 3d 5b 47 57 be 90 a9 c5 3a
       -0.022712478 0.051225916 -0.21023314 0.0015080441
0003a0 d7 ef a8 3b 3b 24 21 3c 8b c5 7e 3e af 1f f0 39
       0.0051555443 0.009835298 0.24880044 0.00045799973
0003b0 cb 71 05 be 21 1a 5e 3e 90 ba 20 3e 0b c3 31 be
       -0.1303169 0.21689655 0.15696168 -0.17359559

onnx::Conv_2603 f4 [16]
000000 12 ac 28 be 37 e6 70 be 29 8d b3 bd f9 78 79 be
       -0.1647189 -0.2352532 -0.087671585 -0.24362554
000010 94 4a 3e be 89 36 07 3e e0 b5 5f 3e 46 c0 53 3e
       -0.18583137 0.13204397 0.21846724 0.20678815
000020 ba 14 75 3d 87 71 64 3d 0d 36 23 3e 4f 03 26 3e
       0.05983422 0.05577233 0.15938587 0.162122
000030 c2 03 b6 3d 15 13 2b 3e c1 4c 26 be b0 0a 76 be
       0.088874355 0.16706498 -0.16240217 -0.24027514

onnx::Conv_2605 f4 [16, 16, 1, 5]
000000 8f 99 c9 3d 44 25 5b 3c 27 e9 34 bc 5d 7f 72 bc
       0.09843742 0.013375584 -0.011041916 -0.014800874
000010 0f 26 c8 bd c3 4c 42 bd 11 60 98 bc 48 3a 6e 3d
       -0.09772884 -0.047436487 -0.018600496 0.05816105
000020 9e e8 2b bd bd 42 73 3c e9 d0 a6 bd 50 5f 7d 3d
       -0.041969888 0.014847455 -0.08145315 0.061858475
000030 fd 85 d3 3d e1 d0 86 3d 53 4b bc 3d 1c 5c b0 3b
       0.103282906 0.06582809 0.091940545 0.005382074
000040 7c 17 a2 bc be d9 a3 3d 01 4d 69 bd 13 6a 8e bd
       -0.019786589 0.080005154 -0.056958202 -0.06953826
000050 c2 32 b1 bd 7e a9 16 3d 1d 47 3e 3d ec 0e c1 3c
       -0.086522594 0.036782734 0.046454538 0.023566686
000060 a1 c9 42 3d f2 4b d3 bd d5 ce 97 3c 3e 9f 24 3d
       0.04755557 -0.1031722 0.018531242 0.040190928
000070 93 97 97 bc 8a c3 40 bb 71 d0 8c 3d 70 05 8c bd
       -0.018504893 -0.0029413425 0.068756945 -0.068369746
000080 ed 41 39 bd e1 e5 a1 3d 18 91 9c 3b 61 cb 5c bc
       -0.045228887 0.07905174 0.0047780387 -0.013476224
000090 1a f1 ce 3b 9a db 9a 3d 91 23 b0 bd 35 0e c2 3d
       0.0063153626 0.07561417 -0.08600534 0.09475366
0000a0 a5 65 b4 3d 76 c9 89 3c 28 85 cb 3d fe 8f d3 3d
       0.0880845 0.016819697 0.09937507 0.10330199
0000b0 bb c4 82 bc 93 63 65 bd d8 85 37 bd 18 ad f1 bc
       -0.015962949 -0.056003164 -0.044805378 -0.029501483
0000c0 9d a5 23 bd a1 d8 bc bd b8 56 8f 3d 54 a5 bf bd
       -0.039952863 -0.09221006 0.06998962 -0.09357706
0000d0 fd 04 15 bd 82 3b 16 3b 9b d7 c0 bc 47 14 78 bd
       -0.03638171 0.0022923653 -0.023540309 -0.060566213
0000e0 8a ba 92 3c 97 3e 8c 3d 32 1d 1e bd 4d be d5 bd
       0.017911214 0.068478756 -0.03860206 -0.104366876
0000f0 08 98 8c 3d 46 ea 0b 3d 00 d7 a3 3d 0b 0e 2e bd
       0.06864935 0.034158967 0.07999992 -0.04249386
000100 68 ee 18 bd c0 42 a8 bd d0 0a 0d bd 76 77 13 bc
       -0.037336737 -0.082158566 -0.03443414 -0.00900065
000110 2e 2d c1 3d 84 bd 7b 3d aa 21 a1 bd 0d 0f 64 bc
       0.094324455 0.061460033 -0.07867749 -0.013919604
000120 65 42 95 3d 91 c5 de 3d 37 09 ec bc 6c eb 24 3d
       0.072880544 0.108775266 -0.028812988 0.04026358
000130 bf 32 ca 3d 03 e2 50 3d 0e e6 97 bd d4 70 0b bd
       0.0987296 0.05099679 -0.07416926 -0.03404315
000140 30 a8 76 bd 87 7e 25 bd 76 fb 33 3d 9f 57 c6 bd
       -0.06021899 -0.04040387 0.043940984 -0.09684681
000150 2a 69 65 3d 1a b8 8a bd bb 40 af 3d 73 4b 90 bd
       0.056008495 -0.06773396 0.08557268 -0.07045641
000160 7c 4f a5 3d 72 69 1b bd 07 a4 e3 bc 3f 6a d8 bc
       0.08071801 -0.037942357 -0.027788175 -0.02641785
000170 d3 47 d2 3d 4e a1 cd 3c 2a 9e 89 3c 3d b5 a7 3d
       0.10267606 0.02510133 0.016799051 0.08188865
000180 76 69 1c bd 93 84 88 3d 18 c7 c4 bd 5c 96 32 3d
       -0.038186513 0.066659115 -0.096082866 0.043600425
000190 bd 88 d7 bd 3a 8c ba 3d 7a 46 cb 3d 7d 6c df 3c
       -0.10524128 0.09108777 0.09925552 0.02727341
0001a0 a2 22 19 3d 6b 08 5a 3d a0 82 de bc a3 f3 83 3d
       0.037386544 0.053230684 -0.027161896 0.064429544
0001b0 2f b7 f3 3c 3d 2e 5d bd 71 8d 2b bd 95 0a 6a bc
       0.029750435 -0.053999174 -0.041882936 -0.0142847495
0001c0 d4 65 9c bc f7 54 dd 3d de da 96 bd ec 6e b1 bd
       -0.019091524 0.108072214 -0.07365964 -0.08663735
0001d0 fb 35 a8 ba a6 c5 79 bd 4e 10 5c 3d ad 9b 89 3c
       -0.001283347 -0.060979508 0.053726487 0.016797865
0001e0 12 91 9a 3d 82 d1 9f 3d 0d d0 65 3c 8a fa 37 bd
       0.07547201 0.07803632 0.014026654 -0.044916667
0001f0 2e 64 a1 bd 1b 0a 85 bd 0f 5e d3 3d 2a 7e 28 3d
       -0.07880436 -0.06496068 0.10320675 0.041135944
000200 9a 19 9a 3c 2e 77 c8 3b 16 d6 45 3d df 41 8a bc
       0.018811036 0.006117723 0.04829987 -0.016877113
000210 62 79 8b bd 68 fc e0 bc 87 2e 04 bc 76 b5 26 bd
       -0.06810261 -0.027464107 -0.008067734 -0.0407004
000220 bc 91 c7 3c 1b 7d 15 bd 7a 66 a7 3b 6b 2a 36 3d
       0.024361484 -0.036496263 0.0051086517 0.044474047
000230 40 d9 4f 3d b1 79 a2 3d 9e b3 a4 3c b4 c8 92 3d
       0.050744295 0.07933367 0.02010518 0.07167187
000240 0f e1 d5 bd 9c 42 4f 3d 18 95 a2 3c c0 8f 9b bd
       -0.10443317 0.050600633 0.019846484 -0.075957775
000250 db 2b 9a bc 83 7e 0a 3d 64 4b 96 bd aa 77 07 bd
       -0.01881974 0.033812057 -0.07338598 -0.033073105
000260 8b b2 96 3d 04 65 dc 3d fc d6 b8 bc 63 d6 b0 3d
       0.07358273 0.10761455 -0.02256345 0.08634641
000270 a2 e5 92 3d 86 09 bd bb f0 14 e0 bd 2f 30 e1 bd
       0.07172705 -0.0057689575 -0.109414935 -0.109955184
000280 62 35 ba bd 1f 4a 86 3d ab 0b ac bc 0e d1 89 bd
       -0.09092213 0.06557106 -0.021001657 -0.06729327
000290 16 71 79 bc 30 af f3 3b e6 a6 df bd aa 36 40 bb
       -0.015224716 0.0074366555 -0.10920505 -0.0029329457
0002a0 b7 66 12 bc c8 04 ca 3c db 9a 71 bd 51 8a 39 bc
       -0.008935622 0.024660483 -0.058985572 -0.011324481
0002b0 6b f2 c5 bd 3e 8d a5 bc 4f 08 56 3d c2 2c af bd
       -0.09665378 -0.020208951 0.052254017 -0.08553459
0002c0 36 e4 74 bc 32 b6 a6 bd e1 5f d1 bd 24 75 62 3d
       -0.014946988 -0.0814022 -0.102233656 0.055287495
0002d0 77 00 21 3d 97 15 49 bd 4a d7 ab bb 26 19 09 bb
       0.039307084 -0.049092855 -0.0052441703 -0.002091953
0002e0 02 3c 78 bc ce c8 40 3d 28 a8 3e 3d d5 1c 37 bd
       -0.015151026 0.047066502 0.046547085 -0.04470523
0002f0 54 73 b9 bd 65 70 21 bd 27 d5 7f 3c b1 ff fc bc
       -0.090552 -0.03941383 0.015614784 -0.030883642
000300 75 8c 97 3d a2 8b a4 bd 9e 4b b0 bd 77 32 31 3d
       0.07399837 -0.08034445 -0.08608173 0.043261018
000310 b1 98 46 bd aa d1 e1 bd ce 1f c1 3d 34 e2 fe 3c
       -0.04848546 -0.11026318 0.094298944 0.031113721
000320 28 6e 6d bd 3f 8f d0 3d c4 8f 69 bd fc 04 84 bd
       -0.05796638 0.10183572 -0.05702187 -0.06446263
000330 e5 cf 46 bc 15 c9 b2 bd 3a 49 41 3d a1 ef a4 bc
       -0.012134527 -0.087297596 0.047188975 -0.020133795
000340 7f 47 9f 3d 1d 90 fc bc 29 a9 6c 3d 72 e8 c2 3d
       0.07777309 -0.030830437 0.05777851 0.09516992
000350 56 b3 6d 3d 94 6d 48 bd 7f f8 36 3d a4 0c 09 3d
       0.058032356 -0.048932627 0.044670578 0.03345932
000360 ad 24 08 3d 97 d3 c5 bd 9f 04 61 bc 5c 7a c8 bd
       0.0332381 -0.09659498 -0.013734012 -0.09788963
000370 6a cc 5b bd 28 07 b2 3d 42 ee 8a bd d4 08 76 bd
       -0.05366174 0.08692771 -0.06783725 -0.060067013
000380 ac 93 b8 bd ae 20 d3 3c 00 7b d0 3d 0c d4 df 3d
       -0.09012541 0.025772419 0.101797104 0.109291166
000390 f6 2e e3 bd 3d 0e 7c bd af cf 77 bd 7d ab a8 3d
       -0.110929415 -0.061537016 -0.060500797 0.08235834
0003a0 b5 94 e0 3b 7a e2 73 3d ed 81 d4 3d 9e 61 35 bd
       0.0068536648 0.059542157 0.10376344 -0.044282548
0003b0 fc 51 a3 bc b9 ee c0 bc 61 c7 a4 3c d8 c3 42 3d
       -0.019936554 -0.023551332 0.020114603 0.047550052
0003c0 e1 b0 59 bd 5a da 9d 3b 76 6b bd 3b 5d 6b 55 bd
       -0.0531472 0.0048172893 0.0057806326 -0.052104343
0003d0 57 f2 cb 3d e3 18 49 3d 34 99 97 3d 4e 2d 8d 3c
       0.09958332 0.049096 0.07402268 0.017233517
0003e0 55 de 32 3d 08 d4 ad 3d 9c da 95 3d 42 ee d2 bc
       0.043669064 0.084877074 0.07317087 -0.025748376
0003f0 ee 72 45 bd 7e 06 9d 3d e8 55 8e bd 2b c5 88 3d
       -0.04820531 0.07667254 -0.06949979 0.06678232

onnx::Conv_2606 f4 [16]
000000 9c 00 10 bd a2 5f 8e bd 52 2b d5 bd c9 e4 78 3d
       -0.03515683 -0.06951834 -0.10408653 0.06076506
000010 fc 8f 32 bc 39 1b 2f bd da b4 a0 bd 94 17 cf bd
       -0.010898586 -0.04275057 -0.07846995 -0.10111919
000020 90 5a ad bd f3 3c ba 3c c8 96 00 bc 29 c9 fd 3c
       -0.08464539 0.022734141 -0.007848449 0.03097971
000030 3e c7 aa 3c 2d 50 e5 3c 17 59 c8 3d 2f 4f c9 3c
       0.02084696 0.027992332 0.097826175 0.02457389

onnx::Conv_2608 f4 [16, 8, 1, 1]
000000 19 d7 7d 3d f9 3f 1d 3e 09 f4 96 be fd 8f 0f 3e
       0.06197271 0.15356435 -0.2948306 0.14019771
000010 ba ad 96 3e 8f 25 7d 3e 6e fb 43 3e 34 66 07 3d
       0.29429418 0.24721359 0.19138882 0.033056453
000020 eb 02 22 be 19 5a 84 3e 7a b4 bc 3d 67 9c 75 be
       -0.15821426 0.2584999 0.09214111 -0.23985444
000030 61 b5 0d be 8e 7c 7b 3e b9 63 aa 3e db 05 f0 ba
       -0.13838722 0.24559233 0.33279207 -0.0018312292
000040 ec 81 f8 bd bb 70 a8 3e 01 40 10 3e 9f ce a9 3e
       -0.12134156 0.32898507 0.14086916 0.33165452
000050 ba 4a b3 3e 9b f5 28 3e c9 fa 7b be 10 d5 6c 3d
       0.3501795 0.16499941 -0.24607386 0.05782038
000060 64 53 1c 3c 20 af a7 be d0 32 91 be c3 8b cb bc
       0.009541366 -0.32750797 -0.2835908 -0.024846917
000070 1d 8f d0 3d 93 52 fb 3d 53 64 c7 bd b2 eb 5e 3d
       0.10183547 0.12271609 -0.09735932 0.054423995
000080 9d dd 80 be 93 eb ad bd ad cf 34 be c6 81 af 3e
       -0.25169078 -0.08492198 -0.17657347 0.34278697
000090 2b e7 c6 bd 73 db a7 be 95 28 a3 3e f8 56 ad 3a
       -0.097120605 -0.32784614 0.318669 0.0013224771
0000a0 4c fb 84 3e 5c c1 82 3e 12 ed 05 be 2c 5a 6e be
       0.25972974 0.25538146 -0.13078716 -0.23276585
0000b0 db db 7a 3e 86 eb 98 be 43 a1 ad 3d 50 cc 31 be
       0.2449793 -0.2986719 0.08478024 -0.17363095
0000c0 e4 40 e4 3d 3e cd 94 bd ce ef 9a 3d c3 ef b5 3d
       0.111451894 -0.07265709 0.0756527 0.088836215
0000d0 95 22 a5 3e 3a af 28 be 65 9a 84 3e 63 b9 85 be
       0.32252946 -0.16473094 0.25899044 -0.26118
0000e0 b2 ba b0 3d 78 59 8b be 9d a5 56 3d 05 1a 2e 3e
       0.08629359 -0.27216697 0.052404035 0.17002113
0000f0 89 ce 03 be 22 14 fd bd ed 62 fe bd f7 ec d2 3d
       -0.12871756 -0.12357356 -0.12421212 0.10299104
000100 76 dd 6f 3e 39 94 25 be 14 5e 24 3e d2 e3 ac 3d
       0.23424324 -0.16169824 0.16051513 0.08441891
000110 d7 8f 5a 3c 6f 15 4e 3e 6d 50 54 be 9e c6 a7 be
       0.013339958 0.20125364 -0.20733805 -0.3276872
000120 a6 de 66 3e 86 17 86 3e 03 cd 41 be 37 17 42 be
       0.22545871 0.26189822 -0.18925862 -0.18954168
000130 33 1c 8d be 2e 52 9e 3e a9 57 d5 bd 44 e3 29 3d
       -0.27560577 0.30922073 -0.104171105 0.041476503
000140 a7 b3 df 3d 80 02 60 be 0b 56 cf bd a9 2a 0c 3e
       0.10922938 -0.21875954 -0.10123833 0.13688149
000150 73 0b a0 be 3a 47 79 3e 94 62 94 be 41 ad bb 3d
       -0.31258735 0.24343577 -0.2898146 0.09163905
000160 81 33 4a be d2 ac 5a 3e 45 37 0f be 35 26 33 3e
       -0.1974621 0.21354988 -0.13985927 0.17495044
000170 d4 e8 31 3d 80 57 12 3e d8 89 92 be 15 4f 34 3d
       0.043434933 0.14291191 -0.2862079 0.04402073
000180 17 9b 87 be 5f e8 88 3e ba 93 fc 3c 26 17 94 3e
       -0.26485512 0.26739785 0.03083216 0.2892391
000190 fa 81 8d be 1e 3a 84 be 2d 43 5a be 56 95 a5 be
       -0.27638227 -0.2582559 -0.21314688 -0.32340497
0001a0 67 ee ac be 78 01 89 3c 34 e7 ad be 57 11 38 3e
       -0.33775637 0.016724333 -0.33965456 0.17975365
0001b0 9a 27 b2 3e 3f 23 89 be 3f 24 8d 3e 8e 4e 88 be
       0.3479584 -0.26784703 0.27566716 -0.26622432
0001c0 b2 d4 18 be 2d fb 46 be 6f 4c a9 3d 8a 33 e5 3d
       -0.14924887 -0.19431753 0.08266532 0.11191471
0001d0 e4 ef 25 bd 57 8c bd 3c 2b 21 27 be 30 68 a5 be
       -0.04051198 0.023138208 -0.16321246 -0.3230605
0001e0 25 dc 8c 3e 85 37 9e 3e 85 2b 90 be 67 e6 57 3e
       0.27511707 0.30901733 -0.28158203 0.21083985
0001f0 3e 9e aa be 7f 73 a5 be 94 19 eb 3d 96 75 59 be
       -0.33323854 -0.3231468 0.11479488 -0.21236262

onnx::Conv_2609 f4 [16]
000000 f7 a9 65 3e 3e 4c de bd e7 55 89 3d 84 8d 6f 3e
       0.22428118 -0.10854386 0.06705838 0.23393828
000010 41 6a 1d bd 48 a7 3e be 5e 22 a8 3d 49 21 5e bd
       -0.03843141 -0.186185 0.0820968 -0.054230962
000020 a6 76 5c 3e de af a2 be c5 f7 76 be 96 5a 06 3e
       0.21529636 -0.317748 -0.24117954 0.13120493
000030 05 01 95 3e 0d ce 84 3c 43 f9 b2 3e eb a7 36 be
       0.2910234 0.016211534 0.34955797 -0.17837493

onnx::Conv_2611 f4 [16, 1, 3, 3]
000000 1e 8a 39 3e da 81 15 3d 31 7f 19 be ba d1 56 be
       0.18119094 0.03650079 -0.14989926 -0.20978442
000010 4b 59 65 bd 05 8f f7 bb 2f 34 5e be 86 6f 4a be
       -0.05599336 -0.007554891 -0.21699594 -0.19769105
000020 c5 51 03 3e 60 b0 54 be 47 76 4e 3e 91 5f d3 bd
       0.12824161 -0.20770407 0.20162307 -0.10320962
000030 71 1a e1 bd 63 04 a1 be fb 25 9f be 3e 66 74 be
       -0.109913714 -0.3144866 -0.31083664 -0.23867127
000040 eb 71 7e 3e 3c c8 93 3e 19 6f 99 be b0 e1 3d 3e
       0.24848144 0.28863704 -0.29967573 0.18543124
000050 75 3c 2d 3e 97 82 94 3e fa 5b 80 3e fe 2c 88 3e
       0.16917594 0.29005882 0.25070173 0.26596826
000060 1f d1 e8 bd 6d 31 2d be f9 a0 58 bd 48 b7 ca bd
       -0.11368012 -0.16913386 -0.05288789 -0.098982394
000070 98 39 bc 3d d0 8d a5 3e 04 bd a3 be f6 03 6b be
       0.09190673 0.32334757 -0.31980145 -0.2295073
000080 5f 9b 9b be 84 c6 8a 3e 1f 15 47 3e c0 82 d6 bd
       -0.30391976 0.2710458 0.19441651 -0.10474157
000090 ba 84 a2 3e 7b 0b 75 be dc ac b0 bd c0 dc 82 bd
       0.31741887 -0.2393016 -0.0862672 -0.06389761
0000a0 b5 ad 34 be 10 11 35 bd 47 57 90 bd 54 1f 9b be
       -0.17644389 -0.044205725 -0.07047897 -0.3029734
0000b0 5b a2 1b be 61 03 89 3e f0 d4 a3 bd 97 ef 0e be
       -0.15198652 0.2676039 -0.07999599 -0.13958584
0000c0 72 a5 8c be a8 9c 4b be 74 10 30 3e e6 ba 9f 3e
       -0.27469975 -0.19883978 0.17193776 0.3119728
0000d0 7f 06 85 3c 02 f6 91 3e 23 10 65 3e a5 0d 47 3e
       0.01623845 0.28508002 0.22369437 0.19438799
0000e0 49 50 9c be f2 d1 de 3d 8f b9 2d be 6a ee 13 be
       -0.30530003 0.10879888 -0.16965316 -0.14446416
0000f0 bb 69 93 be b3 2c eb 3d 3b 2b 92 3e 54 22 a4 be
       -0.28791603 0.11483135 0.28548607 -0.3205744
000100 f0 47 d5 3d 16 53 9e 3e da 3a 38 3e 17 28 ad 3d
       0.104141116 0.30922765 0.179912 0.08454912
000110 58 9b 34 3e 37 65 df bd 84 bd 97 3d 01 65 a1 be
       0.17637384 -0.10907977 0.07409194 -0.31522372
000120 44 1b 50 3e 92 4f 6e 3d 35 42 96 3d f8 dd 7b 3d
       0.20322901 0.058181353 0.07336847 0.061490983
000130 05 7e 75 bc 3a b2 37 3e 9a 96 96 3d f1 f1 b1 3d
       -0.014983659 0.17939082 0.07352944 0.08688725
000140 3b ba 12 3d d4 6e 60 be d4 86 66 3d 4b 6d 5b 3e
       0.035822134 -0.21917278 0.056280926 0.2142841
000150 8e 13 12 3e 1a cf 4d 3e 1f 0f 59 be a1 b4 3f be
       0.14265272 0.20098534 -0.21197174 -0.18721248
000160 58 87 ec 3d ec 68 4f be 90 a3 c1 bd d3 44 9a 3e
       0.11549252 -0.20254868 -0.09455025 0.30130634
000170 a0 04 4b 3e 24 6d a4 3e b0 1f 98 3e a1 3f ef 3d
       0.19825983 0.32114518 0.29711676 0.11682058
000180 6d 34 04 3e 49 b7 8a be 0c bc e2 bd 05 a8 b4 3c
       0.12910624 -0.2709296 -0.11071023 0.022052774
000190 23 09 ab bd 8c a2 e2 3d c3 37 9c be 30 28 03 3e
       -0.08351352 0.110661596 -0.30511293 0.12808299
0001a0 1d 1e 96 3e e8 1e 4b 3d bd b1 a8 be d2 4c 92 be
       0.2931985 0.04959002 -0.32948104 -0.28574234
0001b0 ed 36 77 be 3e 53 2f be c8 2a 7d be 5e ff 8a 3e
       -0.24142046 -0.17121598 -0.24723351 0.27147955
0001c0 96 b7 92 be b6 24 44 3e 26 f4 f3 bd e1 da a2 bd
       -0.2865569 0.19154629 -0.11911802 -0.07951904
0001d0 ce d8 85 3e 08 c1 13 3e d1 0d 0e bd e9 ee a6 3e
       0.2614197 0.14429104 -0.034681145 0.3260415
0001e0 4b 99 43 be 7d 0a 3e be 53 ee 29 3d 97 78 9d be
       -0.19101445 -0.18558688 0.04148705 -0.30756065
0001f0 1e c1 08 3d d2 59 1e be c7 35 ad 3b c7 7d 2d bc
       0.033387296 -0.15463951 0.005285952 -0.01058907
000200 d9 be 89 be c0 80 9e 3e 0e b9 72 be 71 84 af bd
       -0.26903418 0.30957603 -0.23703405 -0.08570183
000210 8f df d6 3c dc c4 40 3e 2e a4 e9 bd 8a f6 a3 3c
       0.026229648 0.18825096 -0.11408268 0.02001502
000220 32 96 8c 3d cc 64 28 3e 06 cf 74 3d 4e c1 ba bd
       0.06864585 0.16444701 0.059767745 -0.09118901
000230 5c 42 27 3e 59 9f 08 be 09 c4 47 3d 95 6a 3c be
       0.16333908 -0.13342036 0.048770938 -0.18400033

onnx::Conv_2612 f4 [16]
000000 a5 ec 8f be 3c ac ef 3d fe 04 86 be 3f 5f 83 be
       -0.28110233 0.11702773 -0.26175684 -0.25658605
000010 43 bf 5c 3d 97 b1 9e bd 52 b8 cf 3d 18 0b 5c 3d
       0.05389334 -0.07748716 0.10142578 0.053721517
000020 4d c4 a2 3e 42 6a 9e 3d 1b dc 4b be d7 92 1e 3e
       0.3179039 0.07735111 -0.19908182 0.15485702
000030 bd c2 8e be df 55 88 3e 39 30 22 3e c7 ef 8e 3e
       -0.2788295 0.26628014 0.15838708 0.2791731

onnx::Conv_2614 f4 [8, 16, 1, 1]
000000 c6 be 55 be e5 bd 0d 3e 8d 69 03 3d 67 57 4c 3e
       -0.20873556 0.1384197 0.032083083 0.19955216
000010 94 07 87 3b 54 83 1d 3d 7a 9d 66 3e b9 54 59 3e
       0.0041207764 0.038455322 0.2252101 0.21223725
000020 e9 ba 26 3d 63 03 08 3e 97 e3 65 3e d5 00 9a bd
       0.040705595 0.13282542 0.224501 -0.0751969
000030 bc 11 e7 bd 30 75 68 be 29 a3 3f 3d f2 c7 3d bd
       -0.112826794 -0.22700953 0.04678646 -0.04633326
000040 3f fd f5 bd 5b b1 51 bc cb b6 d3 bc a6 33 61 bd
       -0.120111935 -0.0127986325 -0.025843998 -0.054980896
000050 2a d1 23 3c bf 84 7b be bb 0e 64 be 12 90 55 be
       0.009998599 -0.24562357 -0.22271244 -0.2085574
000060 ee 1f 48 bd 9c 7b 1d be b9 60 6a 3e 90 8b 93 bb
       -0.048858576 -0.15379184 0.2288846 -0.004502721
000070 66 09 8d bd fc a2 5c 3e 7d 26 3b 3e 5b 5b ea bd
       -0.06886558 0.21546549 0.18276401 -0.11443206
000080 c6 ce 73 be f3 f9 0e be 74 b3 9f bd fc 74 1d be
       -0.23809347 -0.13962536 -0.077979 -0.15376657
000090 2f 3c 22 3e 17 1a 15 bd 18 d9 5c bc 03 72 38 3d
       0.1584327 -0.036401834 -0.013479494 0.045030605
0000a0 a7 0f 45 3e 39 29 1c be 8c 18 5a be 11 7e 2e 3e
       0.19244252 -0.152501 -0.21298426 0.17040278
0000b0 6a e0 06 3e b8 45 f4 3d c9 cc 76 3e fd 51 28 be
       0.13171545 0.1192736 0.24101557 -0.16437526
0000c0 c5 87 01 3e 67 5a 4b be 58 e9 ff bd b9 38 1b 3e
       0.12649448 -0.19858705 -0.12495679 0.15158357
0000d0 1d 38 cc bc 34 14 6d 3e 77 f7 dc bb cd 47 34 be
       -0.0249291 0.23152238 -0.0067433673 -0.17605515
0000e0 0b 35 03 3e 7e 24 54 be c4 f3 37 bb 6c de 16 be
       0.12813203 -0.20717046 -0.002806888 -0.14733285
0000f0 12 2c 4f be 9a f3 b1 bd 6f c8 2e 3d 89 36 72 3d
       -0.20231655 -0.086890414 0.042671617 0.05913404
000100 93 7c 33 3e 2c 5b 62 be 1d ca e4 bd 86 3c 0c be
       0.1752799 -0.22105092 -0.111713625 -0.13694963
000110 a4 8d e7 3d fd 98 8e bd 63 53 09 bd c1 d3 be 3a
       0.11306313 -0.06962774 -0.03352679 0.0014558957
000120 18 45 4e 3e bb 1e 2f 3e a0 0f cf bd ff 17 14 3d
       0.20143545 0.17101566 -0.10110402 0.036155697
000130 37 75 70 3e 6e 63 c8 3d 61 6b b3 3d f4 1f 86 bd
       0.23482214 0.0978459 0.08760715 -0.06549063
000140 67 06 2e be 8e ba 99 3d 09 b0 0e be 45 c3 21 be
       -0.1699463 0.075062856 -0.1393434 -0.15797146
000150 b3 f7 eb ba 51 70 03 3e d1 cb e4 3d 79 b9 53 3e
       -0.0018002897 0.12835814 0.111716874 0.20676221
000160 31 89 3f bd 40 f0 91 bc b6 86 0c 3e 44 5b 3d 3e
       -0.046761695 -0.017814755 0.13723263 0.18491846
000170 1a 27 74 3e 41 05 c1 3c d0 c7 5a bd e1 0a e5 bd
       0.23843041 0.023562076 -0.053413212 -0.111837156
000180 11 a0 90 3c ed cd fd bd f6 1c 99 3d 0a 11 69 3e
       0.01765445 -0.12392793 0.07476227 0.22760406
000190 41 ff 82 3d 04 b8 68 3e d0 e9 00 be 41 48 3f bc
       0.06396342 0.22726446 -0.12589192 -0.0116749415
0001a0 49 08 cb 3d 4f 0c 29 be 42 19 fb bd 83 fe 5e be
       0.0991369 -0.16508602 -0.12260677 -0.21776776
0001b0 8e 50 07 be d7 15 39 be 53 a2 08 3b c8 02 61 be
       -0.13214323 -0.18074737 0.0020848706 -0.21973717
0001c0 d0 37 5a 3e 0b e4 69 3e 0c 94 35 bd 02 52 bd 3d
       0.21310353 0.22840898 -0.04433064 0.092441574
0001d0 ae 21 ef 3d 42 1c 17 3e 16 9e 50 be 08 46 db bd
       0.11676346 0.14756873 -0.20372805 -0.10706717
0001e0 53 67 58 3e 4b 55 ae bd c0 e5 0c be 19 48 cb 3d
       0.21133165 -0.08512362 -0.13759518 0.09925861
0001f0 e0 f7 11 bd 7d b5 4b 3c 7a 72 3d be c9 ba 21 be
       -0.035636783 0.012433407 -0.185007 -0.15793909

onnx::Conv_2615 f4 [8]
000000 84 19 dc 3d 08 b9 e7 bd ba 2e 2a be 03 f7 26 3e
       0.10747054 -0.11314589 -0.16619387 0.16305165
000010 73 08 95 bd 65 99 7d be 97 b1 70 3e 25 7a 0e 3e
       -0.07277002 -0.24765547 0.23505245 0.13913782

onnx::LSTM_2671 f4 [1, 64, 8]
000000 da 5e 49 be b0 50 23 be b6 12 46 be 00 4d f1 3d
       -0.19665089 -0.15948749 -0.19343075 0.11782265
000010 80 a4 3d 3d 48 12 12 bd 44 0a e8 bd 58 f7 1c 3e
       0.046299458 -0.035661966 -0.11330083 0.15328729
000020 7a 7b 6f be b4 2c 9a 3d 48 10 76 bd 2e 59 5e 3e
       -0.23386946 0.07528058 -0.06007412 0.21713707
000030 18 9d 09 3d 80 46 50 be 4c 73 b7 3d 10 2c 4e 3d
       0.033597082 -0.20339394 0.08957538 0.05033499
000040 10 79 8a bc 8c 65 77 be 00 99 73 bc 6c d7 91 3d
       -0.01690343 -0.24159831 -0.014868021 0.071211666
000050 aa 5a 20 be 68 a6 16 3e 84 a6 93 bd bc 4f a2 3d
       -0.15659586 0.14711916 -0.07209495 0.079253644
000060 30 21 a4 bc b0 12 44 be 68 bd f3 bd 18 04 ff bd
       -0.020035356 -0.19147754 -0.11901361 -0.12451953
000070 e0 d2 0b be 9c 42 40 be 54 cd 27 be 98 53 79 bd
       -0.13654661 -0.1877541 -0.1638692 -0.060870737
000080 c4 a3 f5 bd b0 97 f2 bc 12 9e 40 be 9c 38 f6 bd
       -0.119941264 -0.029613346 -0.18810299 -0.12022516
000090 50 37 97 3d 5a ad 66 be f0 46 87 bd 2c 14 12 be
       0.07383597 -0.22527066 -0.06605327 -0.14265507
0000a0 58 00 78 be 40 39 cc 3c f2 d8 2e 3e 88 a8 ce bd
       -0.24218881 0.024929643 0.17074946 -0.100907385
0000b0 00 86 bd bc 1c b1 46 be fc 2c 8a 3d c0 8f 02 3e
       -0.023135185 -0.194035 0.06746861 0.12750149
0000c0 1c d8 7d be cc 36 15 be 64 6a 6b be 0e e5 3d 3e
       -0.2478947 -0.14571685 -0.22989804 0.18544409
0000d0 18 59 37 be 2a 19 00 be ce f6 70 3e 90 9e 7d bd
       -0.1790508 -0.125096 0.23531649 -0.061918795
0000e0 a4 d2 30 be 38 12 65 be d0 f2 ec bd 14 3f 91 bd
       -0.17267853 -0.22370231 -0.1156975 -0.07092109
0000f0 12 c3 76 3e 3c 3a b2 bd 58 33 48 bd d0 dd 0f be
       0.24097851 -0.087025136 -0.04887709 -0.14049459
000100 7a db 1c be 80 17 58 bc 66 39 74 be 0c a2 12 be
       -0.15318099 -0.013189197 -0.23850021 -0.14319628
000110 00 04 b8 39 c0 e0 9c bb 2c d9 82 3d 28 38 67 be
       0.00035098195 -0.0047875345 0.063890785 -0.22580016
000120 38 41 de 3d 68 f5 01 bd 80 02 ea bc cc 68 17 be
       0.10852283 -0.03172818 -0.028565645 -0.1478607
000130 70 88 7c 3d 78 51 d2 3d 3e 47 08 3e 10 e9 74 bd
       0.061653554 0.10269445 0.13308427 -0.05979258
000140 e2 f5 30 be 5e 16 6e 3e d2 44 1e be 6a cb 09 be
       -0.17281297 0.2325072 -0.1545594 -0.13456503
000150 72 f7 36 be e4 f2 8e bd e0 a0 7a 3d 5c bf 7d 3e
       -0.1786783 -0.069799215 0.06118858 0.24780029
000160 30 c5 b3 bd f8 84 e2 bd 04 fd 82 bd 9a 86 6d 3e
       -0.08777845 -0.11060518 -0.06395915 0.23195878
000170 10 4e ec 3c 86 da 31 be dc 7d 2c be 14 e0 2e 3e
       0.028845817 -0.17368516 -0.16844887 0.17077667
000180 d2 db 5f 3e 58 3e 7f 3d c8 63 c4 bd aa d8 7f 3e
       0.21861199 0.062315315 -0.09589344 0.24984995
000190 ea 91 6c 3e 90 27 a3 3c 58 de 93 3d 6a 14 5a be
       0.23102537 0.019916326 0.07220143 -0.2129685
0001a0 98 2d 2d 3d c8 4c 36 bd 70 cf ac 3d d8 2c 42 3d
       0.04227981 -0.044506818 0.08438003 0.047406048
0001b0 dc 6b 0b be 08 55 38 3e 20 e6 90 3d e4 8a 95 bd
       -0.13615364 0.18001187 0.07075143 -0.07301882
0001c0 74 6d d6 3d 62 49 76 be bc 35 ce 3d dc 4e 83 bd
       0.10470095 -0.24051431 0.10068843 -0.064115256
0001d0 f0 d3 83 3d 8e c9 68 be ba 07 0c be 34 27 2c be
       0.06436908 -0.22733137 -0.13674822 -0.1681183
0001e0 3a 56 44 3e dc ac ef 3d 00 74 4b 3e 60 66 7e bd
       0.19173518 0.11702892 0.19868469 -0.06210935
0001f0 1c 36 d0 3d ec 71 98 3d 9c 4e 0f 3e 28 67 62 3d
       0.101665705 0.07443604 0.13994831 0.05527416
000200 d0 b2 c1 bc b0 c6 9f 3d 68 a0 1c be 1c 2e c0 3d
       -0.023644835 0.078015685 -0.15295565 0.09383795
000210 b6 6e 61 3e 5a 9b 56 3e 1a e7 60 be c0 fe 7f bd
       0.22014889 0.209577 -0.21963158 -0.062498808
000220 32 0e 38 3e 72 da 35 3e 8a 25 27 be 1a 22 7a be
       0.17974165 0.17759112 -0.16322914 -0.24427071
000230 fc 1b a6 bd f0 d1 a1 bd d4 e4 da bd 6e 81 19 be
       -0.08110806 -0.079013705 -0.10688177 -0.1499078
000240 90 a3 ad 3c f4 3c 94 bd 38 9b 37 be 60 d1 f2 3c
       0.021196157 -0.072381884 -0.17930305 0.029640853
000250 80 f5 29 3e 36 9d 57 be 80 23 e4 3b 3c b1 a9 3d
       0.16597557 -0.21056065 0.0069622397 0.08285758
000260 88 4c 54 3e 00 c7 b5 bc 76 06 4f 3e 8c 36 6e 3e
       0.2073232 -0.022189617 0.20217308 0.23262995
000270 a8 c4 d2 bd 26 ff 23 3e c2 65 13 3e 70 fc 93 bd
       -0.102914155 0.160153 0.14394286 -0.07225883
000280 18 a1 4d 3e 70 fb 4e 3d ec b3 15 3e 48 c2 29 bd
       0.20080984 0.05053276 0.14619416 -0.041445047
000290 84 f8 b8 bd d8 c0 da bd 44 8a c3 3d 74 67 35 3e
       -0.090317756 -0.10681313 0.095478565 0.17715245
0002a0 48 c3 2d be 70 83 3e be 24 53 27 be ec 5f 95 bd
       -0.16969025 -0.18604827 -0.1634031 -0.07293686
0002b0 30 e6 c0 3c 1c fe a1 3d 0c 00 43 be 30 26 cb bc
       0.023547262 0.07909796 -0.19042987 -0.024798483
0002c0 ec a9 73 3e 52 53 5f be 60 55 95 3c a0 45 c5 3d
       0.23795289 -0.21809128 0.018229187 0.096324205
0002d0 d8 e5 c8 3d e0 28 74 3c 30 ca d6 bd f6 d7 70 be
       0.09809464 0.0149023235 -0.10487783 -0.23519883
0002e0 0e d5 61 be 72 4b 65 be 80 9a 6b bd 94 c4 62 3e
       -0.2205393 -0.22392061 -0.05752039 0.22145301
0002f0 3c d7 35 3e 6a f5 45 3e 98 70 1d 3d e8 c8 6d bd
       0.17757887 0.193319 0.038437456 -0.058052927
000300 9c 9c 5f be 00 cc 8d bb 28 f2 9b bd a0 70 8e bd
       -0.21837085 -0.004327297 -0.07614547 -0.06955075
000310 e8 59 76 bd 2c 9b ec bd f8 1f 6c be 30 6a 8c 3d
       -0.060144335 -0.11553034 -0.2305907 0.06856191
000320 e6 42 37 3e 24 8c 8f 3d a6 16 0d 3e 92 76 1a be
       0.17896613 0.070091516 0.13778171 -0.15084293
000330 86 de 2b be e4 76 a0 3d b0 9c 9d bd 38 1f 36 bd
       -0.16784105 0.078351766 -0.076959014 -0.044463366
000340 00 ae 26 ba f4 00 a1 3d 48 d8 dc 3d c0 35 11 3d
       -0.00063583255 0.0786151 0.1078344 0.03545165
000350 28 95 96 3d 20 59 70 bc d0 68 01 bd c4 b4 f9 3d
       0.07352668 -0.014669687 -0.031594098 0.121926814
000360 3a 38 6e 3e c0 81 21 3c 44 65 65 be 8c 55 2a be
       0.23263636 0.009857595 -0.22401911 -0.16634196
000370 46 ae 52 be 18 11 5c 3e 3c 85 25 3e a0 34 34 bc
       -0.20574293 0.21490896 0.16164106 -0.010998875
000380 14 8c 9c bd 86 91 3f be 2c 07 d3 bd e0 4c 4b bc
       -0.07643905 -0.18707857 -0.10304102 -0.012408465
000390 10 b0 ee 3d e8 70 86 3d 70 19 01 be e4 f8 d6 bd
       0.11654675 0.06564504 -0.1260736 -0.10496691
0003a0 78 08 d0 bd f2 e0 55 3e 14 04 ae bd 3c 94 0f be
       -0.10157865 0.20886591 -0.084968716 -0.1402139
0003b0 74 cb 25 be f8 c0 af bd 10 3a 52 be 8c cd 4a 3e
       -0.16190892 -0.08581728 -0.20529962 0.19804972
0003c0 14 61 25 be 88 b9 2e be 96 43 1e 3e d8 96 78 3d
       -0.16150314 -0.17062962 0.1545547 0.06069073
0003d0 8c eb 54 be 3c 54 6f 3e 80 67 4d bd 4c 0c 80 3d
       -0.20792979 0.23371977 -0.050147533 0.062523454
0003e0 e8 22 18 3d 00 f2 2a ba 54 bd 00 be 78 a0 4a 3e
       0.037142664 -0.0006521046 -0.12572223 0.19787776
0003f0 c4 85 70 be 48 91 7d 3e 54 db 45 3e 98 10 9e bd
       -0.23488528 0.24762452 0.19321948 -0.07718009

onnx::LSTM_2672 f4 [1, 64, 16]
000000 cc 8e 46 be 08 7c 0e be 20 cd 2e 3d 5c f0 47 be
       -0.1939041 -0.13914502 0.04267609 -0.19525284
000010 ec e7 3e 3e 62 d7 25 be 54 19 b7 3d 38 ad 45 3e
       0.18643159 -0.16195443 0.08940378 0.19304359
000020 e8 31 e5 bd 0c 6e e8 3d 16 62 46 be 42 de 3f be
       -0.111911595 0.11349115 -0.19373354 -0.18737128
000030 40 3c fb bc c0 b2 b6 bd 86 f3 0e 3e 5a 5e 18 be
       -0.030668378 -0.089208126 0.13960084 -0.14879742
000040 48 da 23 3d 32 e8 48 be cc d3 40 be e8 8d 54 be
       0.04000309 -0.19619825 -0.18830794 -0.20757258
000050 46 2a 4c 3e 5e 3e 05 be 2a 1c 4a 3e 78 10 7f 3d
       0.19938001 -0.13012072 0.19737306 0.062271565
000060 60 cf 51 3e f4 a3 9a bd 34 ab f2 3d e0 6f 77 3d
       0.20489264 -0.07550803 0.11849061 0.060409427
000070 ae cc 08 3e 7a 09 50 3e 40 59 85 3c c4 93 27 3e
       0.13359329 0.20316115 0.01627791 0.16364962
000080 2c b7 bd 3d 10 3d c8 3d 52 05 14 be b8 a7 30 3d
       0.09263453 0.09777272 -0.14455155 0.0431287
000090 c0 dd 59 3c 60 32 57 3e 08 18 6d 3d 80 48 8c bd
       0.013297498 0.2101531 0.057884246 -0.06849766
0000a0 00 67 41 3d 18 64 0e be cc 94 57 3e f8 4b 1c 3d
       0.04721737 -0.1390537 0.21052855 0.038158387
0000b0 5e a0 63 be 6e 68 3a 3e ae 96 14 3e d8 9b c1 bd
       -0.22229144 0.182039 0.14510605 -0.09453553
0000c0 1e b1 1c be 44 58 55 be 48 42 58 3d 62 f8 17 3e
       -0.1530194 -0.20834452 0.052797586 0.14840844
0000d0 70 9e 51 3e ca d7 69 3e c6 5d 06 3e d6 dd 3c be
       0.20470595 0.22836223 0.13121709 -0.18443999
0000e0 ae 49 30 be e0 b9 52 3e 60 ac 05 3e 10 2f f0 bd
       -0.17215607 0.20578718 0.13054037 -0.117277265
0000f0 34 a1 63 3e 44 1b d3 3d d0 e6 c1 bc 6a 72 76 3e
       0.22229463 0.10307935 -0.02366963 0.24067083
000100 82 4c 5f 3e 20 3b 31 3d 7c 14 43 be 70 39 52 3d
       0.21806529 0.043269277 -0.19050783 0.051324308
000110 06 52 23 3e d8 2b f1 3d 00 66 54 ba 34 8b 76 3e
       0.15949258 0.11775941 -0.00081023574 0.2407654
000120 78 dd 54 bd ec 53 87 bd c0 cc 68 be 10 ae 16 be
       -0.05196902 -0.06607804 -0.22734356 -0.14714837
000130 b8 26 e7 bd 16 c2 4a 3e 54 a8 87 3d a0 07 da 3c
       -0.11286682 0.198006 0.06623903 0.026614964
000140 d4 56 d2 bd 50 62 35 3d f0 6b 98 3c c4 87 e8 bd
       -0.102704674 0.04428321 0.018606156 -0.1135402
000150 38 d1 e9 bd 7e 1f 08 be 16 13 7c 3e 50 3e c4 3d
       -0.114168584 -0.13293263 0.24616656 0.09582198
000160 40 a1 97 bc e0 db 04 bc b8 56 06 be a4 73 64 be
       -0.018509507 -0.008109063 -0.13119018 -0.22309738
000170 86 39 1a 3e c4 76 97 3d ec 47 07 3e c6 3a 7f 3e
       0.15061006 0.073956996 0.1321103 0.24924764
000180 14 02 a4 3d fe f7 18 3e 0e 92 19 be 58 9e 87 bd
       0.08008209 0.14938352 -0.14997122 -0.066219985
000190 f6 f7 44 be 60 e3 e1 3d e0 84 3a bc 34 21 d9 bd
       -0.19235215 0.110296965 -0.011384219 -0.10602036
0001a0 2a 0a 3c be 50 07 0c be 30 d0 57 be 38 68 12 3e
       -0.18363252 -0.13674664 -0.21075511 0.14297569
0001b0 ce 20 52 3e d8 e2 19 3e da ad 15 be e4 3e fa bd
       0.20520326 0.1502794 -0.146171 -0.12219027
0001c0 c0 80 7a be b6 96 5e be 90 d1 9b 3c 80 42 60 bd
       -0.24463177 -0.21737179 0.019020826 -0.05475092
0001d0 08 7e b5 bd 20 6f e7 bc cc d4 94 3d 9a 4b 0e 3e
       -0.08861929 -0.02825123 0.0726715 0.13896027
0001e0 ac b4 8e bd 02 bf 0b 3e a0 c7 ea bc f0 3f e7 bc
       -0.06968054 0.13647082 -0.028659642 -0.02822873
0001f0 6c b7 03 3e 1a 70 5e be ea 37 6a be 00 5a 19 3b
       0.12862939 -0.21722451 -0.22872892 0.0023399591
000200 fc 5f c9 3d ae cc 32 be 88 b0 ab bd 2c 41 fa bd
       0.09832761 -0.17460892 -0.0838328 -0.12219462
000210 00 a6 89 3c 84 57 9d bd c0 4c de 3c 18 fa 31 3e
       0.016802788 -0.07682708 0.027136207 0.1738056
000220 40 7e b6 3c 62 e5 3c 3e b0 41 a9 3c 54 a3 d3 bd
       0.022276998 0.18446878 0.020661205 -0.10333887
000230 d0 07 20 be 7c 60 35 be c0 6b a5 bc 24 86 e9 bd
       -0.1562798 -0.17712587 -0.02019298 -0.114025384
000240 00 f0 4f 3c 40 24 13 3d a2 ae 24 3e c8 d9 4c 3d
       0.012691498 0.035923243 0.16082242 0.05001238
000250 0a 29 7f be 42 3a 2b 3e 50 c5 cf bc e8 e4 18 3d
       -0.24917999 0.16721442 -0.02536264 0.037327677
000260 54 99 22 be 00 fd 31 be 80 94 f3 3c e4 38 60 be
       -0.15878803 -0.17381668 0.029733896 -0.21896702
000270 9a 27 17 be 7c f9 22 3e 74 48 a1 3d e8 66 b1 3d
       -0.147612 0.15915483 0.078751475 0.08662206
000280 ac ae dd 3d 20 a9 3f be 22 24 56 be 1c b5 fd 3d
       0.10824332 -0.1871686 -0.20912221 0.123880595
000290 8e a2 52 3e ec e2 49 be cc 2c 09 be f0 3d 33 be
       0.20569822 -0.1971547 -0.13395995 -0.17504096
0002a0 16 2c 22 be 2a 65 62 be fc d6 de 3d e0 33 9a bd
       -0.1583713 -0.22108904 0.10880849 -0.075294256
0002b0 9a 37 36 be 72 31 69 3e 00 bd 7e bb d8 90 28 3e
       -0.17794648 0.22772768 -0.0038869977 0.16461504
0002c0 70 d3 c2 bd 40 fd bb bd ec ad aa 3d fe 0b 0f be
       -0.09512985 -0.09179163 0.08333954 -0.13969418
0002d0 14 8c b3 bd 24 63 ea 3d 90 b4 82 bd 7c ab d8 3d
       -0.08766952 0.11444691 -0.06382096 0.10579583
0002e0 b8 3a 40 3e e0 5f 98 bc 9e b8 19 3e 98 46 7a be
       0.187724 -0.018600404 0.15011832 -0.24440992
0002f0 f0 09 a4 3d bc 6d c6 3d c6 86 4d 3e 80 fb 17 3e
       0.08009708 0.09688899 0.20070943 0.14842033
000300 00 ee fd bb bc 76 1d be b4 11 69 3e 00 3d ae 3d
       -0.007749319 -0.15377325 0.2276066 0.085077286
000310 56 95 3b be 68 e1 a2 bd 94 f1 ab 3d 20 be 2b be
       -0.18318686 -0.07953149 0.08395687 -0.16771746
000320 d0 4c 1c 3e e8 c2 7b 3d fc cf 05 be 80 04 cb bb
       0.15263677 0.061465174 -0.13067621 -0.006195605
000330 d4 38 53 3e 34 b6 e4 bd 8c 2e 79 be 3c 06 b2 3d
       0.20627147 -0.11167565 -0.24334162 0.08692595
000340 b6 7b 11 be 68 af 9b 3d 40 82 c3 bd 14 2f 57 3e
       -0.14207348 0.076018155 -0.095463276 0.21014053
000350 64 ff b8 3d 50 de d8 bc 14 24 0e 3e 4c 0a 44 be
       0.09033087 -0.026473194 0.1388095 -0.19144553
000360 c8 89 48 3e e8 90 66 bd 0c ea ec bd 4c b1 d3 3d
       0.1958381 -0.056290537 -0.115680784 0.10336551
000370 10 44 be bd f0 2e 44 3e b8 39 43 3e 58 81 19 bd
       -0.09290326 0.1915853 0.19064987 -0.037476867
000380 c2 48 64 be 10 89 c9 bc 34 9e e2 3d 16 8d 2c 3e
       -0.2229338 -0.02460149 0.11065331 0.16850695
000390 34 77 a5 bd e0 d3 37 3c 68 56 72 3d 5c 27 75 be
       -0.08079377 0.0112199485 0.059164435 -0.23940796
0003a0 0c 93 a5 bd 30 f3 66 bd 00 0e 44 bb 1c 8c db bd
       -0.080846876 -0.056384265 -0.0029915571 -0.10720083
0003b0 40 eb a1 3b 34 c7 96 3d ec c1 d8 3d 5a 60 43 3e
       0.004941374 0.07362214 0.10583863 0.19079724
0003c0 68 57 37 3d 8e 35 4a be 50 95 2b bd bc aa 5c 3e
       0.04476109 -0.19746992 -0.041890442 0.21549505
0003d0 8e a4 3e be 00 71 28 3c 84 52 5a 3e 00 c5 32 3e
       -0.1861746 0.010280848 0.2132054 0.17457962
0003e0 58 5e e3 bd ec ab 80 bd e0 57 0e be f8 c0 47 bd
       -0.11101979 -0.062827915 -0.13900709 -0.048768014
0003f0 38 bd 75 3e 4e e9 34 3e 20 64 78 3d 80 cb ab 3b
       0.23997962 0.17667124 0.06064236 0.005242765

onnx::LSTM_2673 f4 [1, 128]
000000 a2 d8 18 be f4 0d c0 bd 38 4e 4f be f0 94 5e be
       -0.14926389 -0.09377661 -0.20244682 -0.21736503
000010 3e 1d 55 3e 0e b5 35 3e 84 98 8d bd cc fc fb bd
       0.20811936 0.17744848 -0.06913856 -0.123040766
000020 50 8a 88 bd 80 94 74 bd 40 80 08 bc 40 b0 5d be
       -0.06667006 -0.059711933 -0.008331358 -0.21649265
000030 4e 01 32 3e 80 51 6b 3c c0 9f c9 bb 90 cf cb bd
       0.1738331 0.014362693 -0.006153077 -0.09951699
000040 64 6e 49 be 90 d0 92 3d 24 80 77 be b4 5a c6 bd
       -0.19671017 0.071686864 -0.24169976 -0.09685269
000050 b0 e9 8d 3d c8 5c b7 3d 96 17 35 be 14 8d 97 bd
       0.06929338 0.089532435 -0.17684779 -0.073999554
000060 36 13 5c 3e 90 0c 99 bd f8 29 68 be c4 d3 f9 3d
       0.21491703 -0.07473099 -0.2267226 0.12198594
000070 90 be 7a 3d 18 f3 72 be e2 08 7c 3e 0e 80 6c be
       0.06121689 -0.23725545 0.24612764 -0.23095724
000080 b0 63 70 3e b0 ce ce bd c0 d4 3a bd 20 75 7f be
       0.23475528 -0.10098016 -0.04561305 -0.24947023
000090 5c 76 22 be 30 de cd 3c f0 75 3d bd b6 79 62 3e
       -0.15865463 0.025130361 -0.046255052 0.22116742
0000a0 90 cc 03 3e ae 5f 03 be 1a d5 01 be 16 8a 0c 3e
       0.12871003 -0.12829468 -0.12678948 0.1372455
0000b0 d0 80 db bc 4c 76 a5 3d 6e ca 73 be a0 39 24 bd
       -0.026794821 0.08079204 -0.2380769 -0.040094018
0000c0 9a 32 6c 3e 48 12 1d bd ba fd 2a 3e 38 48 b5 bd
       0.23066178 -0.038347512 0.16698352 -0.08851665
0000d0 48 8a 3c 3d 48 6a 55 bd 1c 5f 03 be 90 65 e6 bd
       0.046030313 -0.05210331 -0.1282925 -0.1124984
0000e0 b4 69 32 be b6 9e 57 be c2 a0 1a 3e 10 e2 4d 3e
       -0.17423135 -0.21056637 0.15100387 0.20105767
0000f0 14 da a9 3d 36 80 49 3e 90 d9 0b be 2a 92 1f be
       0.08293548 0.19677815 -0.13657212 -0.15583101
000100 88 3d 7c bd b0 fd 08 bd 2c be db bd 34 27 6a 3e
       -0.06158212 -0.03344506 -0.10729632 0.22866517
000110 14 fc f9 bd 80 47 22 3e 50 fb 90 bc d4 51 41 be
       -0.12206283 0.15847588 -0.01769796 -0.18878871
000120 ec e2 9a bd c8 cc 45 bd 5c 09 dd 3d 70 17 84 bc
       -0.07562813 -0.048290998 0.10792801 -0.016124457
000130 56 de 1e be 28 2f 90 3d 20 29 dc bd 80 e7 2a bc
       -0.15514502 0.07040244 -0.107500315 -0.01043117
000140 96 85 3b 3e 30 58 e7 3c c0 bb 5f be 30 26 eb 3d
       0.18312678 0.028240293 -0.21848965 0.11481893
000150 58 73 a7 3d 20 80 24 be d8 11 33 be c0 e8 75 be
       0.08176297 -0.16064501 -0.17487276 -0.24014568
000160 e0 9b 85 bd 88 a7 bd 3d 2c 0a cc 3d c0 eb da bc
       -0.065238714 0.0926047 0.09962878 -0.026723742
000170 b2 7e 6f be ba a0 13 3e e8 49 6e 3e 4a 10 32 be
       -0.23388174 0.14416781 0.2327038 -0.17389026
000180 70 29 b4 3c 28 bb c8 bd 30 aa c3 3d 34 47 3e 3e
       0.021992415 -0.09801322 0.09553945 0.1858185
000190 74 94 0b 3e 7c 00 17 be e0 aa 87 3c 12 1f 1e 3e
       0.13630849 -0.14746279 0.016560972 0.1544154
0001a0 dc f8 74 3e 70 45 da 3c 9e db 04 be 96 0b 1f be
       0.23923057 0.026644439 -0.12974402 -0.15531763
0001b0 fa 22 1a be 5c 2f a5 3d 80 38 6e bb f8 15 8a 3d
       -0.15052405 0.08065674 -0.0036349595 0.067424715
0001c0 64 87 a9 bd da 6b 2a 3e a0 1d fe 3d 40 e5 0b 3e
       -0.08277777 0.16642705 0.12407994 0.1366167
0001d0 c8 1e 07 3e da b3 0c be 60 2a 39 3c 08 56 01 3d
       0.13195336 -0.13740483 0.011301607 0.031576186
0001e0 d0 ef e9 bc ce 89 57 be 40 14 8a 3c 00 d6 63 3c
       -0.028556734 -0.21048662 0.01685536 0.013906002
0001f0 9e da 73 be b8 ff aa 3d 1c 2b 7b be 00 cc 0f 3d
       -0.23813865 0.08349556 -0.24528164 0.03510666

/encoder/en_convs.2/tra/att_lstm/ConstantOfShape_output_0 f4 [1, 1, 16]
000000 00 00 00 00 00 00 00 00 00 00 00 00 00 00 00 00
       0.0 0.0 0.0 0.0
000010 00 00 00 00 00 00 00 00 00 00 00 00 00 00 00 00
       0.0 0.0 0.0 0.0
000020 00 00 00 00 00 00 00 00 00 00 00 00 00 00 00 00
       0.0 0.0 0.0 0.0
000030 00 00 00 00 00 00 00 00 00 00 00 00 00 00 00 00
       0.0 0.0 0.0 0.0
